Multi-UAVs path planning/path planning/Path_DDPG_actor_new.pth (torch, 22511 bytes, 18 tensors)

in_to_y1.weight f4 [50, 7]
00000000: ab8f 1cbe a0b9 e23f c08d 823f 0d5f 2e3f
00000010: 2c08 22c0 c21a c5bc 5870 08bf 2bca b43f
00000020: 04a5 543f 8f69 d33f 78b3 0f3f c5bf d13f
00000030: 4b62 ae3e da7c f1bf 7e8f cd3f c966 f03e
00000040: 7701 a23d 59f9 5f3f 29c9 3540 c3b0 373f
00000050: ece7 f3bf 807a aec0 493e f6bc 2da9 b53f
00000060: a881 cabf 5c8c c23e 798b 0240 3864 b0bd
00000070: 4913 1abf eb6c b33e 558f 0f3f 5076 82be
00000080: 7938 aabf cf72 89bf 7b38 68bd d90a 58bf
00000090: eae2 693e ed82 5a3f 88b9 82bf 12d7 b7bf
000000a0: 36b5 02c0 6e44 cdbe 1bd2 27bd 391e 6bbf
000000b0: c347 1e3e 37c4 8d3f 3c17 ffbe eea1 eebe
000000c0: 81c4 9ebe a1d6 48c0 a9d6 5bbe bdd5 9dbe
000000d0: 03e4 86be 8a7d 4e3f 4c23 1e40 a3bc 8dbe
000000e0: d8db 0040 fcbe eb3d 5d73 debf 3b67 4c3e
000000f0: 2ca9 50bf d5ef 90bf 22fb e73d 31ed 94c0
00000100: 38b0 823e 09a2 d23d ebe9 0bbf 0e39 0dc0
00000110: 8f2a 353f 5a5f 80bf 5da1 0dc0 4514 3abf
00000120: 0ec5 f8bf a33b b83f 30e0 753f 6df4 1c40
00000130: 07bb 0b40 20d6 0f3f 1215 983f 3fdc c2bf
00000140: f9e7 49bf a1fb 51bf 9a12 75bf acca 0840
00000150: 1adb 023d d406 17bd aced 2c3d 2804 1fbc
00000160: 4050 603d 6373 08be 30b1 7a3d 989a 34c0
00000170: ecd7 ffbf e143 963f 9a51 153f b3a4 863d
00000180: a0b6 8a3f 7af9 c1be 5946 9abf ef38 f7bf
00000190: 850a 683e 190a 1d40 09b1 99bf c935 debf
000001a0: 9ca6 64bf 67e3 943c 8cf6 af3d 17cb 093c
000001b0: 5a18 80ba e6cc 67be b998 22bd cfba 0dbc
000001c0: 60fb 03c0 bd7b 2c40 5ab0 6b3f 22bb 2dbe
000001d0: 45b8 3dbf 3676 d23e 7a7c edbc 347e ddbc
000001e0: 34e0 84bf f1e2 293e cd3a 13be c733 a93f
000001f0: 67ee 5a3f 73ab 0840 e826 be3f 3e85 ebbf
00000200: 688f 3abf 44ec b93e cd8c a03c 5f75 80bf
00000210: 64b5 213e 004f 633f 97e5 293f 1625 5abf
00000220: 6af6 b03e 2014 2f40 28a2 4abe 0d00 eebf
00000230: 3767 e5be 9e86 adbf 4f36 0d3f 39cc 37be
00000240: 50aa 703f 4a53 de3e 796f 0ebf 3fad fa3c
00000250: b803 c8bc e7d9 a43c a06f 8ebe a34e a4bd
00000260: 0992 0c3d 5f15 0b3e e713 363e b620 2e40
00000270: 1f1f 07bf f505 9c3f cf91 88bd c25a 6dbf
00000280: 4fc2 5f3f 0fc4 46c0 9d2c 09be f77e 2f3f
00000290: e278 e23f 3307 81be 2628 233e 3d8c 4a3f
000002a0: eaad eabe 6fc7 1940 df81 4dbe 3583 b7bf
000002b0: 352e 7f3e 2260 67be 981d 58bf a5ad d43e
000002c0: 5f62 71bf a76b fb3e 02a7 ebbe 01e4 1940
000002d0: dc36 2440 d92a 4e40 2ba4 12c0 dd8d b13f
000002e0: 9708 80bf 19ac 8abf a872 a9bf 42c2 cf3f
000002f0: 4993 d13e 3057 81bf 7417 413e 158e 063f
00000300: 9bcc 41bf bec1 babe 2f4b 80bf 8f66 323d
00000310: 81f1 1d3f e429 15c0 37d5 bdbf 47f8 0abf
00000320: 8b0a 0f3f 1bfb 84bf 596e e03f f643 9abf
00000330: 7a29 1bbe 11ac a03e a166 c43f 440f 26bd
00000340: 3973 743f 2c2a af3e 2402 d8bf 5fd7 853e
00000350: dcb9 863f ed40 893f 8a63 2abf fa26 fb3e
00000360: 1737 d9be 53b9 2ebf 57fa ea3f 1a89 5b3f
00000370: d9e3 bf3f 4a11 283f fda3 8b3f f48d 963f
00000380: 5461 96bf ecd9 3f3f 5e7a ec3f 3260 7d3e
00000390: 90f1 77bf 4e46 3bbf 807d 67bf 2f03 36bb
000003a0: 37aa 57bd 294f 693d 2608 0cbe 5381 1fbe
000003b0: 1fec 293c a3f2 5fbd 8b6d 1840 eec0 acbf
000003c0: ce70 1840 0315 ce3e 44ed de3f 4a98 f33f
000003d0: deae d13e 8c63 5c3c 4243 e1ba 8123 603c
000003e0: 5601 263e bd8c d03d 8ed2 253d 6017 40bd
000003f0: 2e8b 93bf 9fcb 17bf fdbe ea3f 3055 55bf
-0.1528918 1.7712898 1.0199509 0.68113786 -2.5317488 -0.02406061 -0.5329642 1.4124197
0.83064294 1.6516589 0.5613322 1.6386648 0.34059367 -1.8866227 1.6059415 0.4695342
0.07910436 0.8748985 2.8404028 0.7175409 -1.9055152 -5.4524536 -0.030058997 1.4192253
-1.5820818 0.3799771 2.0397627 -0.08612865 -0.60185677 0.35044035 0.5607808 -0.2548089
-1.3298484 -1.0738162 -0.05669449 -0.8439155 0.22840467 0.85356027 -1.021287 -1.4362509
-2.0423102 -0.4009127 -0.040971857 -0.9184299 0.15457062 1.1075505 -0.49822414 -0.46607918
-0.31009296 -3.1381 -0.21468605 -0.30827132 -0.26345834 0.8066031 2.4709044 -0.2768298
2.0134182 0.11511037 -1.7378956 0.19961254 -0.81508136 -1.1323191 0.11327197 -4.653954
0.2552507 0.10284812 -0.54653805 -2.2066073 0.70768064 -1.0029099 -2.2129738 -0.7268718
-1.9435136 1.43932 0.9604521 2.4524186 2.1832902 0.56186104 1.188143 -1.5223464
-0.7886959 -0.8202458 -0.9573151 2.13737 0.031947233 -0.036871746 0.04221885 -0.009705581
0.054764032 -0.13325267 0.061204135 -2.8219357 -1.9987769 1.1739465 0.5832764 0.06574383
1.0836983 -0.37885648 -1.2052718 -1.931425 0.22660263 2.4537413 -1.2007152 -1.7360164
-0.89316726 0.01817484 0.08591947 0.008410237 -0.0009772882 -0.22636756 -0.03969643 -0.008650496
-2.0622177 2.6950524 0.92065966 -0.16965917 -0.741093 0.41105813 -0.02899002 -0.027037717
-1.0380921 0.16590478 -0.143779 1.3218926 0.85520023 2.1354644 1.4855623 -1.8400037
-0.7287507 0.3631307 0.019598389 -1.0035819 0.15791851 0.8879242 0.6636595 -0.8521284
0.34563 2.7356033 -0.1978842 -1.8593765 -0.4480531 -1.3556707 0.55160993 -0.17948999
0.94009876 0.4342292 -0.55638844 0.030600188 -0.024415836 0.020123435 -0.27819538 -0.08022811
0.034318957 0.13582371 0.1778103 2.7207465 -0.5278186 1.2189318 -0.06668436 -0.9271661
0.87405866 -3.1057165 -0.13395925 0.6855311 1.769314 -0.25200805 0.15933284 0.79120237
-0.4583581 2.4027975 -0.20069073 -1.4336916 0.2491997 -0.22595266 -0.84420156 0.4153873
-0.9429073 0.4910557 -0.46025854 2.4045413 2.5658484 3.2213652 -2.29127 1.3871418
-1.0002621 -1.083377 -1.3238115 1.6231158 0.40932682 -1.0104733 0.18856603 0.5256055
-0.7570283 -0.3647594 -1.0022944 0.04355484 0.6169663 -2.3306818 -1.4830693 -0.5428509
0.5587546 -1.0389131 1.7533675 -1.205199 -0.15152541 0.31381276 1.534382 -0.040541902
0.95488316 0.34211862 -1.6875653 0.26140878 1.052547 1.0722939 -0.66558135 0.49053174
-0.42424843 -0.6825153 1.8357648 0.85756075 1.4991409 0.6565138 1.090942 1.1762071
-1.1748452 0.749419 1.8474844 0.24743727 -0.9685297 -0.7315415 -0.9042587 -0.0027772894
-0.052652564 0.05696026 -0.13674983 -0.15576677 0.010371237 -0.054674756 2.381686 -1.3496377
2.381885 0.40250406 1.7416158 1.903085 0.40953726 0.013451468 -0.0017186182 0.01368034
0.16211447 0.10183094 0.040484004 -0.046897292 -1.1526849 -0.59295076 1.8339535 -0.8333311

in_to_y1.bias f4 [50]
00000000: ac0b ccbe a5c6 783e 5ea2 6c3f d227 873f
00000010: c511 7fbf 3f38 96bf 02cf cfbe 752d 583f
00000020: cc17 77bf 5e49 5c3f f534 2e3f ed63 43bf
00000030: 47af a9be ee01 033e f740 fabd fa94 a2be
00000040: 13d8 133f 292b f23f ac3f 833e 1773 723f
00000050: e6db 943e c66c 13be aebf 8cbf 3ea3 48be
00000060: 99f7 9b3f b689 883f 2d8b 9fbe 9113 b5bf
00000070: 66b5 583f e0d0 d93e d5ec 153f 7f9d 65bf
00000080: 7073 89bc 3cad 93be 6684 4f3e 1b7d 94be
00000090: c3ab a03f 831d f1be b224 003f c225 81be
000000a0: 5360 8b3e d09d 893f ed2c e63e 729e 20be
000000b0: 6ab4 873e 8e25 993f 15e9 083d 0bfc 8e3e
000000c0: 0222 043f c77f 273f
-0.39852655 0.24294527 0.9243525 1.0559027 -0.9963649 -1.1735915 -0.40587622 0.8444436
-0.96520686 0.8604945 0.68049556 -0.7632435 -0.33141539 0.12793705 -0.12219422 -0.31754285
0.5775158 1.8919421 0.25634515 0.94706863 0.2907402 -0.14396963 -1.0995996 -0.19593522
1.2184936 1.0667026 -0.3116087 -1.4146596 0.8465179 0.4254217 0.585645 -0.89693445
-0.016778678 -0.28843105 0.2026535 -0.29001698 1.2552418 -0.47092828 0.5005599 -0.2522412
0.27221927 1.0751286 0.4495615 -0.15685442 0.26504833 1.1964586 0.03342541 0.2792667
0.5161439 0.6542935

y1_to_y2.weight f4 [20, 50]
00000000: 70ab 32bf e98d c1bf 5a2c f3be 1cdf 93bf
00000010: 7bec 7bbf 1374 38bf 8f55 793d 841d 55bf
00000020: 1565 a03f a9e5 13bf 1a7a 3fbf 6565 093f
00000030: 9863 ba3d 6811 bebe f8c0 74bf 7a72 d9bd
00000040: 6d5b 7b3e 2aaa 56bf 22df da3f 6428 60be
00000050: abf5 323e 700e 503d 1189 773f 0be3 9dbf
00000060: c64a 8cbf d9f0 9dbf b428 08be 6293 41bf
00000070: 55df d93e 479e 3ec0 eb86 cabf d732 a7bf
00000080: 577a d2bf 6e07 703e 7681 56bf 0613 eb3c
00000090: d4c4 4cbf b52b 4f3f 9c83 00c0 1ce4 2dbe
000000a0: e55b 25c0 0324 bebf 9c78 5bc0 a8cd d33d
000000b0: ebb0 b23e e969 583e db94 56bf 24e2 813e
000000c0: 1831 47bf ee71 a3bf 2511 1e3f f542 c93e
000000d0: 44c0 a9be b216 7dbf 1161 8f3e af0a 17be
000000e0: 542e 8d3f 2646 ba3e db59 3e40 6163 9b40
000000f0: 7676 8dc0 95f7 05be e0d2 29be b686 3ac0
00000100: 2e99 6340 e5d8 793d a119 9e3f 9c00 0b3f
00000110: 168f c5be b5c9 0bbf 6114 953f 0989 eebd
00000120: c39b 083f e1cd 383f af34 cf3c 9e99 32bf
00000130: ccfe bd3c 318c 463f 9282 20c0 024b c53f
00000140: b805 a53f ea4e 99bf 4b71 c33d 0420 153d
00000150: 6086 a6bf 1bd9 bd3b 8045 0f40 1089 86bf
00000160: cdb5 15bf dce1 b0bd 5504 b43e 17ae 0abf
00000170: d0d6 0e40 1a00 42c0 9d24 96bf e3f6 38bf
00000180: d5c2 7cbf 7d68 783f 0535 0340 71b8 27c0
00000190: b749 5f40 080c bbbf 0258 0dbf 3431 6540
000001a0: 914d b1bf 340c e5bf 3ad4 b63f ad53 6c3e
000001b0: b91e c4c0 52fc 5240 95d3 713f c928 0340
000001c0: 0999 81bd 7203 62bd 5d04 a640 01d9 0d3d
000001d0: 51f8 58be a3d6 b53f d980 6d3f 9889 81bf
000001e0: 4f40 69bf eed6 b8bd 7642 62c0 e66b 4dbf
000001f0: 30f8 c3bd 96a4 9a3f bfad 35bf d2b1 e23f
00000200: 9673 4fbf 47e8 37bf ba35 0abe 91fc 4b3b
00000210: 0cbf edbf 9239 85be 85c4 0140 b2e4 18be
00000220: ab5d 2b3f ff38 fd3e 1c90 17c0 d865 63be
00000230: d3c8 9d40 1b5f 5dbe 0178 cabd 11f9 34c0
00000240: 25f2 b2bf 54ba 0d3f 9423 ad3f bbca 5cbf
00000250: 8689 6fc0 603b c1bf 47a5 0640 f271 793f
00000260: db84 423f 6222 393f d0b1 d6be 856d 2c3f
00000270: 4bc9 16c0 69c4 0b40 4fbe ec3f 4182 8bbf
00000280: e860 673f 3771 aa3f cc07 ab3b 3298 f7bf
00000290: fb01 42c0 2138 75bc 465d e03f 463b 49bf
000002a0: a444 91be ce7a 9b3f 32ea 0abd 611c 4e3e
000002b0: b91b 953f de0b 1840 051b 4440 9ba3 d7bd
000002c0: 20ff bf3e b3eb a9be 0524 f13e 4d34 cd3e
000002d0: 7786 bb3d 6c3b 8240 e15a a13f 5615 d53d
000002e0: bdce 923e fc83 d63d 2dfc 70c0 d210 98bf
000002f0: e61c 0d40 8f6b d93d b318 85bf 831a ae3f
00000300: 2f47 84bf 05e0 a240 fa39 5240 d450 edbe
00000310: 22e8 c6bf d333 1c3f 9528 80bd 7de4 88bf
00000320: dc68 9d3e f149 4bbf f9ed 82be 927f 553f
00000330: 4b07 a4bb d08b 80be f4a3 b3bf 0857 e1be
00000340: c488 8440 3ab9 d040 7bcb 9040 fbb1 0dc0
00000350: f8dd 833d 8973 4cbe 0bfb 3abf 52c6 a23b
00000360: 8165 33c0 2bd3 593f 2316 d43f d9e2 d33e
00000370: 4eb7 da3f 9ac2 42bd fa53 de40 4720 9a3c
00000380: cc80 b23e ed2c 7cbe 0286 e9bf 59d7 02bf
00000390: ba8d 6e40 44af 073f 162d 7a40 e3f4 55c0
000003a0: 5456 20c0 762e 20be 63b8 d1bf a091 97bc
000003b0: 964f a63f 4e1d 68bf 5fce 8740 e299 143e
000003c0: eec4 3c40 03d7 7abf 2be3 cb3f 47c2 82be
000003d0: d1e0 b63f b045 c63f 9535 93bf c62d 443d
000003e0: ec1d 3240 6649 5240 cae8 9e3c 1656 78bf
000003f0: 0393 cabe 9da1 9ebf 9ec9 223f 7ee3 fbbd
-0.6979284 -1.5121433 -0.47494775 -1.1552463 -0.98407716 -0.72052115 0.06087261 -0.8324816
1.2530848 -0.5777231 -0.7479569 0.5367034 0.09101027 -0.37122655 -0.95606947 -0.10617538
0.24546595 -0.838534 1.7099345 -0.21890408 0.17476527 0.05079502 0.9669352 -1.2334913
-1.0960319 -1.2339126 -0.13296777 -0.75615513 0.425532 -2.9784105 -1.5822424 -1.306239
-1.6443585 0.23440334 -0.8379129 0.028695595 -0.79987836 0.80926067 -2.0080328 -0.16981548
-2.5837338 -1.485474 -3.4292364 0.1034196 0.34900603 0.21134152 -0.83820885 0.25367844
-0.77809286 -1.2769144 0.6174491 0.39308897 -0.331545 -0.98862755 0.28003743 -0.14750169
1.1029763 0.36381644 2.9742343 4.855881 -4.4207106 -0.13082726 -0.16584349 -2.914472
3.5562243 0.060997862 1.2351571 0.54297805 -0.38585728 -0.54604656 1.1646844 -0.11647231
0.53362674 0.72189146 0.025293676 -0.6976565 0.023192786 0.77557665 -2.5079694 1.5413516
1.289237 -1.1977208 0.09543093 0.036407486 -1.3009758 0.0057937033 2.238617 -1.0510578
-0.5848053 -0.08636829 0.35159555 -0.5417189 2.231861 -3.0312562 -1.1729923 -0.7225172
-0.9873479 0.97034436 2.050111 -2.6206324 3.4888742 -1.4613047 -0.55212414 3.5811281
-1.3851796 -1.7894349 1.4283516 0.23078795 -6.1287503 3.2966504 0.94463474 2.0493643
-0.06328017 -0.055179067 5.1880326 0.03463078 -0.21188475 1.4206127 0.9277473 -1.0120115
-0.9111375 -0.090253696 -3.5353065 -0.80242765 -0.095688224 1.2081478 -0.7096824 1.7710516
-0.81035745 -0.718388 -0.13497058 0.0031125883 -1.8573928 -0.26020485 2.0276196 -0.1493099
0.669398 0.49457547 -2.3681707 -0.22206819 4.9307647 -0.21618311 -0.0988617 -2.8277018
-1.3980147 0.5536244 1.3526483 -0.8624684 -3.7427688 -1.5096245 2.1038377 0.9743949
0.7598397 0.7231809 -0.41932535 0.67354614 -2.356036 2.183863 1.8495578 -1.0899125
0.9038224 1.33158 0.0052194353 -1.9343321 -3.0313709 -0.014966995 1.7528465 -0.7860607
-0.2837268 1.2146852 -0.033914752 0.20128013 1.1649085 2.3757243 3.0641491 -0.10529252
0.37499332 -0.33187637 0.47097793 0.40078965 0.091565065 4.0697536 1.2605859 0.1040446
0.28673354 0.10474393 -3.7653916 -1.1880133 2.2048888 0.10616218 -1.0398163 1.3601841
-1.0334224 5.089846 3.2847886 -0.4635073 -1.5539591 0.6101658 -0.062577404 -1.0694729
0.30744064 -0.794097 -0.25572184 0.8339778 -0.005005752 -0.25106668 -1.403441 -0.44011712
4.141695 6.5226107 4.524839 -2.213988 0.064388216 -0.19965948 -0.7303931 0.0049674893
-2.8030703 0.8508784 1.6569256 0.4138401 1.708719 -0.047548868 6.947751 0.01881422
0.3486389 -0.24626513 -1.8244021 -0.51109844 3.7274003 0.5300181 3.9090018 -3.3430717
-2.505269 -0.15642723 -1.6384395 -0.018502057 1.2993038 -0.90669715 4.243942 0.14511827
2.9495196 -0.9798433 1.5928701 -0.25538847 1.4287359 1.5490017 -1.1500727 0.047895215
2.7830763 3.28573 0.019398112 -0.97006357 -0.39565286 -1.239307 0.63588893 -0.1229925

y1_to_y2.bias f4 [20]
00000000: 2b40 18bf 2f5f 98be 0679 6cbf a28c 4d3f
00000010: ad2f b23e 1b57 21bf 181f 86bf af9a ad3e
00000020: 163b 9c3f 19d3 a63f 1454 92bf 395b 413d
00000030: b086 4abe b242 923e ec62 8fbf 68d2 4fbf
00000040: e004 36bf 7676 4c3f dd0c 103d 53d9 c73f
-0.5947291 -0.2976012 -0.9237217 0.80292714 0.34802 -0.6302354 -1.0478239 0.33907077
1.2205532 1.3033172 -1.1431909 0.047206137 -0.19777942 0.2856651 -1.1202064 -0.8118043
-0.7110119 0.7986826 0.035168517 1.5613197

out.weight f4 [2, 20]
00000000: 46e7 23c0 e9e9 2e40 1b14 3ac0 6c06 a9bf
00000010: e6aa 0940 7f29 82bf 10a2 25c0 377d afbc
00000020: a3dc 3740 04ad b43f 33c3 1ac0 e572 a33e
00000030: 6a4c a5c0 5f2a 973f 6c47 b3c0 39c2 8e3e
00000040: 2a8a a0c0 d10e 8740 5640 5bc0 3e83 783f
00000050: 7a6d 863e 811b 7fbf 9c79 50c0 15ba 7940
00000060: 1674 2040 cc68 30c0 47e3 f5bf f5ce e340
00000070: a51e 1bc0 560c d7bf ae2a 9ec0 2650 cc40
00000080: 5ccb c740 298f a840 8424 c6c0 276b 3a40
00000090: c4fa d83f 5e2d cebf 63ef 213f 2260 8ec0
-2.5609908 2.7330267 -2.9074771 -1.3205085 2.1510558 -1.0168914 -2.5880165 -0.021422012
2.8728416 1.41153 -2.418164 0.31923595 -5.165578 1.1809806 -5.6024685 0.27882555
-5.0168657 4.2205586 -3.4258018 0.9707526 0.262554 -0.9965134 -3.2574224 3.9019825
2.5070853 -2.7563963 -1.9209985 7.1190133 -2.4237454 -1.680064 -4.94271 6.3847837
6.243574 5.2674756 -6.1919575 2.91279 1.6951528 -1.6107595 0.632559 -4.449235

out.bias f4 [2]
00000000: da5f 0a3f 44c2 373f
0.5405251 0.717808

exp_avg f4 [50, 7]
00000000: 9cc2 9338 7c27 2b37 a8d7 8537 2449 3538
00000010: 78d8 4a37 a0bf 0037 a381 5731 367b 39b8
00000020: ccc7 5ab8 f6d6 15b9 bd8c 0b38 3af7 73b8
00000030: e9c5 b7b7 1b0f 33b1 2006 03b8 e2f8 e4b6
00000040: 10de 0bb7 bc6a 0bb8 88d0 ceb6 8896 00b7
00000050: 78f0 c82e da82 d537 20dd 8737 f464 a338
00000060: 8d52 9438 ac89 4438 564e 8a37 11eb 16b1
00000070: 0400 0080 0400 0000 0400 0000 0400 0000
00000080: 0400 0000 0400 0000 0400 0080 0400 0080
00000090: 0400 0000 0400 0000 0400 0000 0400 0000
000000a0: 0400 0000 0400 0000 fd0a 08b8 6ad4 91b7
000000b0: 4204 5cb8 162f d3b8 8ad3 28b8 cc3d bdb7
000000c0: 0400 0080 44e9 80b8 ca3b bfb6 ad3e ddb8
000000d0: d82c d1b8 b022 57b8 9a90 12b8 990d c72d
000000e0: 27f5 5f37 13a3 1b37 b54c 8e36 696b 5636
000000f0: 6a82 d036 96c0 4936 0400 0080 f8c5 dcb4
00000100: 9498 a636 eca9 a936 284c 8837 dadd 7a36
00000110: 12ae 1e35 0400 0000 aefb b839 cc34 2939
00000120: 282d cc39 4096 da39 54ef 6d39 4aef 1739
00000130: 8b58 b6b2 9551 24b1 6e62 55b1 3575 94b1
00000140: 3ed1 16b0 d7fe 5cb1 7f10 9fb0 a56f f0b1
00000150: 0000 0000 0000 0000 0000 0000 0000 0000
00000160: 0000 0000 0000 0000 0000 0000 359c 1939
00000170: 3a58 9738 a25f 8039 753c 8539 8f00 0739
00000180: 95ef b338 0400 0080 ba4d d4b8 5a4f 2cb8
00000190: 5f28 bbb8 0c53 89b9 776b 03b9 4246 65b8
000001a0: 0400 0080 0400 0080 0400 0000 0400 0000
000001b0: 0400 0000 0400 0000 0400 0000 0000 0000
000001c0: 527b 23b9 7104 95b8 7ecd 53b9 4ebd 0db9
000001d0: 8cbb bfb8 7419 93b8 1211 afb0 d08c 0d38
000001e0: 286a 4338 4095 1839 8753 9ab8 1433 7e38
000001f0: 7446 8e37 5ac1 c631 f641 2b39 9020 2e38
00000200: f368 ff37 2696 2039 6513 b038 d6cc 3738
00000210: 0400 0080 acef 54b8 04ea 25b8 fb8b e0b8
00000220: 531b 30b8 dfdb 60b8 859b acb7 ba21 9f30
00000230: bcb0 ba38 c708 9d37 26bc 5bb8 f8f9 f938
00000240: 9831 cf37 4b9c b937 0400 0000 0400 0000
00000250: 0400 0000 0400 0000 0400 0000 0400 0000
00000260: 0400 0000 0400 0000 f011 0b3a d217 5a39
00000270: e6b7 7d39 acfe 063a 2a39 8039 0250 3039
00000280: 5e1d 8db2 eae0 9c38 693f b137 197b c338
00000290: 77f9 0d39 3be5 1638 75de 1b38 46be 31b2
000002a0: dc0b 0bb9 2c42 cdb8 2852 66b9 c498 97b8
000002b0: 2280 ecb8 ff31 51b8 70b8 92b0 666d 8537
000002c0: 8c35 82b6 c889 bb37 18aa 1a38 3ccb 2f37
000002d0: 0c97 ab36 acb1 45b0 0400 0080 0400 0080
000002e0: 0400 0000 0400 0000 0400 0000 0400 0000
000002f0: 0400 0000 0400 0000 0400 0080 0400 0080
00000300: 0400 0080 0400 0080 0400 0080 0400 0000
00000310: beb3 9c38 21c7 d337 1500 1d38 684f 3738
00000320: d86a 1438 8e58 a637 db77 18b2 7f0f 5739
00000330: a0fd 6e38 27bb 7038 8b5d 7239 808a b938
00000340: e775 7f38 955e 05b2 fadb 9639 1441 0239
00000350: 547f 3439 2f21 5539 f21e 1639 23be bb38
00000360: 1342 4eb1 4f66 8c38 e6f5 b638 0e6b 6039
00000370: 9b41 3a39 4cfb fa38 86c0 2638 5a51 2bb2
00000380: c16a 6539 9ed9 ff38 d4e8 7839 1f5e 1b39
00000390: e03d 3c39 607e 8d38 90cc 9d30 0400 0080
000003a0: 0400 0080 0400 0000 0400 0000 0400 0000
000003b0: 0400 0000 0000 0000 461b 3db8 ec15 63b7
000003c0: a037 5338 f043 24b8 a02d 8436 685c 2fb7
000003d0: 79cf 1232 0400 0000 0400 0080 0400 0000
000003e0: 0400 0000 0400 0000 0400 0000 0400 0000
000003f0: fad6 7ab7 c4ac 74b8 6d39 f0b8 ac50 65b6
7.045755e-05 1.0201587e-05 1.5955258e-05 4.322188e-05 1.2090539e-05 7.674011e-06 3.1360308e-09 -4.4222186e-05
-5.2161326e-05 -0.00014289827 3.3271255e-05 -5.8165962e-05 -2.1907459e-05 -2.6056515e-09 -3.123854e-05 -6.8239033e-06
-8.336749e-06 -3.3239587e-05 -6.1635546e-06 -7.664443e-06 9.137663e-11 2.5452511e-05 1.6196223e-05 7.79125e-05
7.072566e-05 4.685826e-05 1.648736e-05 -2.1961493e-09 -6e-45 6e-45 6e-45 6e-45
6e-45 6e-45 -6e-45 -6e-45 6e-45 6e-45 6e-45 6e-45
6e-45 6e-45 -3.243516e-05 -1.738426e-05 -5.2456053e-05 -0.000100700345 -4.0251332e-05 -2.2559332e-05
-6e-45 -6.146965e-05 -5.699204e-06 -0.000105497755 -9.9742494e-05 -5.12923e-05 -3.4943783e-05 2.262972e-11
1.3348915e-05 9.276689e-06 4.2408597e-06 3.1951006e-06 6.2140653e-06 3.0063434e-06 -6e-45 -4.1122235e-07
4.964948e-06 5.056374e-06 1.6247926e-05 3.7382038e-06 5.911289e-07 6e-45 0.0003528273 0.00016136764
0.00038943556 0.00041692145 0.00022691238 0.00014489624 -2.1227853e-08 -2.3911515e-09 -3.105153e-09 -4.320692e-09
-5.4867033e-10 -3.2159073e-09 -1.1573461e-09 -6.997612e-09 0.0 0.0 0.0 0.0
0.0 0.0 0.0 0.00014649409 7.2166746e-05 0.00024485314 0.0002541278 0.00012874811
8.580011e-05 -6e-45 -0.000101234255 -4.1081898e-05 -8.9243746e-05 -0.0002619255 -0.00012533167 -5.4663287e-05
-6e-45 -6e-45 6e-45 6e-45 6e-45 6e-45 6e-45 0.0
-0.00015590832 -7.105701e-05 -0.0002019908 -0.0001351733 -9.142523e-05 -7.014247e-05 -1.2737777e-09 3.374816e-05
4.659049e-05 0.0001455145 -7.3588504e-05 6.060589e-05 1.6960526e-05 5.78454e-09 0.00016332403 4.151516e-05
3.044724e-05 0.00015314724 8.3959465e-05 4.382137e-05 -6e-45 -5.076795e-05 -3.955701e-05 -0.00010707226
-4.1987118e-05 -5.3610533e-05 -2.0576417e-05 1.1578358e-09 8.9020905e-05 1.8719946e-05 -5.2388896e-05 0.000119198055
2.4699417e-05 2.2126498e-05 6e-45 6e-45 6e-45 6e-45 6e-45 6e-45
6e-45 6e-45 0.0005305102 0.00020798974 0.00024196468 0.00051496434 0.00024456653 0.00016814473
-1.6427915e-08 7.480553e-05 2.1129572e-05 9.321253e-05 0.00013539741 3.5976274e-05 3.716206e-05 -1.0346019e-08
-0.00013260491 -9.787487e-05 -0.00021965115 -7.228696e-05 -0.000112772235 -4.9876046e-05 -1.0675318e-09 1.5905778e-05
-3.8805356e-06 2.2356297e-05 3.6874873e-05 1.0478132e-05 5.1137813e-06 -7.192067e-10 -6e-45 -6e-45
6e-45 6e-45 6e-45 6e-45 6e-45 6e-45 -6e-45 -6e-45
-6e-45 -6e-45 -6e-45 6e-45 7.472139e-05 2.5245887e-05 3.7431793e-05 4.3704553e-05
3.5385456e-05 1.9829979e-05 -8.874816e-09 0.0002050977 5.697983e-05 5.739476e-05 0.00023113766 8.847285e-05
6.0906543e-05 -7.763124e-09 0.00028774125 0.0001242201 0.00017213571 0.00020325625 0.00014316643 8.9522706e-05
-3.0014504e-09 6.694777e-05 8.7242384e-05 0.00021402186 0.00017762782 0.00011967737 3.9756786e-05 -9.972007e-09
0.00021878911 0.00012199882 0.00023737858 0.00014817015 0.00017952127 6.746943e-05 1.1481394e-09 -6e-45
-6e-45 6e-45 6e-45 6e-45 6e-45 0.0 -4.508651e-05 -1.3535358e-05
5.0358125e-05 -3.916392e-05 3.939218e-06 -1.0452328e-05 8.545492e-09 6e-45 -6e-45 6e-45
6e-45 6e-45 6e-45 6e-45 -1.4951214e-05 -5.8335034e-05 -0.00011454788 -3.4170616e-06

exp_avg_sq f4 [50, 7]
00000000: e629 5834 c50d 9e33 8c83 f134 32a0 a934
00000010: 51b8 0334 2fee 1c33 3211 a227 a51e 3d33
00000020: 9ef7 a332 8b8a b333 2b88 6c33 3629 2933
00000030: ea27 e631 d93e 8229 c9d0 f233 4bde c732
00000040: 77c7 5e34 b1e2 b233 7d56 c233 698e 8c32
00000050: 553a 3a28 0632 d932 8051 4a32 526a f133
00000060: c3e4 0e33 a166 5833 1165 0332 9845 4f25
00000070: 7d04 0000 e403 0000 f401 0000 f401 0000
00000080: f401 0000 f401 0000 f401 0000 315b 0700
00000090: 62e8 0200 7e49 0100 e904 0000 1792 0000
000000a0: 6015 0000 f401 0000 d905 7933 a272 2532
000000b0: be6f 0e34 d7a3 5d34 9ef8 5533 c5e3 3b32
000000c0: 06a1 ad23 a72b e734 48b0 1234 4c22 ac35
000000d0: 3f59 d734 4bbe 1935 d224 c733 de86 7529
000000e0: f9ab 5f33 65de ba31 cb6a 1732 101a a432
000000f0: 13c9 0532 3372 1731 6c87 bf15 033c e52e
00000100: 6750 1130 7234 4231 f981 4831 83b2 a130
00000110: c6ae 4e2f f401 0000 b4dc fb34 622c 0b34
00000120: 5759 a535 6086 8435 cb98 1935 ce21 dc33
00000130: a17b 0729 c8ce a12a ed42 6929 28f9 8b29
00000140: a899 9028 ef25 0529 68dd c427 58f9 9429
00000150: 0000 0000 0000 0000 0000 0000 0000 0000
00000160: 0000 0000 0000 0000 0000 0000 83ca 1335
00000170: d67b 0434 714f 1136 c642 9535 ce47 6c35
00000180: 4a63 2734 8c7d 9220 2fe8 fe33 de58 0433
00000190: b692 c234 2c62 2a35 e551 2834 b240 f432
000001a0: 5c24 501f f401 0000 f401 0000 f401 0000
000001b0: f401 0000 f401 0000 f401 0000 0000 0000
000001c0: 4ea6 4f35 2b6e 7034 eb96 ec35 576c 4f35
000001d0: 5676 3f35 468f 1034 1296 9728 2d8a bb33
000001e0: 70ef 1733 e382 2d34 8156 bf33 2334 9b33
000001f0: 3287 5832 c495 2829 a770 4935 9037 e433
00000200: 4b3d 9535 7b83 2c35 c51b 0735 877e ca33
00000210: a2c1 b416 9e3f 3f33 c58f 5332 b491 b533
00000220: 93b7 2b33 3888 1733 9fea e131 7e26 b127
00000230: 6c02 2a34 2426 3c33 d8ea 9e34 294c 1c34
00000240: 26d1 0834 6bfc c232 eaca 2b26 f401 0000
00000250: f401 0000 f401 0000 f401 0000 f401 0000
00000260: f401 0000 f401 0000 e41a c634 19ac f333
00000270: 566a e334 cf0a 5735 b4b5 4b34 790b 3333
00000280: bd7d eb29 2d2e 7f33 7fc6 bb32 8c33 8134
00000290: 9635 5b34 5b91 d933 c64c 9932 76ec 4e2a
000002a0: 73db 6c34 9cac 6c33 4e3f d734 9688 3b34
000002b0: 9a87 4134 4698 0633 c079 9729 fece d634
000002c0: b008 da33 43ff 4e35 b665 8e34 3de0 b034
000002d0: faac 7f33 fbb8 2928 7026 1129 7aee 2d29
000002e0: 10be 1f2a bf02 e228 707b 9c29 23cd 3a28
000002f0: a4da 7925 9b26 0f02 db21 8301 1664 d000
00000300: a077 6d00 ade3 5e00 bb43 0f00 f401 0000
00000310: b198 5733 fb45 9d31 2e78 6a32 3fa7 ea32
00000320: 141a 6532 a1a1 6b31 326a 3629 5798 ab34
00000330: 6208 8433 f584 1535 2d03 a634 7fd9 8334
00000340: 8638 4433 ae9e 7a29 f93e b034 27ad ae33
00000350: 41b8 1a35 dacd a134 d2a4 8934 d834 4633
00000360: a64d 9128 2470 0a35 09b4 0434 0cd4 7535
00000370: e04c e234 0d53 df34 8be8 9a33 632a 4629
00000380: 31e0 f335 b7cb e934 bd5b 8536 f3be b635
00000390: cd97 e035 6c66 9d34 e11d 4b23 510c e509
000003a0: 878e 550f a7ba b70b f4f8 1a08 415f e20b
000003b0: bff6 a00a 0000 0000 5223 f934 1ad4 0334
000003c0: 866c 6f35 fd93 b734 58a2 ca34 38e2 9233
000003d0: 44d5 f828 f401 0000 f401 0000 f401 0000
000003e0: f401 0000 f401 0000 f401 0000 f401 0000
000003f0: 63d5 2335 3a48 1634 78ec 9135 98d0 df34
2.013181e-07 7.359953e-08 4.498546e-07 3.159526e-07 1.226738e-07 3.6538207e-08 4.4982676e-15 4.4032863e-08
1.90883e-08 8.360538e-08 5.5071876e-08 3.938586e-08 6.6984187e-09 5.784062e-14 1.1306981e-07 2.3267736e-08
2.0747926e-07 8.330006e-08 9.049561e-08 1.6362906e-08 1.0337723e-14 2.5284873e-08 1.17764785e-08 1.12417766e-07
3.327001e-08 5.038476e-08 7.648183e-09 1.7977967e-16 1.61e-42 1.396e-42 7e-43 7e-43
7e-43 7e-43 7e-43 6.75562e-40 2.67034e-40 1.182e-40 1.761e-42 5.2407e-41
7.668e-42 7e-43 5.798015e-08 9.6303285e-09 1.3265432e-07 2.0641833e-07 4.9819043e-08 1.0936621e-08
1.8824894e-17 4.3058864e-07 1.366144e-07 1.282498e-06 4.0111806e-07 5.7273854e-07 9.273357e-08 5.4517907e-14
5.207764e-08 5.438596e-09 8.813639e-09 1.9103965e-08 7.787338e-09 2.2038307e-09 7.7357944e-26 1.04243746e-10
5.286495e-10 2.8260527e-09 2.9177711e-09 1.1765028e-09 1.8797683e-10 7e-43 4.6912976e-07 1.296153e-07
1.2319459e-06 9.873875e-07 5.7219285e-07 1.02506974e-07 3.0083253e-14 2.8742828e-13 5.1794442e-14 6.216062e-14
1.605385e-14 2.9564835e-14 5.4640977e-15 6.6157746e-14 0.0 0.0 0.0 0.0
0.0 0.0 0.0 5.505646e-07 1.2338509e-07 2.1652925e-06 1.1120799e-06 8.802134e-07
1.5589208e-07 2.4816442e-19 1.1870031e-07 3.081447e-08 3.6242062e-07 6.3472794e-07 1.5676012e-07 2.8434759e-08
4.407579e-20 7e-43 7e-43 7e-43 7e-43 7e-43 7e-43 0.0
7.7355514e-07 2.239182e-07 1.7627293e-06 7.7271164e-07 7.1325246e-07 1.3463168e-07 1.682945e-14 8.733e-08
3.5375194e-08 1.6159497e-07 8.9098656e-08 7.2272336e-08 1.2603595e-08 3.7433395e-14 7.5042266e-07 1.0627184e-07
1.1119204e-06 6.426632e-07 5.033183e-07 9.429373e-08 2.9202768e-25 4.4528512e-08 1.2314506e-08 8.4549725e-08
3.9981e-08 3.5281317e-08 6.575035e-09 4.9169102e-15 1.5833365e-07 4.380685e-08 2.9600665e-07 1.4556339e-07
1.2742075e-07 2.2699359e-08 5.9602543e-16 7e-43 7e-43 7e-43 7e-43 7e-43
7e-43 7e-43 3.689994e-07 1.1346874e-07 4.2359414e-07 8.010947e-07 1.8971951e-07 4.168712e-08
1.04579085e-13 5.941381e-08 2.185993e-08 2.4065628e-07 2.0415459e-07 1.013129e-07 1.7846457e-08 1.8378514e-13
2.2059048e-07 5.510502e-08 4.009293e-07 1.7465422e-07 1.8023857e-07 3.1337798e-08 6.726867e-14 4.0011213e-07
1.0152996e-07 7.7112435e-07 2.6523566e-07 3.294571e-07 5.9529135e-08 9.421496e-15 3.2229807e-14 3.8620562e-14
1.4187978e-13 2.5092231e-14 6.949205e-14 1.0369556e-14 2.1671386e-16 1.051706e-37 4.817038e-38 1.9137687e-38
1.0052982e-38 8.714211e-39 1.40183e-39 7e-43 5.019746e-08 4.5772572e-09 1.3647918e-08 2.731724e-08
1.3335484e-08 3.4288876e-09 4.0504228e-14 3.1962074e-07 6.148254e-08 5.5700303e-07 3.092222e-07 2.45589e-07
4.5686214e-08 5.5648784e-14 3.2828373e-07 8.1340026e-08 5.7637595e-07 3.0138364e-07 2.563816e-07 4.614853e-08
1.6131908e-14 5.157219e-07 1.2358954e-07 9.157818e-07 4.2151714e-07 4.1597414e-07 7.213483e-08 4.4001596e-14
1.8170159e-06 4.3547854e-07 3.9743886e-06 1.361563e-06 1.673348e-06 2.931805e-07 1.1010979e-17 5.5141327e-33
1.05291606e-29 7.076988e-32 4.663533e-34 8.7195356e-32 1.5500255e-32 0.0 4.6405563e-07 1.2277488e-07
8.919236e-07 3.4194082e-07 3.7743553e-07 6.839804e-08 2.762602e-14 7e-43 7e-43 7e-43
7e-43 7e-43 7e-43 7e-43 6.103275e-07 1.3996114e-07 1.0872163e-06 4.168876e-07

exp_avg f4 [50]
00000000: bc36 6a38 5710 1ab9 8353 07b8 0cbd f038
00000010: 0400 0000 0400 0000 200e 08b9 d5ae 3cb9
00000020: 07c6 8437 de75 fe36 285d 453a ea64 f0b1
00000030: 0000 0000 e2c2 d539 8eb1 aab9 0400 0000
00000040: 236a b5b9 4411 0c39 3fcb 6339 0eb2 05b9
00000050: a376 a338 0400 0000 1fb7 643a fd09 3e39
00000060: fac3 94b9 ac20 e537 0400 0000 0400 0080
00000070: bbd5 e338 4a16 9339 e9c7 eb39 6a76 8139
00000080: da18 d639 0400 0000 5076 ffb7 0400 0000
00000090: e1de e1b8 cc88 9432 1291 bab6 0000 0000
000000a0: a819 0636 c0a7 c637 ab19 aab8 5320 26ba
000000b0: d070 4237 bff0 0439 7a0e 5338 686d 2438
000000c0: ae36 ebb8 ed58 3039
5.5840923e-05 -0.00014692672 -3.2264285e-05 0.000114793045 6e-45 6e-45 -0.00012975233 -0.00017994207
1.582784e-05 7.5835114e-06 0.0007528835 -6.996392e-09 0.0 0.00040771725 -0.00032557215 6e-45
-0.00034602088 0.00013357872 0.00021724122 -0.00012750199 7.7945435e-05 6e-45 0.0008724797 0.00018123533
-0.00028374774 2.7314141e-05 6e-45 -6e-45 0.00010864014 0.00028054632 0.00044971638 0.00024693023
0.00040835777 6e-45 -3.0453462e-05 6e-45 -0.000107703505 1.7291676e-08 -5.5601204e-06 0.0
1.998249e-06 2.3681554e-05 -8.111013e-05 -0.0006337214 1.1589567e-05 0.00012678186 5.0319803e-05 3.920254e-05
-0.00011215858 0.00016817795

exp_avg_sq f4 [50]
00000000: 8e5c 9035 6d99 7234 f941 0f35 999f 8c34
00000010: 1203 0000 b12e 0300 ef02 b734 4a06 4e36
00000020: 723c 8b33 f8a9 da31 ba7f 5936 1678 4a2a
00000030: 0000 0000 10f5 a836 dd31 7a35 f401 0000
00000040: a53e 9236 895d e234 2e8a 4e36 bb10 6634
00000050: fbef 4a35 f401 0000 cf45 ac35 7d71 1b35
00000060: dbef 8b35 d49f 0336 14f7 b32a 6acd 8f01
00000070: c26e dd33 c220 c535 f8b3 cc35 e062 2136
00000080: 98c2 2237 8db1 4e0d 3f19 1736 f401 0000
00000090: 8490 3d36 d3db 4a2d 8f2f 8631 0000 0000
000000a0: e9a5 9330 de48 eb34 ee4f 1435 3651 6936
000000b0: 606b 0435 4bdc 7635 32bf 4b35 6b80 9c35
000000c0: e435 8335 e67d 3935
1.0755773e-06 2.2593822e-07 5.3367654e-07 2.6193155e-07 1.101e-42 2.92256e-40 3.408854e-07 3.0700053e-06
6.483687e-08 6.3639582e-09 3.2409866e-06 1.7982867e-13 0.0 5.035319e-06 9.320482e-07 7e-43
4.358432e-06 4.2163836e-07 3.0776823e-06 2.1426506e-07 7.560008e-07 7e-43 1.2835316e-06 5.7907147e-07
1.0426114e-06 1.9613553e-06 3.1968232e-13 5.282466e-38 1.0311261e-07 1.4687178e-06 1.5251562e-06 2.4048422e-06
9.70126e-06 6.369237e-31 2.2515449e-06 7e-43 2.8247314e-06 1.1531181e-11 3.90532e-09 0.0
1.0742812e-09 4.382518e-07 5.525061e-07 3.4766977e-06 4.9330083e-07 9.196271e-07 7.590162e-07 1.166028e-06
9.775945e-07 6.9101077e-07

exp_avg f4 [20, 50]
00000000: 19f1 4e22 6a60 57a9 fb72 86a9 f60f 29a2
00000010: 0000 0000 0400 0000 38d3 c621 16c2 58a1
00000020: 824e 3d24 b3af b619 cbc0 38a0 a8ad ec9d
00000030: 0000 0000 0af3 e59f 9508 bda0 0400 0000
00000040: 4ed1 81a5 8f77 2aa9 859e 2ea8 794d 39a9
00000050: 113d 25a7 0400 0080 b259 94a1 b727 e81c
00000060: 1f07 bfa8 ee41 40a9 0400 0000 0400 0000
00000070: b977 29a7 2ce1 31a6 f3b4 a5a2 ac90 61a6
00000080: f150 bd23 0400 0080 f9c1 86a9 0400 0000
00000090: 1181 1da8 93eb 4b23 fec3 5e9d 0000 0000
000000a0: 758c b012 9121 90a9 34aa 52a8 79be 46a8
000000b0: d117 eca3 3975 2ea9 faa0 8ea8 bc98 91a8
000000c0: 51fb 3b20 5c8c 1aa3 cec8 75b6 b2b3 a7b8
000000d0: 6292 b9b8 6fcd 37b7 0400 0000 0400 0000
000000e0: b6d8 08b6 a900 1db7 4ad1 052d f120 95b5
000000f0: b6cf 03b7 7ee1 c924 0000 0000 9afb 19b7
00000100: eece 0cb7 0400 0000 552b b3b7 cfba 8ab8
00000110: f973 95b5 2629 5db8 a869 87b7 0400 0000
00000120: a83c 75b4 e7e2 2ab7 8198 8eb7 0b15 8bb8
00000130: 0400 0000 0400 0080 fc90 6eb2 ccca 17b8
00000140: 118b 19b8 5427 f9b7 ea44 9eb7 0400 0080
00000150: a9c8 c8b8 0400 0000 a90e 21b8 1cd0 2d27
00000160: 9cca d034 0000 0000 4091 f832 cd93 02b9
00000170: 9167 3bb8 fd1e 26b4 6297 0eb8 51f4 a5b8
00000180: 4903 08b8 eeb4 00b8 b178 5eb7 52b4 d4b6
00000190: c0dc 5034 b4de 2f39 980f ed38 5662 e436
000001a0: 0400 0080 0400 0000 b87e a735 00bc 96b3
000001b0: ae7e 0c34 27ae 27b6 c907 40b8 ef1f c32b
000001c0: 0000 0000 dbc4 e536 a083 f0b6 0400 0080
000001d0: d6f7 0139 57ce ff38 03c4 8fb8 4b40 8538
000001e0: 9481 6038 0400 0000 0615 24b7 54af a5b6
000001f0: 449a 1239 140e 1e39 0400 0080 0400 0000
00000200: 5566 99b5 e025 6a36 0690 8038 e8ab 3038
00000210: 669c 9338 0400 0000 c4ae 3c39 0400 0080
00000220: 4ed6 4139 d416 112b 6a41 bdb4 0000 0000
00000230: bd70 49b3 e8ca 4439 20eb 3636 ecc6 2d38
00000240: 8a41 8638 0e77 b438 0149 ab38 3844 3837
00000250: 9c69 3136 6983 bbb8 ce6b a22c 3bf2 03b4
00000260: e1a8 3ab4 9cd1 90ae 0400 0000 0400 0000
00000270: 1afc c2b1 5d24 d4b2 8de5 81b1 d223 7b2a
00000280: 56cc 37b3 0400 0080 0000 0000 9926 e9b2
00000290: 6c9b 95b2 0400 0080 b6af 9eaf 8459 1db4
000002a0: b108 56b3 3ac4 f7b3 f94f 63b3 0400 0000
000002b0: 6e13 9a28 8af1 9eb0 736a 56b1 4604 21b4
000002c0: 0400 0000 0400 0000 4b5b 32b3 c705 65b3
000002d0: 0cf3 17b3 0b23 08b2 dfac 08b0 0400 0000
000002e0: 1f68 4bb4 0400 0080 7f10 66b3 8456 3cb0
000002f0: 0951 a3b1 0000 0000 76da b227 9bcd 6eb4
00000300: 7bca 92b3 c7dd 9d2f dcf9 5bb2 7a4c 27b4
00000310: 3138 b6b3 521c 3cb3 94ed 5cb2 0655 34b3
00000320: 06cd 2336 83f4 a938 f1ae 0239 0637 f4b6
00000330: 0400 0080 0400 0000 d4e4 2eb6 9315 87b6
00000340: 3e92 d8b4 6e3a 9130 90f8 c135 7345 8aa9
00000350: 0000 0000 de33 f1b5 60a4 0735 0400 0000
00000360: 6bb9 93b7 faf3 8d38 b945 2238 e4d8 b638
00000370: 4a85 0cb7 0400 0080 7c93 00b6 be90 9c36
00000380: 4b2f 9737 8c1d 8f38 0400 0000 0400 0000
00000390: 4aff 81b4 c4f3 3c37 3822 3eb7 609f 9c35
000003a0: b45a 42b7 0400 0080 d8ea d838 0400 0000
000003b0: 2d2d b4b7 be00 fcb1 d955 2a2f 0000 0000
000003c0: 240c 3f94 5466 0339 1919 3a38 fe3e 5eb5
000003d0: 1ce7 15b7 af82 af38 7062 7c37 40df 3438
000003e0: 574b 38b6 c681 c837 8c9d c7b0 dc11 66b3
000003f0: 574f a1b3 b8b1 3531 0400 0080 0400 0080
2.8045842e-18 -4.7823216e-14 -5.9707413e-14 -2.291222e-18 0.0 6e-45 1.3472911e-18 -7.3440517e-19
4.104934e-17 1.8889323e-23 -1.5649196e-19 -6.2648236e-21 0.0 -9.738735e-20 -3.2023525e-19 6e-45
-2.2519763e-16 -3.7851283e-14 -9.693314e-15 -4.114545e-14 -2.2931454e-15 -6e-45 -1.0052612e-18 1.5362738e-21
-2.1208348e-14 -4.268975e-14 6e-45 6e-45 -2.3518363e-15 -6.1714376e-16 -4.4914927e-18 -7.8258623e-16
2.0525701e-17 -6e-45 -5.984444e-14 6e-45 -8.7432376e-15 1.1054537e-17 -2.948278e-21 0.0
1.1141787e-27 -6.4007075e-14 -1.1694249e-14 -1.103251e-14 -2.5597258e-17 -3.8737436e-14 -1.583498e-14 -1.6164472e-14
1.592267e-19 -8.378079e-18 -3.6624729e-06 -7.9966514e-05 -8.848753e-05 -1.0955481e-05 6e-45 6e-45
-2.0391722e-06 -9.358083e-06 7.606646e-12 -1.1110952e-06 -7.85657e-06 8.755185e-17 0.0 -9.178091e-06
-8.39283e-06 6e-45 -2.135864e-05 -6.6151486e-05 -1.1135118e-06 -5.272883e-05 -1.6142454e-05 6e-45
-2.283947e-07 -1.0185619e-05 -1.6998734e-05 -6.631956e-05 6e-45 -6e-45 -1.3886389e-08 -3.6190075e-05
-3.660756e-05 -2.9701427e-05 -1.8867158e-05 -6e-45 -9.574119e-05 6e-45 -3.8399045e-05 2.412139e-15
3.8890437e-07 0.0 2.8937052e-08 -0.00012452826 -4.4680728e-05 -1.5471228e-07 -3.3996424e-05 -7.9133206e-05
-3.2427986e-05 -3.0686082e-05 -1.3260332e-05 -6.3390844e-06 1.9451818e-07 0.00016772264 0.00011303945 6.8063773e-06
-6e-45 6e-45 1.247935e-06 -7.019116e-08 1.3084602e-07 -2.498631e-06 -4.5783618e-05 1.3864447e-12
0.0 6.847649e-06 -7.1678805e-06 -6e-45 0.00012394725 0.00012197781 -6.8552814e-05 6.35391e-05
5.352644e-05 6e-45 -9.780057e-06 -4.937794e-06 0.00013981113 0.00015073299 -6e-45 6e-45
-1.1429171e-06 3.4890763e-06 6.130342e-05 4.212177e-05 7.038638e-05 6e-45 0.00017994182 -6e-45
0.00018485749 5.154603e-13 -3.5251588e-07 0.0 -4.6901494e-08 0.00018767605 2.7256974e-06 4.1431675e-05
6.4018255e-05 8.6052445e-05 8.1675134e-05 1.0983138e-05 2.6436528e-06 -8.941332e-05 4.6162857e-12 -1.2288449e-07
-1.7384038e-07 -6.585596e-11 6e-45 6e-45 -5.6748037e-09 -2.4696584e-08 -3.780491e-09 2.2305706e-13
-4.279385e-08 -6e-45 0.0 -2.7142322e-08 -1.741656e-08 -6e-45 -2.8864883e-10 -1.465433e-07
-4.9833663e-08 -1.1537527e-07 -5.292529e-08 6e-45 1.7105861e-14 -1.1564663e-09 -3.1201608e-09 -1.4995848e-07
6e-45 6e-45 -4.1526885e-08 -5.3323472e-08 -3.5378477e-08 -7.92421e-09 -4.9722176e-10 6e-45
-1.8943727e-07 -6e-45 -5.356605e-08 -6.851695e-10 -4.753137e-09 0.0 4.964178e-15 -2.2240276e-07
-6.835486e-08 2.8715716e-10 -1.2804289e-08 -1.5580909e-07 -8.4852566e-08 -4.3797918e-08 -1.2859704e-08 -4.1986844e-08
2.4408232e-06 8.104092e-05 0.00012462937 -7.2781722e-06 -6e-45 6e-45 -2.6061216e-06 -4.025825e-06
-4.033954e-07 1.0566745e-09 1.4451962e-06 -6.1404786e-14 0.0 -1.7970995e-06 5.0530616e-07 6e-45
-1.7610108e-05 6.768848e-05 3.8688744e-05 8.718835e-05 -8.375684e-06 -6e-45 -1.9159334e-06 4.6660125e-06
1.8022625e-05 6.824275e-05 6e-45 6e-45 -2.421387e-07 1.1262429e-05 -1.133285e-05 1.166929e-06
-1.158442e-05 -6e-45 0.00010343426 6e-45 -2.1478709e-05 -7.3342497e-09 1.5491909e-10 0.0
-9.64543e-27 0.00012531254 4.436923e-05 -8.279311e-07 -8.934901e-06 8.368992e-05 1.504329e-05 4.3123262e-05
-2.746199e-06 2.3902288e-05 -1.4523933e-09 -5.356729e-08 -7.5115786e-08 2.6439988e-09 -6e-45 -6e-45

exp_avg_sq f4 [20, 50]
00000000: 399a 1a06 2477 d312 4736 2513 c9ff 6d07
00000010: f401 0000 f401 0000 58dc 260b cc7c ca08
00000020: 0a79 050e f401 0000 77b7 1609 622b d205
00000030: 0000 0000 622c 2608 0441 4108 f401 0000
00000040: a434 b80c 35b0 8912 31b5 a610 890e a012
00000050: dd45 cb0e f401 0000 8885 0907 2335 0000
00000060: 3098 bb11 57bb af12 f401 0000 f401 0000
00000070: 5c2b 8a0f bce0 dc0c 13b5 8c0b db4c 870c
00000080: c76a b709 f401 0000 a903 2913 f401 0000
00000090: 4190 8c10 b44d 900c 2f81 6c05 0000 0000
000000a0: 04f5 7400 4294 3a13 040d ca10 aadc d710
000000b0: 16a6 c20a 5e76 8b12 fa05 4e11 9135 3b11
000000c0: fb90 b505 c62b a40a 609b 2a2f 3926 a733
000000d0: 9e4b d333 bf6e 5c30 f401 0000 f401 0000
000000e0: f419 302e be8d 4030 a237 fa26 86f4 f92d
000000f0: 56c7 0430 0a68 9421 0000 0000 1276 ec2f
00000100: b904 dc2f f401 0000 997a 6231 765b 6633
00000110: 2966 022e 3397 2f33 abc4 3431 f401 0000
00000120: 511a af2e 29bb 7f30 19b1 1532 7c0d 7b33
00000130: 85be 2420 f401 0000 2586 ae28 3381 1f32
00000140: 4a7f 4432 6665 f931 9444 1631 f401 0000
00000150: 623a f033 f401 0000 d775 9532 db81 9424
00000160: dc93 a22c 0000 0000 110f f22a 5eb2 3534
00000170: 523b a832 c3c5 0d2f 5459 0f32 6341 9233
00000180: 7d5d 4c32 2023 3132 47da c930 6981 0230
00000190: aa05 6d30 3c90 2135 daeb 5335 e165 8430
000001a0: f401 0000 f401 0000 238a d52f aafa 0b31
000001b0: 53e6 8d2c 9a92 4a2e 2c7a cf31 5224 8024
000001c0: 0000 0000 0025 ea30 4f3e 7a31 f401 0000
000001d0: cbc7 1d33 6f73 bc34 afc0 2c31 0408 b634
000001e0: cc25 3b32 f401 0000 0308 7d30 e616 cf31
000001f0: c43c c433 8dc7 d834 2fc8 2d23 082c 0000
00000200: 062c b22c 3b1c 9533 526b 8f33 8068 9733
00000210: 43f1 5832 f401 0000 3c28 5235 f401 0000
00000220: 71fd ba33 87c8 7023 01b3 cb2b 0000 0000
00000230: 2d63 cb29 0352 ad35 ac21 3034 24be fd31
00000240: 14ee 9533 8943 0535 1cd8 6b33 c750 c933
00000250: cdda e731 9518 2332 f9ee 211e 9286 932d
00000260: e20d 232e 15dc ac2a f401 0000 f401 0000
00000270: 8bd2 952a 74a1 432b 8e22 a928 1a93 8729
00000280: e4eb 6e2c 9fd8 1a1a 0000 0000 2705 b42b
00000290: 1e2e 192c f401 0000 bd2d 0528 ba4d 012e
000002a0: 17ba 5c2c ae3f a62d dd41 632c f401 0000
000002b0: 2207 f319 0a84 972a 47a0 af29 dc45 f12d
000002c0: a226 3920 bb0d 0000 ef3f fe2b 912e 8f2c
000002d0: 56cc 342c f7b3 022a 439c d828 f401 0000
000002e0: 6a9b 372e f401 0000 2996 982c 8a23 5327
000002f0: 0a45 c929 0000 0000 b09a 3c29 fe58 772e
00000300: ca81 f62c e7e1 2524 785c 332a 2064 102e
00000310: 7038 292d 74f6 362c 72d0 012b d0e7 a72c
00000320: d870 db2f 53bc 3c35 9a1c 7a35 b5e9 2830
00000330: f401 0000 f401 0000 3e6c 0a2f 1bc8 b430
00000340: 271a 042d 7aee 8925 ba5e 1930 f895 1224
00000350: 0000 0000 044c aa2f ccfc 4230 f401 0000
00000360: 2b57 9532 1363 ff34 ff11 6331 093d d334
00000370: 4783 b632 f401 0000 699e c82f e927 2a30
00000380: a14e a033 13f5 1135 48b9 4020 f401 0000
00000390: 805a c62d 1431 7a33 ace4 8533 619d 4533
000003a0: c529 3432 f401 0000 3df4 8c35 f401 0000
000003b0: 338f 0a34 d0de 4926 ffea 6324 0000 0000
000003c0: 65d3 5d20 6230 cb35 c977 1e34 a17c 0331
000003d0: 3246 4233 1621 2135 062e ec33 6c3b c233
000003e0: 405a f230 214b d330 fbc1 d528 942e 472e
000003f0: 512e 852e dac3 3224 f401 0000 f401 0000
2.9077486e-35 1.33453425e-27 2.0852689e-27 1.7905067e-34 7e-43 7e-43 3.2136205e-32 1.2186772e-33
1.6451794e-30 7e-43 1.8141858e-33 1.9764241e-35 0.0 5.000598e-34 5.815525e-34 7e-43
2.838137e-31 8.689354e-28 6.5754625e-29 1.0101003e-27 5.011064e-30 7e-43 1.0345976e-34 1.9062e-41
2.959719e-28 1.10902355e-27 7e-43 7e-43 1.3624552e-29 3.4031624e-31 5.419849e-32 2.08463e-31
4.415606e-33 7e-43 2.1332603e-27 7e-43 5.544252e-29 2.223348e-31 1.1120394e-35 0.0
1.0740813e-38 2.3549597e-27 7.9695005e-29 8.5142534e-29 1.8743995e-32 8.801313e-28 1.6252376e-28 1.4768205e-28
1.7074416e-35 1.5809091e-32 1.551661e-10 7.783496e-08 9.839208e-08 8.0192913e-10 7e-43 7e-43
4.0040818e-11 7.005062e-10 1.7362314e-15 2.8416613e-11 4.8304594e-10 1.0056409e-18 0.0 4.3012044e-10
4.0021123e-10 7e-43 3.2957017e-09 5.363423e-08 2.9649314e-11 4.0882878e-08 2.630524e-09 7e-43
7.9627534e-11 9.303443e-10 8.713209e-09 5.8452756e-08 1.3954378e-19 7e-43 1.9376057e-14 9.284395e-09
1.1437644e-08 7.2583815e-09 2.1866855e-09 7e-43 1.1186491e-07 7e-43 1.739947e-08 6.440475e-17
4.6207326e-12 0.0 4.299829e-13 1.6921828e-07 1.958475e-08 1.2894134e-10 8.344006e-09 6.8105486e-08
1.189562e-08 1.03107425e-08 1.4686713e-09 4.747763e-10 8.6228147e-10 6.018706e-07 7.8946834e-07 9.63322e-10
7e-43 7e-43 3.8842626e-10 2.0369648e-09 4.033032e-12 4.605969e-11 6.0383822e-09 5.557268e-17
0.0 1.7036257e-09 3.6415206e-09 7e-43 3.673612e-08 3.5101718e-07 2.5138822e-09 3.3905974e-07
1.0893427e-08 7e-43 9.205225e-10 6.027096e-09 9.1380144e-08 4.0378328e-07 9.420739e-18 1.5795e-41
5.063952e-12 6.943488e-08 6.678478e-08 7.050494e-08 1.2627711e-08 7e-43 7.8289645e-07 7e-43
8.707401e-08 1.3052889e-17 1.4473701e-12 0.0 9.032215e-14 1.2913373e-06 1.6403527e-07 7.3848856e-09
6.981659e-08 4.964464e-07 5.491175e-08 9.374485e-08 6.7478596e-09 9.493438e-09 8.5726874e-21 1.6771726e-11
3.707424e-11 3.070605e-13 7e-43 7e-43 2.661381e-13 6.950198e-13 1.8777755e-14 6.0207224e-14
3.395278e-12 3.202144e-23 0.0 1.2791199e-12 2.1768208e-12 7e-43 7.392901e-15 2.940024e-11
3.136718e-12 1.8900295e-11 3.2295202e-12 7e-43 2.5128492e-23 2.691461e-13 7.799365e-14 2.7429552e-11
1.5682892e-19 4.926e-42 1.8065531e-12 4.0694744e-12 2.5692968e-12 1.1608757e-13 2.4048585e-14 7e-43
4.1747418e-11 7e-43 4.336771e-12 2.9301398e-15 8.9381695e-14 0.0 4.1878556e-14 5.624034e-11
7.00615e-12 3.597002e-17 1.5930475e-13 3.2830738e-11 9.619069e-12 2.6000565e-12 4.611928e-13 4.772162e-12
3.9916048e-10 7.0309505e-07 9.317388e-07 6.145016e-10 7e-43 7e-43 1.2589482e-10 1.3153597e-09
7.509138e-12 2.392731e-16 5.579569e-10 3.1785732e-17 0.0 3.0976832e-10 7.0936035e-10 7e-43
1.7385522e-08 4.7569537e-07 3.3043077e-09 3.9346222e-07 2.1247287e-08 7e-43 3.6492345e-10 6.1902355e-10
7.464883e-08 5.437334e-07 1.6324337e-19 7e-43 2.2550184e-11 5.8252297e-08 6.23489e-08 4.6010772e-08
1.0486876e-08 7e-43 1.0501896e-06 7e-43 1.2904347e-07 7.003785e-16 4.9421828e-17 0.0
1.8789373e-19 1.513876e-06 1.4758474e-07 1.9133852e-09 4.5232987e-08 6.002532e-07 1.0997978e-07 9.044638e-08
1.7633468e-09 1.5373623e-09 2.3731876e-14 4.528873e-11 6.056367e-11 3.876349e-17 7e-43 7e-43

exp_avg f4 [20]
00000000: 3551 99a8 47fe eeb7 63a1 4438 b3e1 5db3
00000010: de59 0f38 65f0 9bb2 069c 5923 c461 83a7
00000020: 9ed9 1d38 2132 abb1 4764 3cb8 e69f aeb8
00000030: c873 0436 0217 b9b5 c83c 8736 70fa fd38
00000040: 3b67 1eb6 c099 c5b2 08ee ee36 0400 0080
-1.702163e-14 -2.8490218e-05 4.6880345e-05 -5.1660844e-08 3.4177552e-05 -1.8153694e-08 1.1796633e-17 -3.64658e-15
3.763439e-05 -4.982454e-09 -4.4916083e-05 -8.32675e-05 1.9736926e-06 -1.379027e-06 4.0303894e-06 0.00012110628
-2.3603923e-06 -2.3003736e-08 7.120663e-06 -6e-45

exp_avg_sq f4 [20]
00000000: 95dc 5811 5703 1932 6370 8b33 d8af 6c2c
00000010: 7b46 aa33 8921 9f2c 1695 e817 b120 1613
00000020: 8cbd 9e33 559f 272a c9a1 bb31 18e3 4e35
00000030: 848a fb31 7e82 702e 4fd5 272f fb37 c433
00000040: de95 6830 a0ab 022b ef1d b332 f5b5 a80e
1.7107368e-28 8.9065315e-09 6.493135e-08 3.363523e-12 7.929062e-08 4.522775e-12 1.5030283e-24 1.894878e-27
7.391927e-08 1.4887859e-13 5.460809e-09 7.7071445e-07 7.320809e-09 5.4685582e-11 1.5264344e-10 9.137144e-08
8.461408e-10 4.6423455e-13 2.0851955e-08 4.1590416e-30

exp_avg f4 [2, 20]
00000000: c47d ec27 9319 5db7 df1e feb8 3244 05b9
00000010: a6b7 26b8 ddc4 3132 465b c1a2 8648 e2a4
00000020: 488a bdb7 aa3d 05b9 62dc 9fb7 ccf6 a9b7
00000030: d287 8a37 5b37 bab5 302b 45b6 1640 cdb8
00000040: 4ccb 07b7 923a 05b9 2154 01b9 b13d 05b9
00000050: 3716 68a6 ea9e f936 0030 92b8 4cbf 72b8
00000060: c06d 2339 c605 f8b1 92be 8721 c8b9 13a6
00000070: 0975 66b8 07c0 72b8 5c9a 5637 8813 64b9
00000080: 0026 1634 cdfc 39b6 dc69 95b5 00e0 0f39
00000090: aa13 9536 f2c1 72b8 6a18 3eb8 cac4 72b8
6.5639514e-15 -1.3178581e-05 -0.00012117414 -0.00012709273 -3.974852e-05 1.03475175e-08 -5.2409394e-18 -9.8134736e-17
-2.2594948e-05 -0.0001270684 -1.90569e-05 -2.0261294e-05 1.6514128e-05 -1.387419e-06 -2.9380426e-06 -9.787099e-05
-8.093961e-06 -0.00012705688 -0.00012333739 -0.0001270685 -8.0521276e-16 7.4392783e-06 -6.970763e-05 -5.7875455e-05
0.00015585776 -7.2184063e-09 9.198399e-19 -5.125265e-16 -5.494527e-05 -5.7876136e-05 1.2791334e-05 -0.0002175105
1.3983663e-07 -2.7714298e-06 -1.1132174e-06 0.00013720989 4.4428352e-06 -5.787792e-05 -4.5322267e-05 -5.788057e-05

exp_avg_sq f4 [2, 20]
00000000: c5f6 0010 a943 e530 19ba a135 8530 ab35
00000010: a0ee e232 1451 a62b 2ab9 8916 65f7 bd11
00000020: 5d59 5331 da2f ab35 81f0 bd2f aed4 5935
00000030: dba4 7e31 ad0d db2e 09d5 ac2d 556d a833
00000040: 3d2a c530 8230 ab35 97a2 a135 ab30 ab35
00000050: 8914 9d0d 1fdd cc32 9bef 6135 92cc 8335
00000060: d4a9 5134 316a 6b2b 8177 7c13 010b 6110
00000070: c13b 1733 27cd 8335 31b3 1430 f114 0935
00000080: 25fa 8e2f 3a6f af2d 1988 7b2d ec4c 1a34
00000090: 2eba 2a2f 4fcd 8335 bbbc 7935 6acd 8335
2.5433653e-29 1.6681173e-09 1.2049596e-06 1.2754614e-06 2.6418377e-08 1.1817513e-12 2.2250399e-25 2.997141e-28
3.0755338e-09 1.275442e-06 3.4549788e-10 8.114829e-07 3.7055574e-09 9.961396e-11 1.9648743e-11 7.842997e-08
1.4345641e-09 1.275461e-06 1.2042755e-06 1.2754657e-06 9.680816e-31 2.384928e-08 8.4167704e-07 9.819798e-07
1.9526425e-07 8.363614e-13 3.1865792e-27 4.4381903e-29 3.5211773e-08 9.819968e-07 5.409673e-10 5.106695e-07
2.6007388e-10 1.9944591e-11 1.4297918e-11 1.4370352e-07 1.5527554e-10 9.820013e-07 9.303437e-07 9.820044e-07

exp_avg f4 [2]
00000000: b33d 05b9 c9c4 72b8
-0.00012706853 -5.7880567e-05

exp_avg_sq f4 [2]
00000000: aa30 ab35 69cd 8335
1.2754656e-06 9.820043e-07
