Multi-UAVs path planning/path planning/Path_SAC_actor.pth (torch, 833053 bytes, 24 tensors)

in_to_y1.weight f4 [256, 7]
-0.6682909 -0.17116857 -0.08789018 0.07624268 0.03409492 0.19688849 0.1353383 0.12833236
-0.6408465 0.26375934 -0.35975587 -0.1890024 -0.20709325 -0.1864079 0.96529794 0.54053307
-0.29155678 -0.37368363 0.15643221 0.20255621 0.0018161505 0.57264566 -0.07421395 -0.0016181079
0.25977033 -0.11132806 0.031404153 0.6960097 -0.6662799 -0.3065205 -0.01405627 0.32438913
0.26150927 -0.019715674 0.08805391 0.04943937 0.061327368 -0.039975263 0.047481917 -0.15844928
-0.08149542 0.06577835 0.70034313 0.049591772 0.036335714 -0.5245555 0.011664859 0.1400541
0.61394906 0.06445427 0.054457143 -0.035529803 -0.0026955518 0.029564204 -0.07797213 0.03488838
-0.5053172 -0.9784802 0.14940077 0.30464345 0.35419232 0.4237238 -0.12944496 0.48407272
-0.67028636 0.36097407 -0.34301823 0.13472518 0.26577252 -0.14368542 0.44222656 0.89492625
-0.34447858 -0.124566086 -0.19396615 -0.05584951 0.13674192 -0.096635476 -0.05220919 -0.33883983
-0.28424528 -0.27164102 -0.25518155 0.42649472 0.12026864 -0.99305713 0.21283141 -0.15807888
0.22645321 0.13133577 0.10498299 0.18453643 -0.7330299 -0.10731383 -0.34238192 0.0638413
-0.10910523 0.072679885 0.033525527 -0.0029973236 0.08946359 0.039153203 -0.073157184 0.13405432
0.0018036613 0.32818845 -0.7181944 0.2529208 0.10525612 -0.13658907 -0.13203895 -0.08889199
-0.4824285 -0.42713353 -0.31565028 0.01624114 0.046488613 0.21381585 -0.08551033 0.010108818
0.028299285 -0.021252206 0.019851955 0.095424496 0.06628611 -0.050261885 -0.97645134 -0.23982547
0.24523997 0.33398312 -0.038344428 0.037071813 0.4947366 0.39535493 -0.34143203 0.3704068
-0.31510916 -0.11344303 -0.034966893 0.063431464 -0.102190934 -0.45632783 0.39357066 -0.40632787
-0.26438084 -0.2543087 0.16426301 0.37783337 -1.0038428 -0.033550035 -0.2376753 0.18058424
0.023077238 -0.11656719 -0.47021684 -0.83417165 0.15091814 0.36606628 0.13264497 0.0026468036
0.07508885 -1.423368 0.4001281 -0.009454161 0.20334174 -0.09690821 -0.00957821 0.08594978
-1.0101115 -0.16711794 -0.09092918 0.24009591 0.23946671 0.18971206 -0.12780693 -0.033273157
-0.6613519 0.1250696 -0.35460344 0.027015153 0.020232394 0.22332658 0.072334535 -0.67566895
0.20506926 -0.4274569 -0.021737037 -0.02493048 -0.024682274 -0.7548128 0.49814713 -0.07925684
0.3797754 -0.10782103 0.098974526 0.086266175 -0.5981066 0.09154533 -0.3919347 0.3318651
-0.14169922 -0.025640428 0.3183819 -0.28813493 -0.5850169 0.19383822 -0.093888834 -0.095554106
-0.05396173 -0.1635845 0.36319014 0.49430096 0.03722514 -0.31113 -0.093720496 -0.13215779
-0.08794494 -1.5965644 -1.8304234 0.37242588 -0.08715255 0.5963001 0.2900201 0.022307301
-1.1299276 0.41673276 0.33857444 0.5207181 0.14222182 -0.050099015 -0.014358883 0.098532625
-0.4846421 0.10530712 -0.07403783 -0.12704653 0.16914496 -0.19202763 0.3394491 0.95244265
-0.48742533 0.2918928 -0.11101196 0.0062079285 0.019638559 -0.06910719 -0.016555503 -0.06786515
0.080991924 -0.094200015 -0.14122707 -0.112919144 0.0313761 -0.5322039 -0.16757984 -0.32816634
00000000: 1d15 2bbf d046 2fbe c4ff b3bd 1f25 9c3d
00000010: 1da7 0b3d 239d 493e 2096 0a3e 8f69 033e
00000020: 840e 24bf 770b 873e ec31 b8be d889 41be
00000030: 4110 54be b6e1 3ebe c41d 773f 6060 0a3f
00000040: ee46 95be 7653 bfbe c42f 203e e56a 4f3e
00000050: e60b ee3a e898 123f 7cfd 97bd b116 d4ba
00000060: 9e00 853e f7ff e3bd a4a1 003d b12d 323f
00000070: 5291 2abf 41f0 9cbe 454c 66bc 5516 a63e
00000080: 8be4 853e c482 a1bc 9c55 b43d f080 4a3d
00000090: 6832 7b3d 1abd 23bd 667c 423d 8740 22be
000000a0: 12e7 a6bd cdb6 863d b049 333f be20 4b3d
000000b0: c2d4 143d 4549 06bf f71d 3f3c 586a 0f3e
000000c0: c42b 1d3f 9a00 843d 740e 5f3d b387 11bd
000000d0: dba7 30bb a130 f23c daaf 9fbd 1ee7 0e3d
000000e0: 785c 01bf ae7d 7abf 84fc 183e 3afa 9b3e
000000f0: b258 b53e 53f2 d83e 388d 04be 61d8 f73e
00000100: e397 2bbf 98d1 b83e 16a0 afbe 66f5 093e
00000110: 5613 883e 4522 13be 856b e23e e319 653f
00000120: 7f5f b0be 811c ffbd 109f 46be 75c2 64bd
00000130: 1306 0c3e d2e8 c5bd 4ed9 55bd 6a7c adbe
00000140: 9988 91be 8814 8bbe 28a7 82be 845d da3e
00000150: 684f f63d fe38 7ebf 7af0 593e 6edf 21be
00000160: 5ae3 673e e27c 063e 5201 d73d 1ef7 3c3e
00000170: d9a7 3bbf 5ac7 dbbd af4c afbe 3abf 823d
00000180: 9072 dfbd 31d9 943d 1052 093d bf6e 44bb
00000190: b038 b73d 1c5f 203d 6fd3 95bd 8945 093e
000001a0: d568 ec3a 5108 a83e 97db 37bf d67e 813e
000001b0: 8590 d73d 01de 0bbe 3835 07be 010d b6bd
000001c0: de00 f7be 3fb1 dabe ea9c a1be 240c 853c
000001d0: d86a 3e3d 8bf2 5a3e 0a20 afbd 759f 253c
000001e0: e7d3 e73c 1b19 aebc 91a0 a23c eb6d c33d
000001f0: 03c1 873d 68df 4dbd b7f8 79bf cf94 75be
00000200: 3020 7b3e d6ff aa3e 0c0f 1dbd 9dd8 173d
00000210: 1e4e fd3e f66b ca3e 2ed0 aebe f6a5 bd3e
00000220: fd55 a1be d254 e8bd 7239 0fbd 5be8 813d
00000230: 7b49 d1bd cda3 e9be 1882 c93e 350a d0be
00000240: ed5c 87be c034 82be 9034 283e 6073 c13e
00000250: ec7d 80bf c36b 09bd 2761 73be 13eb 383e
00000260: 7a0c bd3c c7ba eebd 43c0 f0be 468c 55bf
00000270: 498a 1a3e 0a6d bb3e 15d4 073e ff75 2d3b
00000280: 2fc8 993d ec30 b6bf 97dd cc3e a0e5 1abc
00000290: d138 503e d077 c6bd eded 1cbc 7006 b03d
000002a0: 554b 81bf f720 2bbe 1439 babd b4db 753e
000002b0: c336 753e e143 423e d2df 02be 6f49 08bd
000002c0: 5c4e 29bf 3f12 003e 958e b5be e24e dd3c
000002d0: 68be a53c b9af 643e 2124 943d a4f8 2cbf
000002e0: adfd 513e a1db dabe df11 b2bc 023b ccbc
000002f0: 7b32 cabc 693b 41bf 240d ff3e 6951 a2bd
00000300: ec71 c23e 46d1 dcbd 28b3 ca3d 52ac b03d
00000310: 841d 19bf 1e7c bb3d aaab c8be 39ea a93e
00000320: 9a19 11be e00b d2bc f402 a33e 6c86 93be
00000330: abc3 15bf 877d 463e ca48 c0bd dfb1 c3bd
00000340: fa06 5dbd b282 27be 0ff4 b93e 0415 fd3e
00000350: 6379 183d 6e4c 9fbe 88f0 bfbd 5f54 07be
00000360: 7a1c b4bd 395c ccbf 504b eabf 9bae be3e
00000370: 097d b2bd 20a7 183f 847d 943e cdbd b63c
00000380: 78a1 90bf ff5d d53e a159 ad3e c84d 053f
00000390: 99a2 113e a034 4dbd 8541 6bbc 79cb c93d
000003a0: 0223 f8be 42ab d73d 25a1 97bd 7c18 02be
000003b0: 5634 2d3e e4a2 44be 46cc ad3e 48d3 733f
000003c0: d08f f9be f972 953e 3d5a e3bd e16b cb3b
000003d0: 0be1 a03c 1288 8dbd 689f 87bc e2fc 8abd
000003e0: 18df a53d f0eb c0bd d49d 10be 2742 e7bd
000003f0: 3a84 003d 843e 08bf 0d9a 2bbe 6b05 a8be

in_to_y1.bias f4 [256]
0.30548805 0.22810425 -0.037735496 -0.30072448 0.33668262 -0.31805554 0.012827606 -0.30147627
0.35673 -0.109233774 -0.20543073 -0.17206918 0.086629726 0.36772695 -0.2527958 -0.12417656
0.16452198 -0.20409715 0.15860493 -0.23047462 0.14035164 0.21733348 -0.06323962 0.2389886
0.20379174 0.29481032 0.20992334 0.009498509 0.23209967 -0.08741382 -0.25672027 0.21511404
-0.10458398 -0.06502417 0.039731737 -0.29110658 0.36688513 0.19096771 0.1743914 0.23021048
0.22498731 0.079006135 -0.06419439 -0.1653516 0.2976295 0.26442558 -0.27647972 -0.36362872
0.31639147 0.30051404 -0.28287187 -0.08933211 -0.26789898 -0.28837898 -0.16782485 0.004249915
-0.14587046 -0.0025049276 -0.15629199 -0.31618756 0.11584746 -0.2633338 0.115033686 0.24140836
-0.27281356 0.35088313 0.35428283 0.22257116 0.3306449 0.06012894 0.16504754 0.055707533
0.17648593 0.20067474 -0.14330499 0.284201 -0.15186532 0.22231197 -0.25170445 0.23072936
-0.13379197 0.3722502 -0.29246423 -0.30599552 -0.1585025 0.11556802 0.28311613 0.12134417
0.13518554 0.29815066 -0.10188481 0.2273594 -0.037793946 -0.020969754 0.23024847 -0.31713715
0.09261388 -0.2415057 -0.15365249 0.10229681 -0.22385786 0.29591182 -0.2020545 -0.28444982
-0.08300155 0.06433209 -0.2542379 0.14506628 0.38418218 0.27027562 -0.18687735 0.037317276
0.19637953 0.19219969 0.12869246 -0.2134162 0.022114135 -0.37771687 -0.28201488 -0.15544572
-0.28903562 -0.27926794 0.39642158 0.30795813 -0.007087707 0.20663178 -0.12228812 0.30984566
0.2688872 -0.11140646 0.119896345 0.33759978 0.28977758 0.35442486 -0.13922012 0.24462587
-0.29662785 0.3801781 -0.2437091 0.27457166 0.17114368 -0.36316228 -0.19094034 0.12912124
0.31224337 0.21893789 0.21934219 -0.3262303 0.034891654 0.2628469 0.25866124 -0.055005718
0.29521722 0.2816077 0.13521135 -0.32681373 -0.35619658 -0.23511241 -0.11985463 0.14633486
0.18059516 -0.113933146 0.164974 0.23369549 -0.1923267 -0.12654491 -0.22624844 -0.0999442
0.28507292 -0.07875917 -0.06987948 0.13907781 0.09850476 0.43363273 -0.026819102 -0.12959616
-0.084003195 -0.14108637 -0.059079148 -0.20808119 0.07973036 0.12141941 -0.33792254 -0.24932559
0.17855708 0.2556651 0.06085082 0.043954603 0.022736836 0.27163565 0.2653917 0.28661138
0.07331269 -0.065250926 -0.21325505 0.057787165 0.18233408 0.0670078 0.10730824 -0.40804645
-0.17013209 0.41309595 -0.24338844 0.27386028 -0.35949776 0.086668305 0.09427739 0.17232484
0.11644964 -0.37153792 -0.33424217 -0.35780817 0.2274561 -0.27748525 0.27064732 0.08277522
-0.2565605 0.35936975 -0.25550386 -0.44819498 -0.00892677 -0.20983258 0.29026222 0.23381566
-0.26812708 0.20082137 -0.3092613 -0.27505338 0.05280784 -0.03000652 0.20791045 -0.24307543
0.36084196 0.09631857 -0.19666027 -0.3501203 0.14609677 -0.32484773 -0.25690687 0.31338954
-0.22550137 0.32605827 -0.19937684 0.40849528 0.055402406 0.025386328 0.18651676 0.10527158
0.2935955 0.2436096 0.25642332 -0.009574026 0.10492504 -0.39588252 -0.038750827 -0.272916
00000000: ee68 9c3e 2994 693e 8990 1abd 8ff8 99be
00000010: aa61 ac3e 2dd8 a2be e12a 523c 195b 9abe
00000020: 51a5 b63e f5b5 dfbd 6f5c 52be e732 30be
00000030: ed6a b13d b546 bc3e 736e 81be 4850 febd
00000040: 7378 283e d8fe 50be 5569 223e 8a01 6cbe
00000050: 57b8 0f3e ab8c 5e3e c683 81bd 6db9 743e
00000060: c8ae 503e 61f1 963e 25f6 563e a29f 1b3c
00000070: 89ab 6d3e 0406 b3bd d770 83be db46 5c3e
00000080: 2030 d6bd 642b 85bd bfbd 223d ec0b 95be
00000090: 5ed8 bb3e 0a8d 433e a993 323e 4cbc 6b3e
000000a0: 1363 663e f8cd a13d 5978 83bd ee51 29be
000000b0: e562 983e ca62 873e c08e 8dbe 8b2d babe
000000c0: 10fe a13e fadc 993e 95d4 90be c1f3 b6bd
000000d0: 0e2a 89be 69a6 93be 47da 2bbe df42 8b3b
000000e0: 115f 15be b629 24bb 020b 20be 56e3 a1be
000000f0: 6f41 ed3d b0d3 86be c896 eb3d c133 773e
00000100: 38ae 8bbe f4a6 b33e 8f64 b53e b2e9 633e
00000110: 4a4a a93e c349 763d 3902 293e 952d 643d
00000120: bab8 343e ae7d 4d3e 8bbe 12be cb82 913e
00000130: 9582 1bbe c0a5 633e 68df 80be 5144 6c3e
00000140: c300 09be 9497 be3e dfbd 95be 72ab 9cbe
00000150: 7b4e 22be edae ec3d 99f4 903e 4b83 f83d
00000160: 146e 0a3e 34a7 983e fca8 d0bd e7d0 683e
00000170: d3cd 1abd c3c8 abbc 41c6 6b3e cd5f a2be
00000180: 59ac bd3d 454d 77be 1457 1dbe fd80 d13d
00000190: ff3a 65be c181 973e 60e7 4ebe 68a3 91be
000001a0: b7fc a9bd 8bc0 833d 782b 82be 418c 143e
000001b0: 87b3 c43e 9161 8a3e c75c 3fbe 00da 183d
000001c0: b717 493e ffcf 443e f5c7 033e c789 5abe
000001d0: b428 b53c 1b64 c1be 4164 90be 2a2d 1fbe
000001e0: 7afc 93be 35fc 8ebe c5f7 ca3e b0ac 9d3e
000001f0: ff3f e8bb 4897 533e 3272 fabd 17a4 9e3e
00000200: 95ab 893e 1229 e4bd 378c f53d e1d9 ac3e
00000210: ba5d 943e 2d77 b53e b88f 0ebe 347f 7a3e
00000220: 9bdf 97be b4a6 c23e e18e 79be a894 8c3e
00000230: 4a40 2f3e 68f0 b9be dd85 43be 5c38 043e
00000240: 5dde 9f3e 4131 603e 3d9b 603e a807 a7be
00000250: 8dea 0e3d de93 863e 3f6f 843e ad4d 61bd
00000260: b626 973e e22e 903e d874 0a3e 2154 a7be
00000270: 665f b6be 4fc1 70be 5876 f5bd ced8 153e
00000280: f0ed 383e c855 e9bd f2ee 283e df4d 6f3e
00000290: 4af1 44be fd94 01be acad 67be 8baf ccbd
000002a0: 14f5 913e 7d4c a1bd f91c 8fbd 6a6a 0e3e
000002b0: ddbc c93d 1c05 de3e bcb3 dbbc dbb4 04be
000002c0: de09 acbd f278 10be fafc 71bd 3c13 55be
000002d0: ac49 a33d bdaa f83d 2f04 adbe 354f 7fbe
000002e0: abd7 363e 89e6 823e b63e 793d be09 343d
000002f0: 9a42 ba3c d413 8b3e 6ce1 873e babe 923e
00000300: f724 963d 47a2 85bd 885f 5abe 3cb2 6c3d
00000310: c9b5 3a3e 633b 893d 6cc4 db3d 77eb d0be
00000320: 1b37 2ebe 5081 d33e d23a 79be 6a37 8c3e
00000330: 1710 b8be 277f b13d 8114 c13d ec75 303e
00000340: 267d ee3d 383a bebe ca21 abbe a232 b7be
00000350: 40ea 683e 8c12 8ebe 4992 8a3e 0e86 a93d
00000360: e65b 83be 50ff b73e 67d1 82be d079 e5be
00000370: 9641 12bc 5ade 56be 409d 943e 5f6d 6f3e
00000380: f447 89be 1ea4 4d3e 7f57 9ebe ccd3 8cbe
00000390: 094d 583d 3cd0 f5bc 7ae6 543e c4e8 78be
000003a0: 47c0 b83e ac42 c53d 4f61 49be f842 b3be
000003b0: 649a 153e 7152 a6be 4c89 83be 9874 a03e
000003c0: d5e9 66be 1cf1 a63e 7129 4cbe 4b26 d13e
000003d0: a2ed 623d fdf6 cf3c 40fe 3e3e a098 d73d
000003e0: 2652 963e cc74 793e eb49 833e 60dc 1cbc
000003f0: f0e2 d63d 1db1 cabe 30b9 1ebd a5bb 8bbe

y1_to_y2.weight f4 [256, 256]
0.017145494 -0.12010374 -0.0053940294 -0.06521225 -0.11035793 -0.056911852 0.011733307 0.07956909
0.0711003 -0.18477821 -0.11728585 -0.050967865 -0.087435625 -0.008475611 -0.13512705 0.03824767
-0.17634845 -0.03895731 -0.10166865 -0.013892553 -0.084928565 0.010012128 0.18175294 -0.08032963
-0.07368291 0.0021222434 -0.0892456 -0.18784575 -0.21052629 -0.05269949 0.059028275 -0.13453366
-0.063661486 -0.074969485 0.06439417 0.0044818204 -0.03775598 0.005965391 0.00067396695 -0.0547562
-0.017393509 -0.08495126 0.08791205 0.00075707235 -0.09236652 -0.062418412 0.035612427 -0.03923136
-0.21172678 -0.16373822 -0.010446013 -0.058670357 0.10405904 -0.018243542 0.015330191 -0.09029262
0.0038812617 0.1735216 -0.031343915 0.21120171 -0.09539004 0.07136934 -0.14276977 -0.09352869
-0.029026642 -0.0520103 -0.04306825 -0.0540361 -0.034467224 0.047568507 -0.049329452 -0.024412245
0.076007724 -0.0618294 0.009803868 0.10119719 0.11593338 -0.13419412 -0.035528865 0.20683447
-0.1013252 -0.10371663 0.029903263 -0.012476101 0.07440523 -0.088515304 -0.023921425 -0.1627469
0.023739822 0.11040066 0.100624345 -0.1100002 -0.14240989 -0.1040819 -0.06613657 0.10587355
0.05271446 0.091715656 0.16967148 -0.0703609 0.03794324 0.08624343 0.0080282055 0.052383292
0.21075813 -0.08741108 -0.029646346 0.07628148 -0.12019414 0.0004208249 -0.2694535 -0.03257155
-0.07126083 0.010207875 -0.019454228 -0.0795909 0.0675157 0.063199274 0.09329155 -0.095750816
-0.16171059 -0.06670632 -0.031001749 0.0591472 -0.0728225 -0.12826703 -0.06290047 -0.08306952
-0.12609318 0.11427573 -0.0026768497 -0.048478708 0.12151304 0.17008576 -0.10499823 0.061699588
0.008379878 -0.018919714 -0.02986809 0.06287978 -0.030821163 -0.20137684 -0.070647866 -0.037346005
0.14440744 -0.19976793 0.1145719 -0.019471569 -0.058853656 0.08103721 0.08144223 -0.1388412
0.02065506 -0.1938133 -0.108121134 -0.052496184 0.009455694 -0.02849549 0.11829841 -0.05203161
-0.09151804 -0.12168293 -0.101846874 -0.12137048 -0.081566595 -0.17743346 -0.053663995 -0.13196199
-0.24487308 -0.022641303 -0.1357353 -0.016572572 0.17280868 0.0075524426 -0.16632469 -0.18448864
0.0049794973 -0.06874173 0.0026529827 -0.06148599 -0.14547358 0.056405667 0.12911196 0.13380179
-0.03387648 0.033160187 -0.10671164 0.056288805 -0.057843324 0.09383485 0.042259213 0.10145062
-0.012180923 -0.020919586 -0.1461579 0.11544438 -0.042897835 -0.044259787 0.14091222 -0.21421237
0.107441664 0.01749309 0.040045798 -0.0065780464 0.010902725 -0.09732806 0.04647933 -0.15607259
0.08480945 0.037221394 -0.15930708 0.15263712 0.007142953 -0.13064979 -0.09079132 -0.16292822
0.027405802 0.17762874 -0.3086864 0.017146064 0.06183826 0.05849467 -0.08663445 0.038430393
0.05765457 0.024862217 -0.04153091 -0.19969419 -0.13717039 -0.12284859 0.0042923302 -0.130177
-0.13387957 -0.05172897 0.03834877 -0.043975327 -0.031862468 -0.25881588 0.17966217 0.10810354
-0.004457952 -0.117643856 -0.31974277 -0.12941746 -0.06612788 0.032148298 0.09978335 -0.04815061
0.105957545 -0.18066654 0.066943154 -0.0133376755 -0.05448607 0.051726557 -0.010137655 0.013318827
00000000: b574 8c3c f3f8 f5bd 66c0 b0bb 008e 85bd
00000010: 5703 e2bd 671c 69bd 0e3d 403c 1ef5 a23d
00000020: 099d 913d 8036 3dbe 9033 f0bd aec3 50bd
00000030: 7311 b3bd 4add 0abc bf5e 0abe 97a9 1c3d
00000040: b094 34be b391 1fbd a737 d0bd 979d 63bc
00000050: 07ef adbd e909 243c 711d 3a3e dc83 a4bd
00000060: 11e7 96bd 5615 0b3b 66c6 b6bd a35a 40be
00000070: 3494 57be 6cdb 57bd a2c7 713d 31c3 09be
00000080: f460 82bd 9a89 99bd 17e1 833d 3cdc 923b
00000090: 04a6 1abd 5479 c33b 28ad 303a 0a48 60bd
000000a0: d57c 8ebc edfa adbd 3c0b b43d 4476 463a
000000b0: a82a bdbd 73aa 7fbd 56de 113d 10b1 20bd
000000c0: e8ce 58be feaa 27be c125 2bbc 5450 70bd
000000d0: e81c d53d 7b73 95bc 7b2b 7b3c 56eb b8bd
000000e0: c45c 7e3b a5af 313e 7a62 00bd 4345 583e
000000f0: da5b c3bd 172a 923d 3d32 12be f88b bfbd
00000100: 48c9 edbc c108 55bd 5568 30bd f554 5dbd
00000110: 812d 0dbd 32d7 423d ae0d 4abd 30fc c7bc
00000120: f0a9 9b3d d340 7dbd 67a0 203c 7940 cf3d
00000130: 7b6e ed3d 2f6a 09be b786 11bd 6acc 533e
00000140: 9683 cfbd 6269 d4bd b0f7 f43c 8f68 4cbc
00000150: c561 983d 8347 b5bd ddf6 c3bc 20a7 26be
00000160: 047a c23c be19 e23d 2314 ce3d c947 e1bd
00000170: e6d3 11be e428 d5bd 9c72 87bd 3bd4 d83d
00000180: 1eeb 573d 6bd5 bb3d 5cbe 2d3e 6019 90bd
00000190: 5f6a 1b3d 65a0 b03d bc88 033c dd8f 563d
000001a0: fbd0 573e 9504 b3bd e5dc f2bc 7739 9c3d
000001b0: 5828 f6bd 29a2 dc39 cff5 89be bf69 05bd
000001c0: 33f1 91bd ee3e 273c 795e 9fbc 8e00 a3bd
000001d0: ac45 8a3d 9f6e 813d a40f bf3d 0119 c4bd
000001e0: 7697 25be 539d 88bd 61f7 fdbc 5644 723d
000001f0: f623 95bd 6f58 03be f6d1 80bd 5a20 aabd
00000200: 921e 01be 6509 ea3d 166e 2fbb 9c91 46bd
00000210: d4db f83d f62a 2e3e 5009 d7bd b5b8 7c3d
00000220: c14b 093c 84fd 9abc edad f4bc 1dc7 803d
00000230: aa7c fcbc bb35 4ebe d4af 90bd 20f8 18bd
00000240: 8bdf 133e f78f 4cbe aca4 ea3d d782 9fbc
00000250: 8810 71bd d6f6 a53d 2fcb a63d 632c 0ebe
00000260: cd34 a93c fe76 46be 9d6e ddbd 3d06 57bd
00000270: 0eec 1a3c 606f e9bc 7046 f23d 191f 55bd
00000280: cf6d bbbd e634 f9bd 1895 d0bd 1691 f8bd
00000290: 630c a7bd 1eb1 35be c7ce 5bbd 0b21 07be
000002a0: 02c0 7abe 417a b9bc 32fe 0abe 34c3 87bc
000002b0: c2f4 303e 7b7a f73b 0551 2abe 97ea 3cbe
000002c0: 0d2b a33b 77c8 8cbd aadd 2d3b bcd8 7bbd
000002d0: 07f7 14be a109 673d ed35 043e 5603 093e
000002e0: 10c2 0abd fad2 073d a28b dabd 178f 663d
000002f0: 1fed 6cbd 7c2c c03d ff17 2d3d 58c5 cf3d
00000300: 7e92 47bc 8d5f abbc 6baa 15be 1a6e ec3d
00000310: a4b5 2fbd c049 35bd 4b4b 103e 7d5a 5bbe
00000320: 600a dc3d ab4d 8f3c 1007 243d a78c d7bb
00000330: 58a1 323c ef53 c7bd 1c61 3e3d 7ed1 1fbe
00000340: 94b0 ad3d 7675 183d 6521 23be e84c 1c3e
00000350: 6f0f ea3b 0fc9 05be cdf0 b9bd a8d6 26be
00000360: 2282 e03c 4fe4 353e 250c 9ebe e775 8c3c
00000370: 1e4a 7d3d 1b98 6f3d 676d b1bd 3069 1d3d
00000380: 3327 6c3d d9ab cb3c 511c 2abd a27c 4cbe
00000390: 6576 0cbe 0b98 fbbd ada6 8c3b 1f4d 05be
000003a0: ba17 09be c2e1 53bd 9a13 1d3d 791f 34bd
000003b0: 3882 02bd 8483 84be 5cf9 373e 6465 dd3d
000003c0: 0314 92bb 43ef f0bd 53b5 a3be 0386 04be
000003d0: 0e6e 87bd efad 033d 375b cc3d 9339 45bd
000003e0: 4500 d93d a600 39be 7e19 893d 4486 5abc
000003f0: c92c 5fbd 3adf 533d 6818 26bc 3637 5a3c

y1_to_y2.bias f4 [256]
-0.09893382 -0.13024032 -0.047744017 -0.023473995 -0.05943624 -0.10979254 -0.100939825 -0.078948654
-0.018034989 0.26929215 -0.0069997204 -0.034747444 -0.03231882 0.0568555 0.013855156 -0.21482703
-0.00280945 0.3375846 0.04159738 -0.1004184 0.12724327 -0.03970261 0.01388768 -0.0042771017
0.07445929 0.048380837 -0.055779755 -0.06826079 -0.22014992 -0.1372143 -0.013790465 -0.088636786
0.2755816 0.12798108 -0.030995958 -0.014987967 -0.16564164 -0.07311679 0.010649234 -0.018638773
-0.0035176454 -0.11609794 -0.09831066 -0.0544145 -0.019311296 -0.04013979 -0.047657307 0.038756818
-0.07218444 -0.014741244 -0.042054046 -0.04019498 -0.036742665 0.09124373 0.18238126 0.10366785
-0.052265648 -0.085639715 -0.027647069 -0.008807852 -0.062281642 -0.02416581 -0.10708022 -0.21589513
0.09573541 -0.06387957 -0.016125724 0.086771704 -0.047283527 0.058186527 0.04562867 -0.36782855
0.0019023048 -0.05679107 -0.031093754 -0.0853625 -0.21003568 0.21116027 0.3051542 -0.0797865
-0.0149167245 -0.053022977 0.015411334 0.2613417 -0.062399607 -0.032251135 0.16855524 -0.048623756
-0.081649415 0.031128574 -0.059070595 0.16609243 0.0810693 0.038609322 0.043348745 -0.021252457
-0.0028753395 0.12285158 -0.031741083 0.0067015598 -0.065298714 -0.099381946 -0.028785627 0.60763586
-0.047644768 -0.052602716 -0.048511077 -0.031952463 -0.061052736 0.21246713 -0.072689585 0.22728816
-0.14203927 0.034838304 0.070621565 0.02012332 -0.05504996 0.06219082 -0.02829518 -0.0064982655
-0.028851813 -0.02444909 -0.090188935 -0.026076045 -0.11012462 0.005332245 -0.052847542 0.016535979
-0.035125088 0.07032803 0.18293327 0.02695615 0.0108529525 0.046816576 -0.067710556 0.0013099369
-0.036579143 0.12691957 0.09044155 -0.13759172 -0.037587214 0.19791988 -0.16440307 -0.020311356
0.049091045 -0.028390098 -0.050490417 0.0035482217 -0.046233613 0.009313478 0.074719414 -0.057988737
-0.07415891 -0.12599516 -0.014803794 -0.040678985 -0.013104917 -0.08097179 -0.021953655 0.062582746
-0.0564807 -0.07103304 -0.05264767 -0.120289154 -0.044065934 -0.05773836 -0.042686183 0.016292173
-0.14806011 0.013947447 -0.04497047 -0.08548423 -0.049232624 -0.032761313 -0.02989437 -0.02816016
-0.03500569 -0.0813368 0.025873015 0.00062342203 0.23489097 -0.02380349 -0.04683529 -0.029603437
0.120287225 0.11191618 0.114829816 -0.06183932 -0.070889354 0.115972534 0.0072428435 -0.114694536
0.06602207 -0.09123413 0.000693367 0.085226074 -0.014627981 -0.052415073 -0.013034181 -0.11023279
0.75420487 -0.021314925 -0.049104437 -0.09496997 -0.0470659 -0.060344554 -0.05222294 0.05679513
-0.14452009 -0.0057947375 -0.094767876 -0.024105027 -0.044150747 -0.09067823 0.09506616 0.0379479
0.22887385 -0.16120417 -0.013976685 0.0581503 -0.48836955 -0.094681315 -0.05270787 -0.08339567
-0.107840315 -0.04190596 -0.07623997 0.20024753 -0.045095097 -0.08264533 -0.025202062 -0.12970114
-0.18076701 -0.05537008 -0.057223506 -0.068072364 0.2971921 0.30151287 0.0779771 -0.019819075
0.012432629 -0.096246354 -0.08777592 -0.039484423 -0.0015528087 -0.18060784 -0.12015485 -0.030709244
-0.05534994 0.032763664 -0.01064817 -0.028652586 -0.014282079 -0.030067164 0.026317384 0.045543294
00000000: d19d cabd b85d 05be 3b8f 43bd 894c c0bc
00000010: 6a73 73bd e9da e0bd 8ab9 cebd d5af a1bd
00000020: 1dbe 93bc a9e0 893e e95d e5bb 5653 0ebd
00000030: bd60 04bd 50e1 683d bc00 633c 9efb 5bbe
00000040: c01e 38bb e4d7 ac3e 0462 2a3d 29a8 cdbd
00000050: 0f4c 023e 349f 22bd 2789 633c ee26 8cbb
00000060: 1d7e 983d fc2a 463d 5079 64bd 50cc 8bbd
00000070: fb6e 61be e881 0cbe 67f1 61bc 3487 b5bd
00000080: 0819 8d3e 790d 033e 3ceb fdbc 1790 75bc
00000090: f69d 29be 41be 95bd 207a 2e3c 57b0 98bc
000000a0: 4c88 66bb c2c4 edbd 1957 c9bd bde1 5ebd
000000b0: b932 9ebc 9f69 24bd 4f34 43bd 78bf 1e3d
000000c0: 70d5 93bd 4285 71bc dd40 2cbd 7ea3 24bd
000000d0: 7a7f 16bd fedd ba3d 27c2 3a3e cf4f d43d
000000e0: 8114 56bd e063 afbd 1b7c e2bc cf4e 10bc
000000f0: 091b 7fbd 60f7 c5bc e04c dbbd 9d13 5dbe
00000100: ed10 c43d 4bd3 82bd 181a 84bc 5db5 b13d
00000110: 5fac 41bd ff54 6e3d 21e5 3a3d 0654 bcbe
00000120: c256 f93a c19d 68bd 54b8 febc 89d2 aebd
00000130: 9813 57be 663a 583e 2c3d 9c3e 1b67 a3bd
00000140: 4765 74bc 9f2e 59bd d27f 7c3c 94ce 853e
00000150: bb96 7fbd c419 04bd bf99 2c3e b429 47bd
00000160: cf37 a7bd 5a01 ff3c 02f4 71bd 2214 2a3e
00000170: a907 a63d cf24 1e3d 748e 313d a219 aebc
00000180: 3170 3cbb 9c99 fb3d f002 02bd c298 db3b
00000190: 55bb 85bd c388 cbbd d6cf ebbc 068e 1b3f
000001a0: 2927 43bd f275 57bd 8db3 46bd 96e0 02bd
000001b0: 6f12 7abd fc90 593e 47de 94bd 3abe 683e
000001c0: be72 11be 9cb2 0e3d 0aa2 903d a9d9 a43c
000001d0: 117c 61bd cdbb 7e3d 4bcb e7bc 67ef d4bb
000001e0: a35a ecbc 7549 c8bc fab4 b8bd 6e9d d5bc
000001f0: 0489 e1bd 1dba ae3b aa76 58bd 7676 873c
00000200: 53df 0fbd 2408 903d dc52 3b3e 25d3 dc3c
00000210: 95d0 313c bdc2 3f3d d5ab 8abd 30b2 ab3a
00000220: 03d4 15bd 34f7 013e 6b39 b93d d8e4 0cbe
00000230: 0df5 19bd 82ab 4a3e 4759 28be 0064 a6bc
00000240: b113 493d 5a92 e8bc 0acf 4ebd 4889 683b
00000250: 755f 3dbd 8f97 183c 7e06 993d 9985 6dbd
00000260: a0e0 97bd e004 01be 9d8b 72bc 029f 26bd
00000270: 01b6 56bc 8ad4 a5bd 27d8 b3bc 622b 803d
00000280: 4e58 67bd c579 91bd 15a5 57bd 295a f6bd
00000290: 7b7e 34bd 0f7f 6cbd b5d7 2ebd 2a77 853c
000002a0: 129d 17be d583 643c f532 38bd 5b12 afbd
000002b0: 26a8 49bd ba30 06bd 0ae5 f4bc 23b0 e6bc
000002c0: 2062 0fbd e893 a6bd a5f3 d33c 256d 233a
000002d0: 4287 703e 89ff c2bc 5cd6 3fbd e882 f2bc
000002e0: 2659 f63d 4f34 e53d e52b eb3d 3a4b 7dbd
000002f0: 702e 91bd 0283 ed3d 6055 ed3b f8e4 eabd
00000300: 9436 873d f6d8 babd 12c3 353a 028b ae3d
00000310: 33aa 6fbc 30b1 56bd 518d 55bc bbc1 e1bd
00000320: 9213 413f a39c aebc bc21 49bd 9e7f c2bd
00000330: 2cc8 40bd da2b 77bd b9e7 55bd 03a2 683d
00000340: 13fd 13be c8e1 bdbb a915 c2bd e877 c5bc
00000350: 6ad7 34bd 82b5 b9bd 0cb2 c23d 426f 1b3d
00000360: e85d 6a3e b512 25be 77fe 64bc 022f 6e3d
00000370: 930b fabe 47e8 c1bd 35e4 57bd 59cb aabd
00000380: 62db dcbd 95a5 2bbd b423 9cbd b00d 4d3e
00000390: a3b5 38bd f441 a9bd 8e74 cebc 60d0 04be
000003a0: fd1a 39be bdcb 62bd 3263 6abd 8669 8bbd
000003b0: 9029 983e e55f 9a3e 75b2 9f3d 9d5b a2bc
000003c0: 3ab2 4b3c cf1c c5bd ddc3 b3bd 6bba 21bd
000003d0: 9d87 cbba 43f1 38be bf13 f6bd f491 fbbc
000003e0: 9eb6 62bd 3133 063d a975 2ebc d4b8 eabc
000003f0: 62ff 69bc 6a4f f6bc 8e97 d73c 9b8b 3a3d

out.weight f4 [2, 256]
0.035748925 0.02796049 -0.05459454 0.029227743 -0.06893872 -0.12222458 0.25401637 -0.0121125905
0.048038263 0.21087052 0.12538813 0.0038421762 -0.060174685 1.4817506 -0.19007038 0.206189
-0.17036025 2.361283 -0.2039223 0.080499925 -0.009799907 -0.001464517 0.065186806 0.2681602
-0.03186547 2.3603604 -0.005159549 0.00553299 0.11288584 -0.20285377 -1.082937 0.06281446
-0.010960547 0.11496575 0.022873035 0.09405733 0.4480265 -0.87535197 -0.043595884 -0.9614437
0.17861159 -0.013854436 -0.025156597 -0.05025255 -0.097979024 0.019870916 0.08979712 0.11830298
-0.07660375 0.13262123 -0.21763468 -0.33740833 0.06519688 0.15942773 0.49667624 -0.12656605
0.042448383 0.029602047 -0.020217251 -0.8981955 0.042043895 -0.0237584 -1.0746068 -0.23445323
-0.36831826 0.15467753 0.05255329 -0.21428367 0.116120845 0.2801505 -0.36777118 -1.4521856
-0.28768575 -0.1460471 -0.14798433 0.0364874 -0.37431505 -0.47335166 1.6725453 0.09400529
0.029067526 0.45416576 -0.034088407 -0.34831503 -0.022998061 -0.09844974 -0.10430892 -0.012249103
0.005412951 -0.30060682 0.047090553 0.1864898 0.12887245 -0.82355756 -0.041066427 -0.19348077
0.06699372 0.037820954 -0.49741417 0.28098285 0.0280407 0.013303611 -0.027392745 -0.15736786
-0.007017955 0.20587507 0.070219114 0.1401877 -0.0257634 0.014241162 0.18955655 1.2612499
-0.061930954 0.082134694 0.048068784 0.15423039 -0.04737429 0.13413931 0.07641638 -0.022626113
1.0543033 -0.02311826 0.22903387 -0.10756444 -0.16065069 -0.042701267 0.00025942962 0.08512367
-0.17511459 0.46202642 0.030631047 0.014570988 0.79718107 0.1891747 0.16825788 0.03796852
-0.0072581847 0.32307813 -0.048678584 -0.1622615 -0.123072095 2.0523908 1.341454 -0.058309432
1.8568703 0.05733245 0.11680138 0.0776834 0.0019416355 0.09167718 -0.62333983 0.032748587
-0.07649339 -0.024864884 -0.15332048 -0.18351552 -0.040846545 -0.023000078 -0.062109314 -0.4319946
0.06348862 0.15974066 -0.13590576 0.071044154 0.00048480212 0.009907451 0.06007181 -0.13039072
0.21851896 -0.07297414 0.32721952 -0.08275678 0.06719574 0.0113966 0.03621152 -0.08421696
0.055181865 -0.09020022 -0.10591119 0.007284296 -0.30396894 -0.29333988 -0.019077651 0.008342034
0.9097671 0.05513451 -0.28545138 -0.009656716 -0.0857315 1.061038 0.10652497 -0.036593582
-0.769808 -0.09656707 -0.1860962 -0.3081836 -0.035009235 -0.06679093 0.05145889 0.03692769
0.056879073 -0.014802454 -0.044054702 -0.00564823 -0.039513856 0.10993918 0.043079372 0.16782042
-0.82306314 0.038493514 -0.5486451 -0.024471318 -0.17189135 -0.11424965 0.05300508 0.07371782
2.2091908 0.042055953 0.21604203 -0.05225578 0.53303343 0.047078934 0.022611659 -0.040245064
-0.10470203 0.045185383 0.020765219 0.8405914 -0.2049767 -0.026539894 0.19150987 -0.096105374
-0.0860849 0.15898362 -0.03785949 -0.12052301 -0.9702033 0.1911366 1.1797609 0.06463254
-0.059230324 0.06669468 0.08516916 -0.032056596 0.09704691 -0.13078302 0.033720024 -0.024725301
0.15944807 -0.19890912 0.12618832 0.04795981 0.7351487 0.6829028 -0.14517653 -0.32864022
00000000: 776d 123d 660d e53c 869e 5fbd 056f ef3c
00000010: be2f 8dbd e150 fabd 6f0e 823e e373 46bc
00000020: c5c3 443d 71ee 573e bf65 003e 05cd 7b3b
00000030: bb79 76bd 01aa bd3f cfa1 42be 3623 533e
00000040: eb72 2ebe 431f 1740 02d1 50be 25dd a43d
00000050: ca8f 20bc 09f5 bfba a980 853d 4b4c 893e
00000060: 5e85 02bd 2510 1740 6f11 a9bb 164e b53b
00000070: b130 e73d e6b8 4fbe ae9d 8abf dea4 803d
00000080: de93 33bc 2a73 eb3d 3b60 bb3c 21a1 c03d
00000090: bb63 e53e 1117 60bf 9991 32bd 2d21 76bf
000000a0: f5e5 363e b7fd 62bc 3515 cebc 9ed5 4dbd
000000b0: 3aa9 c8bd 55c8 a23c 8de7 b73d d548 f23d
000000c0: 6de2 9cbd dccd 073e a0db 5ebe c9c0 acbe
000000d0: f185 853d 0641 233e 594c fe3e 889a 01be
000000e0: 5bde 2d3d fe7f f23c a69e a5bc 24f0 65bf
000000f0: 3836 2c3d faa0 c2bc b78c 89bf 8214 70be
00000100: 3694 bcbe c963 1e3e 1e42 573d 2e6d 5bbe
00000110: c4d0 ed3d e36f 8f3e 814c bcbe 38e1 b9bf
00000120: 8c4b 93be 5f8d 15be 3489 17be d073 153d
00000130: 39a6 bfbe 265b f2be f715 d63f d885 c03d
00000140: 051f ee3c 6a88 e83e 49a0 0bbd 5956 b2be
00000150: 6e66 bcbc 04a0 c9bd ea9f d5bd 76b0 48bc
00000160: 205f b13b 23e9 99be 06e2 403d 2ff7 3e3e
00000170: 24f7 033e abd4 52bf 4535 28bd d31f 46be
00000180: 0134 893d 25ea 1a3d 12ad febe fcdc 8f3e
00000190: 9cb5 e53c 64f7 593c c066 e0bc 0a25 21be
000001a0: e0f6 e5bb ead0 523e 0acf 8f3d 5d8d 0f3e
000001b0: c40d d3bc c353 693c 1d1b 423e a370 a13f
000001c0: 50ab 7dbd 3c36 a83d c6e3 443d 92ee 1d3e
000001d0: 8b0b 42bd d15b 093e 3180 9c3d 665a b9bc
000001e0: 69f3 863f 8162 bdbc db87 6a3e bf4a dcbd
000001f0: 9d81 24be 86e7 2ebd 0e04 8839 5255 ae3d
00000200: 3d51 33be ba8e ec3e f6ed fa3c 27bb 6e3c
00000210: 0f14 4c3f 03b7 413e cb4b 2c3e e184 1b3d
00000220: 11d6 edbb 7f6a a53e 3263 47bd e127 26be
00000230: 390d fcbd 5f5a 0340 c4b4 ab3f dfd5 6ebd
00000240: edad ed3f 6ed5 6a3d 9035 ef3d 7918 9f3d
00000250: 7a7e fe3a 3fc1 bb3d 3393 1fbf 6223 063d
00000260: 91a8 9cbd 71b1 cbbc 0b00 1dbe 7eeb 3bbe
00000270: b54e 27bd a96a bcbc 5666 7ebd 652e ddbe
00000280: 5206 823d 0e93 233e e12a 0bbe 997f 913d
00000290: 0a2d fe39 dd52 223c dc0d 763d 2585 05be
000002a0: 6fc3 5f3e 7773 95bd 5189 a73e 637c a9bd
000002b0: ec9d 893d ceb8 3a3c 8852 143d f179 acbd
000002c0: 6106 623d e5ba b8bd f7e7 d8bd 1bb1 ee3b
000002d0: d1a1 9bbe a530 96be bc48 9cbc 07ad 083c
000002e0: 7fe6 683f b9d4 613d af26 92be 3437 1ebc
000002f0: ff93 afbd 18d0 873f c329 da3d 27e3 15bd
00000300: 2312 45bf f5c4 c5bd 0190 3ebe 3eca 9dbe
00000310: d865 0fbd afc9 88bd 8fc6 523d 7d41 173d
00000320: 08fa 683d fe85 72bc b472 34bd ca14 b9bb
00000330: 48d9 21bd cb27 e13d ff73 303d 1ed9 2b3e
00000340: 44b4 52bf 60ab 1d3d 0174 0cbf 1378 c8bc
00000350: 4904 30be b8fb e9bd db1b 593d 5ef9 963d
00000360: 6263 0d40 dd42 2c3d 1f3a 5d3e 280a 56bd
00000370: e174 083f d7d5 403d 163c b93c 02d8 24bd
00000380: 056e d6bd 4f14 393d d21b aa3c ff30 573f
00000390: 69e5 51be 316a d9bc 2a1b 443e e5d2 c4bd
000003a0: 484d b0bd 9acc 223e 8d12 1bbd c5d4 f6bd
000003b0: 3e5f 78bf 50b9 433e 6802 973f 115e 843d
000003c0: 7f9b 72bd 3897 883d 2b6d ae3d c74d 03bd
000003d0: 88c0 c63d fceb 05be 021e 0a3d b78c cabc
000003e0: 5b46 233e d5ae 4bbe 8337 013e 8171 443d
000003f0: b532 3c3f b8d2 2e3f 28a9 14be 8843 a8be

out.bias f4 [2]
0.30762324 0.16973093
00000000: cb80 9d3e f2cd 2d3e

std_out.weight f4 [2, 256]
0.056931388 -0.116999656 -0.0665849 -0.09354833 0.08860085 0.04062406 0.08576404 0.101936005
0.025400674 -0.4037693 0.009379353 0.06805097 -0.008067115 -0.049335353 -0.005183443 -0.22305797
0.012618311 0.21865046 0.03618851 0.1245632 -0.07438132 0.06436872 -0.199599 0.01785811
-0.7595015 -0.17253189 0.29879305 -0.09921276 0.15067573 0.1512601 0.17019288 0.10087825
0.27033266 -0.27549365 0.1449226 0.10326001 0.24140118 0.1285369 -0.019391708 0.07123065
0.003383695 -0.07017871 -0.15535396 0.061023813 -0.059594944 -0.011716177 0.14190322 -0.19210266
0.0619396 -0.055176083 -0.22409303 -0.35212085 0.03395135 -0.027743118 -0.18241535 0.10083464
-0.1714683 0.031499486 -0.16203533 -0.20798187 0.052161295 0.24285662 -0.022166964 -0.07225973
-0.068257175 0.10815651 0.038524467 -0.24986258 0.026906405 0.109579325 0.005589837 0.06384045
0.12556012 0.062850855 0.05821506 -0.2131134 0.16322051 0.3017833 -0.035460424 -0.020748008
-0.10572611 0.4342662 0.029741636 -0.048939724 0.11800509 -0.08252901 -0.10250787 -0.11117022
-0.07256621 0.0083489 -0.029600635 0.12994094 0.34241232 0.47437477 -0.060787324 -0.15119901
0.087291576 0.0156118665 -0.13578582 -0.13195771 -0.04616216 0.016853891 -0.08276972 -0.93499666
-0.07573055 -0.0673523 0.013743282 -0.06504697 -0.04933469 0.19067474 -0.11809147 -0.035041627
0.0015344728 0.12472234 0.05256913 0.041449755 0.18915471 -0.14225219 -0.1258692 0.18779129
0.01481569 0.0028726745 0.1253446 -0.07796076 -0.013105036 0.04613667 -0.09976176 -0.10997498
0.11611205 0.0029173798 -0.017414842 -0.062903285 0.37846783 0.1715021 0.05358746 0.06779167
-0.057928566 0.51910144 0.10753291 0.09719663 0.075721584 -0.116750635 -0.013454709 -0.028187538
-2.8633287e-05 0.028515482 -0.16244131 -0.028213149 -0.101431325 -0.007340405 -0.42835265 -0.13298999
0.04981611 0.019203326 -0.09304361 -0.01850359 -0.012864503 0.116577156 0.08689501 -0.19410369
-0.025403073 -0.038899876 -0.01655813 -0.007545984 -0.14299704 0.020596184 0.46438736 -0.034751475
-0.14581701 0.06712227 -0.08174482 -0.048262034 0.051597547 -0.03832419 -0.04772768 -0.015585612
-0.071248524 0.007617174 -0.14843845 0.1714262 0.19124414 0.005100229 -0.057014547 0.03146527
-0.037982576 -0.6531976 -0.42426738 0.03673128 0.07378609 0.21712855 -0.17110297 0.025484001
0.10944998 -0.24945946 0.027941115 0.25002655 -0.17466705 0.13292328 0.17376672 -0.014844015
-1.2778106 0.0060788747 -0.035014275 0.13288283 0.07597539 0.051440384 -0.046129204 -0.032580856
0.060788777 0.051773164 -0.3521225 0.0651161 -0.057313092 -0.038545657 0.08248722 0.05484537
-0.2232782 0.15736467 -0.27094018 0.052946012 0.08918751 -0.14562137 -0.08514352 -0.0064837243
0.005430308 -0.15285686 -0.15039016 -0.07602995 -0.035611995 -0.09006207 0.10189587 -0.2552269
-0.106736444 -0.03632933 0.082840286 -0.09246371 0.021117479 -0.58883 0.5100346 -0.012175199
0.08236522 0.032098707 0.041132167 -0.010307756 -0.053451307 -0.02268509 -0.017806586 0.008978227
-0.114997014 0.1373239 0.10467421 -0.024091868 0.041486457 0.0756796 -0.028449424 -0.070521995
00000000: e330 693d 849d efbd aa5d 88bd 4496 bfbd
00000010: 5d74 b53d 6a65 263d 0fa5 af3d d3c3 d03d
00000020: 1315 d03c daba cebe dcab 193c 4f5e 8b3d
00000030: ef2b 04bc de13 4abd dfd9 a9bb 4f69 64be
00000040: 08bd 4e3c e8e5 5f3e 673a 143d fe1a ff3d
00000050: 3c55 98bd bfd3 833d ae63 4cbe 2c4b 923c
00000060: b16e 42bf 33ac 30be 67fb 983e 0f30 cbbd
00000070: bd4a 1a3e ede3 1a3e 0b47 2e3e 4299 ce3d
00000080: 0b69 8a3e 810d 8dbe 9766 143e fc79 d33d
00000090: df31 773e 2d9f 033e 5cdb 9ebc 60e1 913d
000000a0: fbc0 5d3b dbb9 8fbd 1c15 1fbe 1bf4 793d
000000b0: d419 74bd 35f5 3fbc 144f 113e 8fb6 44be
000000c0: 61b4 7d3d 5100 62bd a578 65be 2f49 b4be
000000d0: 9210 0b3d 8945 e3bc 17cb 3abe 6482 ce3d
000000e0: 6395 2fbe 9b05 013d 97ec 25be 33f9 54be
000000f0: 15a7 553d 68af 783e 7e97 b5bc e9fc 93bd
00000100: 6bca 8bbd 2981 dd3d d5cb 1d3d fadb 7fbe
00000110: d26a dc3c 206b e03d f42a b73b c8be 823d
00000120: d592 003e f3b7 803d ea72 6e3d 663a 5abe
00000130: 4723 273e 5783 9a3e f33e 11bd baf7 a9bc
00000140: ee86 d8bd 2458 de3e bba4 f33c 0575 48bd
00000150: a7ac f13d f804 a9bd a5ef d1bd 36ad e3bd
00000160: 989d 94bd d3c9 083c 087d f2bc 3d0f 053e
00000170: ab50 af3e 40e1 f23e 21fc 78bd ead3 1abe
00000180: edc5 b23d eac8 7f3c 700b 0bbe ec1f 07be
00000190: 8814 3dbd 2c11 8a3c 2c83 a9bd f15b 6fbf
000001a0: 9e18 9bbd 01f0 89bd 812b 613c 5937 85bd
000001b0: 2c13 4abd 3d40 433e f1d9 f1bd cf87 0fbd
000001c0: 5d20 c93a 6d6e ff3d ba52 573d 38c7 293d
000001d0: c6b1 413e 8faa 11be dbe3 00be 5c4c 403e
000001e0: 82bd 723c 7b43 3c3b 565a 003e e4a9 9fbd
000001f0: 81b6 56bc cef9 3c3d e54f ccbd 903a e1bd
00000200: 28cc ed3d 8331 3f3b 92a9 8ebc 70d3 80bd
00000210: 89c6 c13e 3f9e 2f3e 867e 5b3d 5cd6 8a3d
00000220: 8146 6dbd d5e3 043f 373a dc3d 070f c73d
00000230: eb13 9b3d f51a efbd 2471 5cbc 8de9 e6bc
00000240: 8431 f0b7 4d99 e93c 0457 26be 431f e7bc
00000250: 3abb cfbd c887 f0bb 0a51 dbbe 872e 08be
00000260: fa0b 4c3d 4b50 9d3c a68d bebd d794 97bc
00000270: a3c5 52bc 01c0 ee3d 03f6 b13d 1ec3 46be
00000280: 1b1a d0bc 7a55 1fbd eaa4 87bc 4d44 f7bb
00000290: d16d 12be 54b9 a83c 2ec4 ed3e 9057 0ebd
000002a0: 0e51 15be 6777 893d d469 a7bd 69ae 45bd
000002b0: f357 533d d3f9 1cbd 1a7e 43bd cb5a 7fbc
000002c0: bfea 91bd 7d99 f93b 4000 18be 5a8a 2f3e
000002d0: 81d5 433e d21f a73b 1688 69bd bae1 003d
000002e0: 9e93 1bbd f537 27bf 9339 d9be 8a73 163d
000002f0: 291d 973d f256 5e3e 9e35 2fbe d3c3 d03c
00000300: 5027 e03d 4d72 7fbe c4e4 e43c 7b03 803e
00000310: ebdb 32be 0a1d 083e e7ef 313e 5034 73bc
00000320: 4c8f a3bf 4c31 c73b 216b 0fbd 7012 083e
00000330: fc98 9b3d 27b3 523d faf1 3cbd 8173 05bd
00000340: a7fd 783d 1910 543d 6649 b4be 975b 853d
00000350: 22c1 6abd 0de2 1dbd 0fef a83d 8aa5 603d
00000360: 0aa3 64be 3424 213e acb8 8abe ebdd 583d
00000370: f1a7 b63d c51d 15be ba5f aebd 6c75 d4bb
00000380: baf0 b13b 8286 1cbe e1ff 19be 97b5 9bbd
00000390: e2dd 11bd 7672 b8bd c8ae d03d 1aad 82be
000003a0: a398 dabd 10ce 14bd 2ba8 a93d 9d5d bdbd
000003b0: 90fe ac3c 90bd 16bf a191 023f 7c7a 47bc
000003c0: 19af a83d ef79 033d 347a 283d dde1 28bc
000003d0: c2ef 5abd 15d6 b9bc 1edf 91bc 6a19 133c
000003e0: 8e83 ebbd a39e 0c3e 6f5f d63d 4f5c c5bc
000003f0: b4ed 293d e8fd 9a3d c40e e9bc d66d 90bd

std_out.bias f4 [2]
-0.48212615 -0.56322336
00000000: 3dd9 f6be 682f 10bf

exp_avg f4 [256, 7]
0.31118023 0.20073046 0.2940065 0.43999052 0.15413317 0.115599886 0.00054874865 0.41377798
0.33380312 0.50506866 0.20176065 0.16154423 0.1211582 6e-45 0.594863 0.5747557
1.7159266 0.84329635 0.5321453 0.39910895 0.00056798686 -0.099347696 -0.06793991 -0.13883255
-0.1060157 -0.04440487 -0.033303656 -0.0019080428 -0.18052004 -0.18009657 -0.42096964 -0.34190714
-0.15476087 -0.11607061 0.00047733303 0.0 0.0 0.0 0.0 0.0
0.0 0.0 0.88816124 0.802778 1.877424 1.0742333 0.60063386 0.45047545
-0.0009622679 6e-45 6e-45 6e-45 6e-45 6e-45 6e-45 0.0
0.19102237 0.12158662 0.15629612 0.074352026 0.056748006 0.042560995 0.0013626643 0.55883634
0.46539173 0.996525 0.5823916 0.31164986 0.23373745 6e-45 0.1213837 0.11167525
0.12180769 0.053778768 0.05110964 0.038332235 -0.0010838186 -6e-45 -6e-45 6e-45
6e-45 6e-45 6e-45 6e-45 0.36671448 0.2602268 0.53348064 0.38441902
0.18482955 0.13862213 5.3103067e-05 0.695235 0.55371237 1.1665714 0.84286356 0.41304624
0.3097847 0.0014714776 0.0 0.0 0.0 0.0 0.0 0.0
0.0 0.026285812 0.0059692333 0.08902577 0.059844133 0.028485617 0.021364218 6e-45
0.0009297725 -0.004466121 -0.0051211296 -0.0070617525 -0.0022943865 -0.0017207898 6e-45 0.0
0.0 0.0 0.0 0.0 0.0 0.0 -0.13748826 -0.18772924
-0.52666557 -0.1890545 -0.13450748 -0.10088061 9.045366e-06 0.00034285727 0.0011684999 -6.847922e-05
-0.00025505 -0.0001434889 -0.00010761659 6e-45 -0.013755746 -0.01517701 -0.09066008 -0.045500644
-0.027605249 -0.020703956 -8.885743e-05 0.13685022 0.10036157 0.15712857 0.058480084 0.051445425
0.03858401 6e-45 -0.011100532 -0.019516788 -0.022895891 -0.012467452 -0.006635601 -0.004976702
6e-45 -0.04921145 -0.061911613 -0.29024518 -0.08375903 -0.07322897 -0.0549217 -0.00031283783
0.18942933 0.13404751 0.19956715 0.3058487 0.098963015 0.074222274 6e-45 0.7168096
0.5387919 0.88242924 0.63015413 0.3355623 0.2516718 0.00019199027 0.5719403 0.43606365
0.8876933 0.5335719 0.2935453 0.22015905 -8.417475e-24 -0.20575725 -0.25287056 -0.560082
-0.28711188 -0.16565175 -0.12423878 -0.00091508345 0.13360026 0.10243448 0.22619845 0.19829187
0.087868735 0.06590156 0.0008305192 -0.019194175 -0.025827073 0.008147695 0.011478288 0.004375021
0.0032812646 -6e-45 0.0162477 0.02671108 0.016681045 0.01727274 0.008228112 0.0061710854
6e-45 0.031438738 0.025705691 0.15290163 0.057303034 0.044727355 0.033545513 6e-45
-1.1289082 -1.0066973 -2.453222 -1.4925609 -0.7900507 -0.59253794 -2.3369352e-05 -0.0152552165
-0.025384784 0.0079220645 0.010390997 0.0040131337 0.0030098497 6e-45 -0.13522178 -0.11823841
0.58030874 0.14814973 0.15815154 0.11861365 -0.0013252822 -6e-45 -6e-45 6e-45
6e-45 6e-45 6e-45 0.0 0.6672962 0.52439886 1.0105364 0.8032463
00000000: 0453 9f3e 498c 4d3e 0588 963e 7046 e13e
00000010: 16d5 1d3e a2bf ec3d e6d9 0f3a b5da d33e
00000020: 3ee8 aa3e 2e4c 013f 589a 4e3e da6b 253e
00000030: ca21 f83d 0400 0000 f148 183f 3123 133f
00000040: 7ca3 db3f 45e2 573f ad3a 083f 0258 cc3e
00000050: f4e4 143a ce76 cbbd 1424 8bbd 1f2a 0ebe
00000060: c21e d9bd e2e1 35bd 6a69 08bd 4b17 faba
00000070: 3fda 38be 3c6b 38be 5589 d7be 740e afbe
00000080: a279 1ebe 6eb6 edbd 8e42 fa39 0000 0000
00000090: 0000 0000 0000 0000 0000 0000 0000 0000
000000a0: 0000 0000 0000 0000 895e 633f dc82 4d3f
000000b0: 6e4f f03f 7a80 893f 24c3 193f b8a4 e63e
000000c0: b540 7cba 0400 0000 0400 0000 0400 0000
000000d0: 0400 0000 0400 0000 0400 0000 0000 0000
000000e0: 5e9b 433e 6802 f93d 170c 203e e045 983d
000000f0: 9970 683d 7054 2e3d 6d9b b23a e60f 0f3f
00000100: d347 ee3e 431c 7f3f 9e17 153f 9290 9f3e
00000110: df58 6f3e 0400 0000 0498 f83d feb5 e43d
00000120: 4f76 f93d 2047 5c3d 5858 513d 4302 1d3d
00000130: eb0e 8eba 0400 0080 0400 0080 0400 0000
00000140: 0400 0000 0400 0000 0400 0000 0400 0000
00000150: 00c2 bb3e 723c 853e 3092 083f 92d2 c43e
00000160: f543 3d3e f6f2 0d3e fcba 5e38 ecfa 313f
00000170: 18c0 0d3f 3652 953f e8c5 573f cc7a d33e
00000180: 1a9c 9e3e 98de c03a 0000 0000 0000 0000
00000190: 0000 0000 0000 0000 0000 0000 0000 0000
000001a0: 0000 0000 5855 d73c 8f99 c33b 2553 b63d
000001b0: 1f1f 753d ab5a e93c 0304 af3c 0400 0000
000001c0: fabb 733a 8a58 92bb 26cf a7bb 4666 e7bb
000001d0: 6b5d 16bb 208c e1ba 0400 0000 0000 0000
000001e0: 0000 0000 0000 0000 0000 0000 0000 0000
000001f0: 0000 0000 0000 0000 b9c9 0cbe 183c 40be
00000200: 8ed3 06bf 8197 41be 54bc 09be 7e9a cebd
00000210: 8dc1 1737 86c1 b339 5a28 993a 809c 8fb8
00000220: 3bb8 85b9 8275 16b9 38b0 e1b8 0400 0000
00000230: c85f 61bc fea8 78bc feab b9bd e25e 3abd
00000240: 6724 e2bc 589b a9bc f858 bab8 7722 0c3e
00000250: 5e8a cd3d 50e6 203e d088 6f3d 70b8 523d
00000260: 440a 1e3d 0400 0000 01df 35bc ace1 9fbc
00000270: 2a90 bbbc 4944 4cbc 756f d9bb 9a13 a3bb
00000280: 0400 0000 f291 49bd 0897 7dbd 049b 94be
00000290: db89 abbd 12f9 95bd 94f5 60bd 6204 a4b9
000002a0: c3f9 413e c043 093e 555b 4c3e 3398 9c3e
000002b0: 1fad ca3d d901 983d 0400 0000 d580 373f
000002c0: 44ee 093f e2e6 613f c851 213f d2ce ab3e
000002d0: 20db 803e ff50 4939 ae6a 123f bc43 df3e
000002e0: de3f 633f 2b98 083f 924b 963e 6071 613e
000002f0: 51d1 2299 07b2 52be 4078 81be 8961 0fbf
00000300: 5400 93be 9da0 29be e770 febd 36e2 6fba
00000310: 82ce 083e 2bc9 d13d 91a0 673e 060d 4b3e
00000320: 86f4 b33d 66f7 863d 33b7 593a 1a3d 9dbc
00000330: 4c93 d3bc e97d 053c 6e0f 3c3c 565c 8f3b
00000340: 7c0a 573b 0400 0080 e619 853c 32d1 da3c
00000350: b0a6 883c 907f 8d3c 34cf 063c d136 ca3b
00000360: 0400 0000 e8c5 003d be94 d23c 3f92 1c3e
00000370: 96b6 6a3d 0834 373d 0567 093d 0400 0000
00000380: 1080 90bf 75db 80bf 9701 1dc0 3c0c bfbf
00000390: c340 4abf 91b0 17bf 4d09 c4b7 04f1 79bc
000003a0: c0f3 cfbc 8ccb 013c 003f 2a3c 9b80 833b
000003b0: e640 453b 0400 0000 9477 0abe fb26 f2bd
000003c0: 1d8f 143f 90b4 173e 7af2 213e b7eb f23d
000003d0: 17b5 adba 0400 0080 0400 0080 0400 0000
000003e0: 0400 0000 0400 0000 0400 0000 0000 0000
000003f0: ecd3 2a3f 013f 063f 4259 813f 8da1 4d3f

exp_avg_sq f4 [256, 7]
0.6236489 0.42763934 2.8425171 1.1759697 0.30023196 0.16888052 1.3445654e-05 0.7814027
0.5181189 3.569785 1.5778987 0.3924433 0.22074944 7.763456e-27 5.834178 4.2513
32.65581 10.682719 3.2389565 1.8219117 2.33993e-05 0.14151554 0.085404426 0.27995497
0.12917379 0.03266515 0.01837417 0.00019582077 0.9135162 0.68193215 4.7477603 1.9515245
0.49927056 0.28083944 2.5044712e-05 0.0 0.0 0.0 0.0 0.0
0.0 0.0 3.0639858 2.2568188 17.494396 5.783683 1.7196128 0.96728253
7.0556496e-05 9.722955e-30 3.9562318e-30 3.4759558e-31 2.5268989e-30 1.2500206e-31 7.031436e-32 0.0
0.62129724 0.48695242 2.8966713 1.2063534 0.2982011 0.16773814 6.458255e-05 1.1194514
0.7715277 6.904564 2.025454 0.6624487 0.37262833 1.0331604e-11 0.2573249 0.20187284
0.5119328 0.20369655 0.059607327 0.03352903 5.7327503e-05 1.8051543e-16 1.7319546e-17 3.069441e-18
2.7513497e-18 9.875141e-19 5.554752e-19 2.1853324e-21 0.61432135 0.40915924 3.928224 1.4523187
0.38698316 0.21767777 7.6234533e-06 0.9206501 0.62561476 4.5178294 1.9424192 0.47381753
0.26652285 4.747607e-05 0.0 0.0 0.0 0.0 0.0 0.0
0.0 0.03877124 0.023336638 0.2371244 0.09774696 0.023368103 0.013144564 5.2676123e-18
0.0031248832 0.0010917889 0.012953325 0.01405826 0.0030371798 0.0017084125 7.7473465e-17 0.0
0.0 0.0 0.0 0.0 0.0 0.0 1.3590201 0.98937154
7.9520874 2.9550316 0.8040371 0.45227057 7.84455e-07 0.0047594546 0.0037852814 0.02052593
0.0051754587 0.0019391553 0.0010907743 6.120253e-06 0.3205613 0.22879347 1.6400439 0.4877488
0.1584748 0.08914209 1.6962302e-05 1.6920418 1.117422 9.233128 3.7440524 0.9529927
0.53605783 5.0616975e-27 0.00906892 0.009824467 0.041397892 0.02319752 0.0046534087 0.0026175405
6.949607e-16 1.9761196 1.4997053 12.594652 5.2817945 1.2968203 0.72946036 3.8804752e-05
0.87703097 0.67537206 5.532485 2.2418716 0.563084 0.31673518 2.373508e-10 1.0032047
0.665174 4.34925 1.8360283 0.46452934 0.26129755 6.7623864e-06 0.93944925 0.6029999
4.657168 1.5152123 0.47776824 0.26874498 3.402704e-06 2.346628 1.802401 12.233006
5.0247617 1.252734 0.7046637 2.9437768e-05 0.1262141 0.08978367 0.64515555 0.36283833
0.07699667 0.04331056 5.1239622e-05 0.01048633 0.012732441 0.001525608 0.0026083654 0.0005108221
0.00028733752 9.976076e-17 0.020046772 0.016060328 0.03112651 0.006845628 0.003791196 0.0021325487
4.965946e-07 0.04073751 0.015351987 0.26977962 0.07786702 0.028160071 0.015840044 7.5723092e-28
5.9616027 4.278069 35.70184 12.055538 3.548673 1.9961311 8.337679e-06 0.0054793735
0.012393556 0.0016812506 0.0016700911 0.00040150943 0.00022584885 1.00587287e-16 3.3896008 2.2872553
21.160797 7.4323883 2.1457882 1.2070047 7.533116e-05 1.04309244e-14 7.9875085e-16 1.6403242e-16
5.362284e-16 5.4673475e-17 3.0753824e-17 0.0 0.928974 0.6273038 3.6811736 1.596243
00000000: 74a7 1f3f 8bf3 da3e cdeb 3540 2d86 963f
00000010: 01b8 993e 04ef 2c3e a594 6137 020a 483f
00000020: 71a3 043f 5c77 6440 96f8 c93f 54ee c83e
00000030: 240c 623e 66c5 1914 96b1 ba40 a60a 8840
00000040: 8d9f 0242 6bec 2a41 104b 4f40 6734 e93f
00000050: 9d49 c437 73e9 103e 84e8 ae3d 4256 8f3e
00000060: 2246 043e e4cb 053d 6d85 963c 3d55 4d39
00000070: 33dc 693f 1b93 2e3f a7ed 9740 8ecb f93f
00000080: 64a0 ff3e 30ca 8f3e 1c17 d237 0000 0000
00000090: 0000 0000 0000 0000 0000 0000 0000 0000
000000a0: 0000 0000 0000 0000 5818 4440 b86f 1040
000000b0: 86f4 8b41 ee13 b940 461c dc3f d49f 773f
000000c0: bbf7 9338 7834 450f dc7b a00e 399a e10c
000000d0: a301 4d0e 0f43 220c e88b b60b 0000 0000
000000e0: 560d 1f3f d451 f93e 1063 3940 ca69 9a3f
000000f0: d1ad 983e 8cc3 2b3e 7e70 8738 2f4a 8f3f
00000100: d782 453f 30f2 dc40 0aa1 0140 3d96 293f
00000110: 24c9 be3e 68c1 352d 17c0 833e c1b7 4e3e
00000120: 070e 033f d495 503e d026 743d bc55 093d
00000130: f072 7038 c01e 5025 9fbe 9f23 1a7c 6222
00000140: 8703 4b22 3abb 9121 85f2 2321 7a1e 251d
00000150: 2a44 1d3f 527d d13e 0668 7b40 94e5 b93f
00000160: a822 c63e ece6 5e3e f7cc ff36 baaf 6b3f
00000170: 4a28 203f 0f92 9040 31a1 f83f 3698 f23e
00000180: af75 883e 0b21 4738 0000 0000 0000 0000
00000190: 0000 0000 0000 0000 0000 0000 0000 0000
000001a0: 0000 0000 97ce 1e3d 7a2c bf3c bdd0 723e
000001b0: 8f2f c83d 776e bf3c 4c5c 573c 3157 c222
000001c0: d7ca 4c3b 5b1a 8f3a 2f3a 543c 9e54 663c
000001d0: 6c0b 473b d0ec df3a 43a4 b224 0000 0000
000001e0: 0000 0000 0000 0000 0000 0000 0000 0000
000001f0: 0000 0000 0000 0000 5ff4 ad3f 7447 7d3f
00000200: 8077 fe40 3d1f 3d40 60d5 4d3f 0290 e73e
00000210: 5693 5235 33f5 9b3b 7c12 783b ff25 a83c
00000220: e596 a93b 412b fe3a 50f8 8e3a 935c cd36
00000230: 9c20 a43e d648 6a3e f5ec d13f 36ba f93e
00000240: 3847 223e 2190 b63d 444a 8e37 d394 d83f
00000250: af07 8f3f e4ba 1341 8e9e 6f40 54f7 733f
00000260: 163b 093f b683 c813 cf95 143c cdf6 203c
00000270: d690 293d ba08 be3c 9f7b 983b 0b8b 2b3b
00000280: 0c4f 4826 7df1 fc3f 58f6 bf3f b283 4941
00000290: 7604 a940 35fe a53f eabd 3a3f 49c2 2238
000002a0: 1a85 603f 2fe5 2c3f 1e0a b140 d37a 0f40
000002b0: 4626 103f 1d2b a23e 287c 822f 0369 803f
000002c0: d848 2a3f 0e2d 8b40 fa02 eb3f cad6 ed3e
000002d0: cbc8 853e 75e8 e236 bf7f 703f 345e 1a3f
000002e0: 8507 9540 7af2 c13f 0a9e f43e f198 893e
000002f0: 025a 6436 272f 1640 13b5 e63f 64ba 4341
00000300: d9ca a040 9659 a03f d764 343f 20f1 f637
00000310: 453e 013e 80e0 b73d ea28 253f f2c5 b93e
00000320: 6eb0 9d3d 6a66 313d 20ea 5638 dbce 2b3c
00000330: ba9b 503c e9f6 c73a 1cf1 2a3b b1e8 053a
00000340: caa5 9639 5c08 e624 2139 a43c f390 833c
00000350: 06fd fe3c 4a51 e03b b775 783b 3bc2 0b3b
00000360: b94d 0535 60dc 263d e786 7b3c 8e20 8a3e
00000370: bf78 9f3d f3af e63c fbc2 813c dff9 6f12
00000380: 73c5 be40 f1e5 8840 afce 0e42 7ce3 4041
00000390: 751d 6340 3981 ff3f 0fe2 0b37 518c b33b
000003a0: 570e 4b3c 695d dc3a f5e6 da3a af81 d239
000003b0: d7d1 6c39 41f0 e724 38ef 5840 6462 1240
000003c0: 5049 a941 20d6 ed40 9854 0940 217f 9a3f
000003d0: 1cfb 9d38 26e8 3b28 6939 6626 d31d 3d25
000003e0: ac8e 1a26 0c23 7c24 b5d3 0d24 0000 0000
000003f0: 3dd1 6d3f fb96 203f 5998 6b40 b151 cc3f
