Multi-UAVs path planning/path planning/Path_DDPG_actor.pth (torch, 22511 bytes, 18 tensors)

in_to_y1.weight f4 [50, 7]
000000 e0 ca 62 bd 9b f4 da 3d 2e 90 43 bd f2 21 6e bd
       -0.055369258 0.10691186 -0.047744922 -0.05813784
000010 41 52 32 bd 05 b7 a6 ba cf 04 1a 3d df 6b a6 bd
       -0.043535475 -0.0012719339 0.037602242 -0.081260435
000020 ad 2f b5 3c 7f 7c b6 bd 58 7b 1a 3e fc f2 70 be
       0.02211746 -0.089104645 0.15086114 -0.23530191
000030 52 e3 1a be 89 c1 8c 3d 44 bb 1a 3f d4 da 0b bd
       -0.15125778 0.068728514 0.60441995 -0.034144238
000040 ba 73 28 3e 6f c5 d8 3e ee a0 8a bd 94 0f 22 be
       0.16450396 0.4233813 -0.06768976 -0.15826255
000050 99 4e 04 3f 82 46 57 bf f6 16 d0 3d 9e ab 01 bf
       0.5168243 -0.8409196 0.101606295 -0.5065249
000060 02 47 4c 3e 73 3b ab be ac 7b 03 bd ce 2a 06 3f
       0.19948962 -0.33443794 -0.032100365 0.52409065
000070 50 a5 13 bf 78 09 f1 3e d2 58 ee 3e fd 88 30 3f
       -0.5767412 0.47077537 0.4655214 0.6895903
000080 68 22 9a 3e 21 e7 31 3f 24 dd 20 3f 01 e7 54 bf
       0.30104375 0.694933 0.62837434 -0.83164984
000090 ef 35 f9 3d 83 f5 aa be 61 e0 7d 3e 18 ca 6d be
       0.1216849 -0.33390436 0.24792625 -0.23221624
0000a0 35 b1 27 be 43 40 03 3f 9d 5c 02 bf 5b 6e 73 be
       -0.16376193 0.5126993 -0.50922567 -0.23772566
0000b0 cd d8 a4 be f6 ba 5a 3f f7 ea 69 be bf 5b 8d be
       -0.32196656 0.8544153 -0.22843538 -0.2760906
0000c0 c7 0a d0 3f 83 b9 d3 be 5d b7 54 3e 8c 93 fb be
       1.6253289 -0.41352472 0.20773073 -0.49136007
0000d0 66 03 93 3f 49 1a 4c be 65 61 08 be 33 96 99 3f
       1.1485412 -0.19931902 -0.13318403 1.1998962
0000e0 af 46 25 bd 0f cf 2c 3d dd d5 06 3e fa 8c 01 3c
       -0.040350612 0.042189654 0.1316752 0.007907147
0000f0 2f ef 1a 3d 11 8d 27 bd 10 a9 5f be f6 81 11 be
       0.03782576 -0.040906016 -0.21841836 -0.14209732
000100 57 10 16 bf 8e 46 b9 be d9 13 04 3e 3e 55 d8 be
       -0.5861868 -0.3618664 0.12898196 -0.42252535
000110 07 c0 59 be 5f 36 e9 bd 7b 0b 6d bd 10 3d 06 be
       -0.21264659 -0.113873236 -0.057872277 -0.13109231
000120 67 31 e1 bc 20 a4 f8 bd 37 f9 17 3d 6d 21 22 3e
       -0.027489377 -0.12140679 0.037102904 0.15833063
000130 c2 7d 7a 3d 9f 9e 0d 3f fe 01 70 be ce af b0 bd
       0.06115509 0.5532016 -0.2343826 -0.08627282
000140 01 e9 1e 3f dd 55 cc 3d 9f b8 8c be b8 9c a0 3f
       0.62074286 0.099773146 -0.27484605 1.2547827
000150 9a 39 10 bf b2 fb 7d 3f 47 06 d9 3e 2c da 82 be
       -0.56337893 0.9921218 0.42387602 -0.25557077
000160 3b f5 68 3e b0 92 1f 3f 7e da 85 3d 9f 0c 65 bf
       0.22749798 0.623332 0.06535815 -0.89472383
000170 d6 a1 48 3d 00 b2 80 be 85 a7 be 3e 51 a4 b6 be
       0.048982464 -0.25135803 0.37237182 -0.35672238
000180 bf cf 1e be 07 85 2d 3f c3 ad 4e bf 1c 15 bb 3d
       -0.15508936 0.6778111 -0.8073389 0.09134886
000190 12 74 9c be bf c4 83 3e 75 38 a7 be ee de 88 bd
       -0.30557305 0.25736043 -0.3266026 -0.066831455
0001a0 7d df 04 3f 18 02 d6 bd 3c 12 5e 3d 85 87 e5 bd
       0.51903516 -0.10449618 0.05421661 -0.11207489
0001b0 38 b5 fa bc b5 63 0b 3e ce 1f 85 be 7a a3 fe 3d
       -0.03060399 0.13612254 -0.26000828 0.124335244
0001c0 16 81 10 bf a6 e2 83 3f f2 37 ae 3e 13 a9 12 be
       -0.5644697 1.0303543 0.34027058 -0.14322309
0001d0 88 a9 2a 3e 61 bc 27 3f 6c af 5e 3e 7d c7 b8 3b
       0.16666234 0.6552182 0.21746606 0.005639015
0001e0 68 e9 e9 3a 37 ae ba 3d 4b 03 4e bc 4f d6 35 3c
       0.001784605 0.0911526 -0.012574027 0.011098458
0001f0 82 ad 61 3d 89 b4 c3 3d 38 d4 6c be ba dc 0c 3e
       0.05509711 0.09555919 -0.2312783 0.13756076
000200 ec 3a 55 3d 6e d5 12 bd 62 51 55 be 0a 5a 54 bc
       0.052058145 -0.035848074 -0.20831826 -0.01296092
000210 82 2e 03 3e 8d 9e 4c bf 08 9b cb 3d 54 01 b5 be
       0.1281071 -0.7992943 0.09941679 -0.35352576
000220 2f a9 5a 3e 55 c1 4c be a0 58 f6 3d 72 67 06 3f
       0.21353601 -0.19995625 0.120286226 0.52501595
000230 98 32 56 3f 94 8e 71 be 6e 3f 97 bd 29 43 c0 3e
       0.8367095 -0.23589545 -0.07385145 0.3755124
000240 83 e5 6a bc 24 48 db be aa 82 37 3f 03 bb a5 3e
       -0.014336946 -0.42828476 0.7168375 0.3236924
000250 ce 37 ce 3e 7c 49 49 3e d0 de 15 be ad 5b 9e bd
       0.4027695 0.19656938 -0.14635777 -0.077323295
000260 d8 05 79 3e 2e d0 64 3b b4 43 35 3f 38 a6 0c 3f
       0.24318635 0.0034914124 0.7080643 0.5494113
000270 1b fd 78 be 47 4a 0b bf 4a b1 7a be 26 e4 df be
       -0.24315302 -0.54410213 -0.24481693 -0.4372875
000280 1b 4d 29 3f ef 64 65 3f c2 e8 4d be 6b 20 46 be
       0.6613328 0.8960714 -0.20108321 -0.19348304
000290 2e 0c 1c 3f fa d4 17 3c 8c c9 2a be f6 32 04 3f
       0.60956085 0.009267086 -0.16678447 0.5164026
0002a0 a4 83 9b bd 61 c6 96 bd b0 da 41 bd 86 6d 57 bc
       -0.07593468 -0.073620565 -0.047327697 -0.013148671
0002b0 f1 ab 50 bd 38 9f 17 be 65 d6 12 3d d2 e4 f9 be
       -0.050945226 -0.14806831 0.035848994 -0.4880739
0002c0 ef ec 63 3f ea b7 ab 3e 8c d7 39 3d e9 c5 55 3c
       0.89033407 0.33538753 0.045371577 0.013047674
0002d0 52 2d e6 3e 7b 95 d0 3d 6d 03 7f 3f ae d1 3f be
       0.44956452 0.10184761 0.996146 -0.1873233
0002e0 8a 2b 51 3e 74 c3 4d 3d fe de 00 3e 62 23 81 be
       0.20426765 0.050235227 0.12585065 -0.25222307
0002f0 26 41 82 3e c0 f2 4b bf 0a 5f 0c bf c6 46 b5 be
       0.2544033 -0.7966728 -0.5483252 -0.35405558
000300 56 28 54 3f d9 2c bf bd c6 6c b0 be ba 3a c3 3f
       0.8287405 -0.09334726 -0.34457988 1.5252297
000310 0b 1b 4b 3f fc ae 98 bd 7c 61 4d bd b2 a4 cc 3e
       0.7933814 -0.074552506 -0.050141796 0.39969403
000320 7f 30 a5 bd 40 6a d5 be db df 51 3f e4 b0 4c bf
       -0.080658905 -0.41682625 0.819822 -0.79957414
000330 c8 ae 04 3e 2d 39 88 be 45 bc 5a 3e f9 9f c9 bd
       0.12957299 -0.26606122 0.21360882 -0.098449655
000340 33 74 d3 bd 05 d1 f9 3e 77 ef 06 3f cc bc 05 3e
       -0.103248976 0.48792282 0.52709144 0.13060302
000350 7c 3f 04 be 83 60 38 3f dc 52 6a 3d ce e6 81 be
       -0.12914842 0.72022265 0.057207927 -0.25371403
000360 1c 2b 8a 3f be 70 0b be 65 07 27 3d e5 bd 09 bc
       1.0794406 -0.13617226 0.040778536 -0.008407091
000370 47 b6 00 3d 0e 1c 94 be 18 e4 21 3c eb d0 ab bd
       0.031423833 -0.28927654 0.009881042 -0.08389457
000380 89 3d 17 3f 7d 48 35 be bf da 50 be dd 6e 63 3f
       0.5907827 -0.17703433 -0.20395945 0.8884104
000390 a1 14 49 3d b0 d9 97 be 93 2a 85 3f ae da 76 3f
       0.04909194 -0.2965827 1.0403618 0.9642743
0003a0 04 38 38 bf 20 c2 1c 3c 11 0f 35 be 6e ce 5e 3e
       -0.71960473 0.009567767 -0.17681529 0.21758434
0003b0 7e 9c 81 3d 1c 3d c0 bd 13 ca 9d 3c 10 d6 ee bd
       0.06328677 -0.09386656 0.019261396 -0.11661923
0003c0 a8 23 73 bd fa 1b 16 be 1f 36 15 bd 4b 67 0a 3d
       -0.059360176 -0.1465911 -0.036428567 0.033789914
0003d0 c7 7c 4b 3c 36 17 49 3f 85 a6 ae be e4 f3 e6 3d
       0.012419886 0.7855104 -0.3411142 0.11276987
0003e0 7e 21 e9 3e 7e a8 55 3e 4d 17 62 be 2f 63 8f 3e
       0.45533365 0.20865056 -0.22079201 0.2800536
0003f0 b2 79 45 3f 56 de 29 be 76 ed 6b 3e 92 db 8d 3e
       0.7713882 -0.1658872 0.23039803 0.2770658

in_to_y1.bias f4 [50]
000000 7d 6b b0 be d6 f6 93 bd 45 17 d0 bd 08 cd 0a be
       -0.34457007 -0.072248146 -0.10160688 -0.13554776
000010 64 5a b4 3e 64 e9 6f be bc d4 0c bf 1b b2 a4 bb
       0.35225213 -0.23428875 -0.55012107 -0.0050261146
000020 dc 13 a8 be 40 eb 9b be 58 fe 86 be fb bc 05 3e
       -0.32827652 -0.3045292 -0.26365924 0.13060372
000030 01 95 2f 3f 06 46 d2 be 36 2e 76 be 78 f5 2d be
       0.68586737 -0.4106905 -0.24041066 -0.1698817
000040 63 3e 2d 3f db 51 7e be f7 11 d4 be 7f c5 8f be
       0.6767332 -0.24835913 -0.41419956 -0.28080365
000050 21 56 69 bd 24 d3 44 be bf cf 64 bd 44 fd 07 3e
       -0.056966905 -0.19221169 -0.055862185 0.13280207
000060 e9 e1 11 bd ec 14 20 3f 9c 2b 59 3e 71 09 91 be
       -0.035615835 0.62531924 0.21208042 -0.28327516
000070 4f 46 4f 3d 5d c2 8d be 3a 34 1d 3e 74 4e 43 be
       0.05060416 -0.2768735 0.15351954 -0.19072896
000080 4f fb 14 3d a8 1a 72 bd 7c 80 33 be 03 65 33 3e
       0.03637248 -0.059107453 -0.17529482 0.17519002
000090 fb 0f 5a 3e b1 1d a4 be 27 ba ed bd ad ae ca 3e
       0.21295159 -0.32053903 -0.11607771 0.39586392
0000a0 ec c2 bb be e1 22 af be ff 8e 91 3c e1 6e 90 be
       -0.3667215 -0.34206298 0.017768381 -0.28209594
0000b0 b6 bc 0b 3f c0 d4 49 be c9 0b 88 bd a5 6c c6 be
       0.54584825 -0.19710064 -0.06642873 -0.38754764
0000c0 88 21 85 be f1 70 7f bd
       -0.26002145 -0.06236357

y1_to_y2.weight f4 [20, 50]
000000 aa 25 95 3d 72 15 87 3d 40 29 9b be 0a b6 21 3f
       0.072825745 0.06595887 -0.3030491 0.63168395
000010 2d 84 c7 3e b7 42 0e 3f 79 90 0a bf 90 f7 a1 be
       0.3896803 0.5557055 -0.541267 -0.31634188
000020 af 48 9a bd a1 3b 41 3f b0 63 bf 3d 45 36 3b be
       -0.075333945 0.7548161 0.09345186 -0.18282421
000030 5a 28 41 3f d6 ec 7c 3f f0 1f 62 3f c1 69 30 3d
       0.75452197 0.9879888 0.8832998 0.043069605
000040 ac 0b 80 3f 07 26 cf bc da 13 de 3d e9 5d e5 3e
       1.0003562 -0.025286688 0.1084363 0.4479821
000050 ba fe ad be 71 a1 b3 3d 78 c8 fd be 1a 29 81 be
       -0.33983403 0.08771027 -0.49567008 -0.2522667
000060 40 ba 71 be 8a 96 ea 3e 35 f1 b5 be f6 5d c6 be
       -0.23606205 0.45817977 -0.3553559 -0.38743562
000070 c4 04 fa bd fa 71 8a 3e f5 64 71 be 57 32 3c 3d
       -0.1220794 0.27040082 -0.23573668 0.045946445
000080 36 b7 b0 be 33 42 5f 3f 93 73 c6 bd 03 03 4d be
       -0.3451478 0.87210387 -0.09690013 -0.2002068
000090 35 8c a4 be d9 60 f7 be 1e fe 9f bd 24 85 84 3f
       -0.3213822 -0.48316076 -0.07812141 1.0353131
0000a0 9b 6a 3f 3c ed 4f ad 3d 0e 54 4e 3e 4b 6a 2d 3f
       0.011683132 0.0846251 0.20149252 0.67740315
0000b0 04 9d f7 3f d6 e6 10 3f c5 17 36 3f dd 25 6d 3d
       1.9344792 0.5660223 0.7113002 0.057897437
0000c0 e0 25 21 3e a2 0b f3 3e 4f 87 45 bd 02 43 39 3d
       0.15737104 0.47469813 -0.048224743 0.04522992
0000d0 c2 7a 2d bd 3d b4 c6 3e 7b 92 9e 3d 5c 1c f5 3e
       -0.0423534 0.38809386 0.07742783 0.478732
0000e0 02 39 e4 be 6e cf 12 be 07 be 13 bd ff a6 64 3f
       -0.44574744 -0.1433694 -0.036069896 0.89317316
0000f0 f3 1f 06 be eb bc cb bd 5a 43 52 3f b6 3a 7b 3f
       -0.13098125 -0.099481426 0.8213402 0.9813646
000100 2a 49 33 3f d6 a0 20 be 30 25 44 3f 19 42 c2 bc
       0.70033514 -0.15686354 0.76619244 -0.023713158
000110 67 24 7b bd a0 ff e2 3e 92 df 2c 3e 4f 5b 89 3d
       -0.061314013 0.4433565 0.1688216 0.06706869
000120 32 8a 64 be 80 69 dd bd 70 e3 f1 3c ed dc 0d 3f
       -0.22318342 -0.10811138 0.029527396 0.5541523
000130 67 03 82 be 2e 8f d6 be bc 58 f9 bc c1 c3 2d 3e
       -0.2539322 -0.41906112 -0.03043782 0.16969205
000140 ab a1 25 be f8 40 d0 bd b8 d0 84 bd b7 1d 9e 3f
       -0.16174953 -0.10168642 -0.064851224 1.2352818
000150 a0 5d 02 3d b9 5c c9 bd bd b7 9d be d8 a8 ea be
       0.03182757 -0.098321386 -0.30804244 -0.45831943
000160 6a 03 88 bd 16 b7 4e 3f 10 7d ff bd 55 33 1e bc
       -0.06641276 0.80748117 -0.12475026 -0.009655793
000170 d5 f4 13 3e 5c 31 1d 3f 42 fe d6 3f 05 5f de 3e
       0.14448865 0.6140344 1.6796343 0.4343187
000180 2f 67 18 3f 75 ce 49 bd 2f ea 7f 3d fb 9b fa 3e
       0.59532446 -0.04926916 0.062479194 0.4894713
000190 2f 5b a7 3d 3f 1c 93 bd d5 d3 b3 3e 05 5d 83 3d
       0.08171689 -0.07183122 0.35122553 0.064142264
0001a0 80 b3 a8 3e 27 17 17 3e 6f c5 ac 3f 9d 6b a0 3f
       0.32949448 0.14754926 1.3497752 1.2532841
0001b0 b7 a5 33 3e 6a 27 83 3c 63 00 a5 3d 24 8e 5c 3d
       0.17543684 0.016010005 0.080567144 0.053846493
0001c0 e1 c7 59 bf 64 80 ff 3e 34 7d 54 3e da c8 cc 3d
       -0.85070616 0.49902642 0.20750886 0.09999247
0001d0 86 c4 43 bf 37 70 8a bc 3c 43 79 3d d9 4f 17 3f
       -0.76471746 -0.016899211 0.060855135 0.5910621
0001e0 0b 0c 53 3e 5c 5a cb be 9a f8 30 3d 9c f0 9a bc
       0.20610063 -0.39717376 0.043205835 -0.01891356
0001f0 ae be b3 3c c5 df f4 be e8 7a 9c be 82 a7 aa 3e
       0.02194151 -0.47826973 -0.3056252 0.33330923
000200 80 8a 51 3e fe 55 2c 3f 94 ce 3a 3e 6d d0 27 bd
       0.2046299 0.67318714 0.18242866 -0.040970255
000210 41 d5 bc 3e df ec 80 bd 60 d7 4a be e4 18 9f be
       0.3688145 -0.062951796 -0.19808722 -0.31073678
000220 fd 0d 0e be 55 ed e9 be ad 59 ea 3d 71 08 5b be
       -0.13872524 -0.45688882 0.114428855 -0.21389939
000230 ab c0 02 bd 07 0f 15 3d d4 da df be cd 9d 18 3f
       -0.031922024 0.036391284 -0.4372164 0.59615785
000240 02 02 de be a0 dd 6e 3e 6b 02 aa 3e c8 f1 3b 3d
       -0.43360907 0.2332673 0.3320497 0.045884877
000250 fb 2a 49 bd fd f3 45 3e 5a 7a 5d 3d 3d 09 da 3d
       -0.049113255 0.19331355 0.05407176 0.10646293
000260 3e f9 ae be 66 dd 12 3f c0 27 47 3e 7b 57 0e 3f
       -0.34174532 0.5736908 0.19448757 0.55602235
000270 b0 70 22 bf 80 29 c4 be 9d 1b d4 3c 44 9c 48 3f
       -0.634532 -0.38312912 0.025892073 0.7836344
000280 18 33 ab 3d 52 93 81 be 2b d7 47 3f bd 22 87 3f
       0.08359355 -0.2530771 0.78062695 1.0557476
000290 b7 ca 32 3f 6f fd 04 bd a6 01 65 3f 8b 9f 88 3c
       0.6984057 -0.032468256 0.8945564 0.016677639
0002a0 8d bc 4f 3e 4f dc 01 3f c5 17 3a be cc f7 52 3e
       0.2028677 0.5072679 -0.1817313 0.2060234
0002b0 5d 0a f5 be dc 3d 6a be 16 45 d6 3d 0b 3b 25 3f
       -0.4785947 -0.2287516 0.10462396 0.6454322
0002c0 10 08 c6 be 78 ba ce be c2 29 a5 be c9 c2 c7 3e
       -0.38678026 -0.4037664 -0.3225842 0.39015797
0002d0 05 6d 3f be 11 cf 52 bd 4e d6 f2 be 79 16 53 3f
       -0.18693931 -0.051467005 -0.47429127 0.82456166
0002e0 96 3e b5 bd 81 dd b0 be 08 fa a6 be c6 21 cb be
       -0.08849828 -0.34543994 -0.32612634 -0.39674205
0002f0 c4 0c 87 bd e7 67 88 3f 05 ff 8a bc 0f ad 16 3d
       -0.06594232 1.0656708 -0.016967306 0.036786135
000300 97 c0 d3 3e ad a5 27 3f 84 1e 01 40 09 e9 e3 3e
       0.41357872 0.65487176 2.0174875 0.4451373
000310 9e 2a 39 3f 69 0d 1f 3c 91 89 1e 3d ef 3d 97 3e
       0.72330654 0.009707787 0.038705412 0.2953944
000320 c2 f7 9b bc 47 5e 60 bd a1 20 6a bc 56 f5 cf 3e
       -0.019039039 -0.05477741 -0.014290006 0.40616864
000330 e4 dc 24 be 80 e9 fb 3e d2 75 0f bf 41 39 19 bf
       -0.16099888 0.49201584 -0.56039155 -0.5985299
000340 03 7a 03 3e f6 c6 56 3f 7f a9 ff bc bb 6a 3d 3d
       0.12839513 0.8389734 -0.031208752 0.046244364
000350 12 f1 9d 3e 3f 13 71 3f d6 71 59 3f a4 1a e1 3d
       0.30847985 0.9416999 0.84939325 0.109914094
000360 99 db 8e 3e f3 d5 d5 3d 33 4b d3 bc 3d 5a c4 3e
       0.27901915 0.10441198 -0.025792694 0.38350096
000370 be 49 c3 bd 80 aa 77 3e 24 eb 89 be 33 e1 94 3d
       -0.095355496 0.24186134 -0.2693721 0.07269516
000380 1f 21 10 3e e9 37 64 bd 23 44 0b be 99 39 d7 be
       0.14075135 -0.055717383 -0.13600211 -0.4203613
000390 0b e3 98 bd 79 6e 50 3e 60 c8 8d be 57 67 25 bd
       -0.0746518 0.20354642 -0.27691936 -0.040381756
0003a0 34 78 a0 bd 31 8e 8e 3f 15 a5 28 3e 4a f7 7e 3d
       -0.07835427 1.1137143 0.16469224 0.062247552
0003b0 76 cc a8 bd 26 f2 34 bf 76 68 b3 bd 66 70 8b 3e
       -0.08242123 -0.7068199 -0.08760159 0.2723419
0003c0 2a 97 e5 bd dd 93 b1 bd 0e 00 2e be c6 9a 2e 3f
       -0.11210473 -0.08670781 -0.16992208 0.68204916
0003d0 6d e7 ab 3f 8c 06 19 3f 1b 62 2c 3f b7 56 c8 3d
       1.343 0.59775615 0.673372 0.097821645
0003e0 b1 73 b4 bd 9e a2 cf 3e 53 1f 9e bd 86 9e 12 be
       -0.08811129 0.40553755 -0.07720818 -0.14318284
0003f0 48 32 9f be a7 3e f5 3e 3a 90 06 3e 0d 9e 89 3e
       -0.3109305 0.47899362 0.13140956 0.26878396

y1_to_y2.bias f4 [20]
000000 24 2d e1 bc 67 e8 3c 3e 9a aa de be eb f1 38 3d
       -0.027487345 0.1844803 -0.43489534 0.045152586
000010 d7 fd 47 3d 48 82 77 bc bc 90 9a 3d 20 ae 11 3e
       0.048826065 -0.015106745 0.07547137 0.1422658
000020 8a 01 d8 bd ec ff 02 bf d4 3f 3d 3e 19 51 8d 3e
       -0.105471686 -0.51171756 0.1848138 0.27600935
000030 22 7a d3 3d 85 de ba be 86 5f 6d 3e e7 80 05 3d
       0.10326029 -0.36497894 0.2318097 0.032593634
000040 f1 db 13 be 4b d9 67 3c b8 b4 06 be 31 67 d8 3d
       -0.1443937 0.014150928 -0.13154876 0.10566557

out.weight f4 [2, 20]
000000 e5 c1 e8 be 8e f6 03 bf 5f 57 73 be 5b 6a 07 bf
       -0.4546043 -0.5154809 -0.23763798 -0.5289666
000010 99 a3 f6 be 79 75 31 bf a1 e7 f1 be 13 1b 42 bf
       -0.4817169 -0.69319874 -0.4724703 -0.7582256
000020 f3 a0 91 be fb cd f8 be f6 8d 21 bf 67 0c 2b bf
       -0.28443107 -0.4859465 -0.6310724 -0.668158
000030 dd 80 e9 3e 3a 6e 07 c0 65 1f 1a bf 7b 4f 1b c0
       0.45606127 -2.1161027 -0.60204154 -2.426726
000040 bb 50 fb be 4d 56 13 bf cc 13 f9 be b2 32 c9 be
       -0.4908503 -0.5755356 -0.48647916 -0.3929649
000050 bc 71 76 3f fa 13 8d 3f ed 33 c2 be 59 5c 64 3f
       0.96267295 1.1021721 -0.3793024 0.8920341
000060 95 67 cc 3d e2 fd 82 3f 36 01 65 3f 3e 76 55 3f
       0.09980694 1.0233729 0.8945497 0.8338355
000070 c2 5b 85 be 1b d0 30 bf f5 21 86 3f 58 e7 71 3f
       -0.26046568 -0.69067544 1.0479113 0.9449363
000080 40 88 0e bf 7b 45 1f bf a3 8e 88 3f 61 5e 6c bd
       -0.5567665 -0.62215394 1.0668529 -0.057707194
000090 1c 5d 74 3f 1e d5 7f 3f 8a 78 6b 3f 98 48 8f 3f
       0.95454574 0.99934566 0.91980803 1.1194029

out.bias f4 [2]
000000 26 cd 00 3e c5 b0 f0 be
       0.12578258 -0.47009864

exp_avg f4 [50, 7]
000000 00 00 00 00 00 00 00 00 00 00 00 00 00 00 00 00
       0.0 0.0 0.0 0.0
000010 00 00 00 00 00 00 00 00 00 00 00 00 04 00 00 00
       0.0 0.0 0.0 6e-45
000020 04 00 00 00 04 00 00 00 04 00 00 00 04 00 00 00
       6e-45 6e-45 6e-45 6e-45
000030 04 00 00 00 04 00 00 00 04 00 00 00 04 00 00 00
       6e-45 6e-45 6e-45 6e-45
000040 04 00 00 00 04 00 00 00 04 00 00 00 04 00 00 00
       6e-45 6e-45 6e-45 6e-45
000050 04 00 00 00 04 00 00 00 04 00 00 00 04 00 00 00
       6e-45 6e-45 6e-45 6e-45
000060 04 00 00 00 04 00 00 00 04 00 00 00 04 00 00 00
       6e-45 6e-45 6e-45 6e-45
000070 04 00 00 80 04 00 00 80 04 00 00 80 04 00 00 80
       -6e-45 -6e-45 -6e-45 -6e-45
000080 04 00 00 80 04 00 00 80 04 00 00 80 04 00 00 00
       -6e-45 -6e-45 -6e-45 6e-45
000090 04 00 00 00 04 00 00 00 04 00 00 00 04 00 00 00
       6e-45 6e-45 6e-45 6e-45
0000a0 04 00 00 00 04 00 00 00 04 00 00 00 04 00 00 00
       6e-45 6e-45 6e-45 6e-45
0000b0 04 00 00 00 04 00 00 00 04 00 00 00 04 00 00 00
       6e-45 6e-45 6e-45 6e-45
0000c0 04 00 00 00 04 00 00 00 04 00 00 00 04 00 00 00
       6e-45 6e-45 6e-45 6e-45
0000d0 04 00 00 00 04 00 00 00 04 00 00 00 04 00 00 00
       6e-45 6e-45 6e-45 6e-45
0000e0 00 00 00 00 00 00 00 00 00 00 00 00 00 00 00 00
       0.0 0.0 0.0 0.0
0000f0 00 00 00 00 00 00 00 00 00 00 00 00 04 00 00 80
       0.0 0.0 0.0 -6e-45
000100 04 00 00 80 04 00 00 00 04 00 00 00 04 00 00 00
       -6e-45 6e-45 6e-45 6e-45
000110 04 00 00 00 00 00 00 00 00 00 00 00 00 00 00 00
       6e-45 0.0 0.0 0.0
000120 00 00 00 00 00 00 00 00 00 00 00 00 00 00 00 00
       0.0 0.0 0.0 0.0
000130 00 00 00 00 04 00 00 00 04 00 00 00 04 00 00 00
       0.0 6e-45 6e-45 6e-45
000140 04 00 00 00 04 00 00 00 04 00 00 00 04 00 00 00
       6e-45 6e-45 6e-45 6e-45
000150 04 00 00 80 04 00 00 80 04 00 00 80 04 00 00 80
       -6e-45 -6e-45 -6e-45 -6e-45
000160 04 00 00 80 04 00 00 80 04 00 00 80 04 00 00 80
       -6e-45 -6e-45 -6e-45 -6e-45
000170 04 00 00 80 04 00 00 00 04 00 00 00 04 00 00 00
       -6e-45 6e-45 6e-45 6e-45
000180 04 00 00 00 04 00 00 00 04 00 00 80 04 00 00 80
       6e-45 6e-45 -6e-45 -6e-45
000190 04 00 00 00 04 00 00 00 04 00 00 00 04 00 00 00
       6e-45 6e-45 6e-45 6e-45
0001a0 04 00 00 00 04 00 00 80 04 00 00 00 04 00 00 00
       6e-45 -6e-45 6e-45 6e-45
0001b0 04 00 00 00 04 00 00 00 04 00 00 00 00 00 00 00
       6e-45 6e-45 6e-45 0.0
0001c0 04 00 00 80 04 00 00 80 04 00 00 80 04 00 00 80
       -6e-45 -6e-45 -6e-45 -6e-45
0001d0 04 00 00 80 04 00 00 80 04 00 00 80 00 00 00 00
       -6e-45 -6e-45 -6e-45 0.0
0001e0 00 00 00 00 00 00 00 00 00 00 00 00 00 00 00 00
       0.0 0.0 0.0 0.0
0001f0 00 00 00 00 00 00 00 00 04 00 00 80 04 00 00 00
       0.0 0.0 -6e-45 6e-45
000200 04 00 00 00 04 00 00 00 04 00 00 00 04 00 00 00
       6e-45 6e-45 6e-45 6e-45
000210 00 00 00 00 04 00 00 00 04 00 00 00 04 00 00 00
       0.0 6e-45 6e-45 6e-45
000220 04 00 00 00 04 00 00 00 04 00 00 00 04 00 00 00
       6e-45 6e-45 6e-45 6e-45
000230 04 00 00 00 04 00 00 00 04 00 00 00 04 00 00 00
       6e-45 6e-45 6e-45 6e-45
000240 04 00 00 00 04 00 00 00 04 00 00 00 04 00 00 80
       6e-45 6e-45 6e-45 -6e-45
000250 04 00 00 80 04 00 00 80 04 00 00 80 04 00 00 80
       -6e-45 -6e-45 -6e-45 -6e-45
000260 04 00 00 80 04 00 00 80 04 00 00 00 04 00 00 00
       -6e-45 -6e-45 6e-45 6e-45
000270 04 00 00 00 04 00 00 00 04 00 00 00 04 00 00 00
       6e-45 6e-45 6e-45 6e-45
000280 04 00 00 00 04 00 00 00 04 00 00 00 04 00 00 00
       6e-45 6e-45 6e-45 6e-45
000290 04 00 00 00 04 00 00 00 04 00 00 00 04 00 00 00
       6e-45 6e-45 6e-45 6e-45
0002a0 04 00 00 00 04 00 00 80 04 00 00 80 04 00 00 80
       6e-45 -6e-45 -6e-45 -6e-45
0002b0 04 00 00 80 04 00 00 80 00 00 00 00 04 00 00 80
       -6e-45 -6e-45 0.0 -6e-45
0002c0 04 00 00 80 04 00 00 80 04 00 00 80 04 00 00 80
       -6e-45 -6e-45 -6e-45 -6e-45
0002d0 04 00 00 80 04 00 00 80 04 00 00 00 04 00 00 00
       -6e-45 -6e-45 6e-45 6e-45
0002e0 04 00 00 00 04 00 00 00 04 00 00 00 04 00 00 00
       6e-45 6e-45 6e-45 6e-45
0002f0 04 00 00 00 04 00 00 00 04 00 00 00 04 00 00 00
       6e-45 6e-45 6e-45 6e-45
000300 04 00 00 00 04 00 00 00 04 00 00 00 04 00 00 00
       6e-45 6e-45 6e-45 6e-45
000310 04 00 00 00 04 00 00 00 04 00 00 00 04 00 00 00
       6e-45 6e-45 6e-45 6e-45
000320 04 00 00 00 04 00 00 00 04 00 00 00 04 00 00 00
       6e-45 6e-45 6e-45 6e-45
000330 04 00 00 00 04 00 00 00 04 00 00 00 04 00 00 00
       6e-45 6e-45 6e-45 6e-45
000340 04 00 00 00 04 00 00 00 04 00 00 00 04 00 00 00
       6e-45 6e-45 6e-45 6e-45
000350 04 00 00 00 04 00 00 00 04 00 00 00 04 00 00 00
       6e-45 6e-45 6e-45 6e-45
000360 04 00 00 00 04 00 00 80 04 00 00 00 04 00 00 00
       6e-45 -6e-45 6e-45 6e-45
000370 04 00 00 00 04 00 00 00 04 00 00 00 00 00 00 00
       6e-45 6e-45 6e-45 0.0
000380 04 00 00 00 04 00 00 00 04 00 00 00 04 00 00 00
       6e-45 6e-45 6e-45 6e-45
000390 04 00 00 00 04 00 00 00 04 00 00 00 04 00 00 80
       6e-45 6e-45 6e-45 -6e-45
0003a0 04 00 00 80 04 00 00 80 04 00 00 80 04 00 00 80
       -6e-45 -6e-45 -6e-45 -6e-45
0003b0 04 00 00 80 04 00 00 00 00 00 00 00 00 00 00 00
       -6e-45 6e-45 0.0 0.0
0003c0 00 00 00 00 00 00 00 00 00 00 00 00 00 00 00 00
       0.0 0.0 0.0 0.0
0003d0 00 00 00 00 04 00 00 00 04 00 00 00 04 00 00 00
       0.0 6e-45 6e-45 6e-45
0003e0 04 00 00 00 04 00 00 00 04 00 00 00 04 00 00 00
       6e-45 6e-45 6e-45 6e-45
0003f0 04 00 00 00 04 00 00 00 04 00 00 00 04 00 00 00
       6e-45 6e-45 6e-45 6e-45

exp_avg_sq f4 [50, 7]
000000 00 00 00 00 00 00 00 00 00 00 00 00 00 00 00 00
       0.0 0.0 0.0 0.0
000010 00 00 00 00 00 00 00 00 00 00 00 00 f4 01 00 00
       0.0 0.0 0.0 7e-43
000020 f4 01 00 00 f4 01 00 00 f4 01 00 00 f4 01 00 00
       7e-43 7e-43 7e-43 7e-43
000030 f4 01 00 00 f4 01 00 00 39 12 6e 08 67 84 c9 08
       7e-43 7e-43 7.164194e-34 1.2128375e-33
000040 0f 57 49 08 c6 14 38 09 a9 01 b1 08 cc 15 23 07
       6.0588574e-34 2.2157962e-33 1.065319e-33 1.2269163e-34
000050 5a 82 e2 09 f4 01 00 00 f4 01 00 00 f4 01 00 00
       5.4530103e-33 7e-43 7e-43 7e-43
000060 f4 01 00 00 f4 01 00 00 f4 01 00 00 f4 01 00 00
       7e-43 7e-43 7e-43 7e-43
000070 b6 bb c4 07 6a 87 26 08 5c 61 a6 07 61 21 98 08
       2.9601129e-34 5.0112986e-34 2.5034127e-34 9.156015e-34
000080 a9 45 12 08 b1 c4 86 06 bc 2d 3b 09 f4 01 00 00
       4.401716e-34 5.069421e-35 2.253081e-33 7e-43
000090 f4 01 00 00 f4 01 00 00 f4 01 00 00 f4 01 00 00
       7e-43 7e-43 7e-43 7e-43
0000a0 f4 01 00 00 f4 01 00 00 96 56 b3 09 6c cd 17 0a
       7e-43 7e-43 4.3174108e-33 7.309021e-33
0000b0 6e ab 97 09 9d aa 8a 0a 86 56 05 0a 86 b4 75 08
       3.651314e-33 1.3353094e-32 6.41999e-33 7.393921e-34
0000c0 9c a0 2a 0b 62 d8 2b 09 83 75 91 09 e0 54 11 09
       3.2861638e-32 2.0685119e-33 3.5017988e-33 1.7493648e-33
0000d0 37 de 04 0a e3 88 7f 09 e6 6f eb 07 b9 7f a3 0a
       6.397363e-33 3.0758872e-33 3.5424638e-34 1.5744373e-32
0000e0 00 00 00 00 00 00 00 00 00 00 00 00 00 00 00 00
       0.0 0.0 0.0 0.0
0000f0 00 00 00 00 00 00 00 00 00 00 00 00 f4 01 00 00
       0.0 0.0 0.0 7e-43
000100 f4 01 00 00 f4 01 00 00 f4 01 00 00 f4 01 00 00
       7e-43 7e-43 7e-43 7e-43
000110 f4 01 00 00 00 00 00 00 00 00 00 00 00 00 00 00
       7e-43 0.0 0.0 0.0
000120 00 00 00 00 00 00 00 00 00 00 00 00 00 00 00 00
       0.0 0.0 0.0 0.0
000130 00 00 00 00 ac 9f 62 07 65 d4 bf 07 00 a9 3f 07
       0.0 1.7049274e-34 2.886332e-34 1.4418908e-34
000140 b0 3c 2f 08 03 7f a8 07 a6 3e 1b 06 81 9e d7 08
       5.2733485e-34 2.5352481e-34 2.9198287e-35 1.2977106e-33
000150 25 e1 15 0a e1 bb 7d 0a 50 83 fd 09 63 c8 e7 0a
       7.216434e-33 1.2216843e-32 6.103102e-33 2.2319868e-32
000160 62 df 5e 0a 59 58 cd 08 cf 99 8e 0b f4 01 00 00
       1.0730925e-32 1.2358759e-33 5.4927836e-32 7e-43
000170 f4 01 00 00 f4 01 00 00 f4 01 00 00 f4 01 00 00
       7e-43 7e-43 7e-43 7e-43
000180 f4 01 00 00 f4 01 00 00 f4 01 00 00 f4 01 00 00
       7e-43 7e-43 7e-43 7e-43
000190 f4 01 00 00 f4 01 00 00 f4 01 00 00 f4 01 00 00
       7e-43 7e-43 7e-43 7e-43
0001a0 f4 01 00 00 f4 01 00 00 f4 01 00 00 f4 01 00 00
       7e-43 7e-43 7e-43 7e-43
0001b0 f4 01 00 00 f4 01 00 00 f4 01 00 00 00 00 00 00
       7e-43 7e-43 7e-43 0.0
0001c0 5a 53 2a 0a 48 2c 90 0a 24 0c 10 0a 77 b3 03 0b
       8.200879e-33 1.3883352e-32 6.935631e-33 2.5364697e-32
0001d0 51 46 7d 0a 3b 5b e9 08 b3 0d a2 0b 00 00 00 00
       1.2194732e-32 1.4044626e-33 6.242074e-32 0.0
0001e0 00 00 00 00 00 00 00 00 00 00 00 00 00 00 00 00
       0.0 0.0 0.0 0.0
0001f0 00 00 00 00 00 00 00 00 f4 01 00 00 f4 01 00 00
       0.0 0.0 7e-43 7e-43
000200 f4 01 00 00 f4 01 00 00 f4 01 00 00 f4 01 00 00
       7e-43 7e-43 7e-43 7e-43
000210 00 00 00 00 f4 01 00 00 f4 01 00 00 f4 01 00 00
       0.0 7e-43 7e-43 7e-43
000220 f4 01 00 00 f4 01 00 00 f4 01 00 00 f4 01 00 00
       7e-43 7e-43 7e-43 7e-43
000230 a3 97 6b 08 6e 6b c7 08 c7 3e 47 08 19 2b 36 09
       7.089599e-34 1.2002133e-33 5.995818e-34 2.1927718e-33
000240 f2 29 af 08 78 63 21 07 84 26 e0 09 f0 b0 b4 07
       1.0542291e-33 1.2141525e-34 5.396226e-33 2.7187384e-34
000250 68 f2 18 08 3f d0 98 07 c7 b6 8b 08 0b 58 06 08
       4.6025783e-34 2.2992814e-34 8.408729e-34 4.042765e-34
000260 bb 8e 77 06 26 ea 2b 09 aa fb 98 08 7e 7e 01 09
       4.6560399e-35 2.0693472e-33 9.207333e-34 1.5587287e-33
000270 a4 61 81 08 8a 94 6c 09 d4 7c e3 08 fa 98 51 07
       7.78686e-34 2.847731e-33 1.36914125e-33 1.5768368e-34
000280 90 8d 11 0a ed 22 2c 08 48 b5 91 08 82 94 11 08
       7.008121e-33 5.1800422e-34 8.769489e-34 4.380892e-34
000290 da 1a 05 09 0c f8 7f 08 f3 d6 eb 06 fb c6 a3 09
       1.6021918e-33 7.702785e-34 8.8713015e-35 3.9427943e-33
0002a0 f4 01 00 00 f4 01 00 00 f4 01 00 00 f4 01 00 00
       7e-43 7e-43 7e-43 7e-43
0002b0 f4 01 00 00 f4 01 00 00 00 00 00 00 c9 c2 81 09
       7e-43 7e-43 0.0 3.1238795e-33
0002c0 23 ad db 09 5e 7b 5b 09 4b ac 48 0a 99 f4 c0 09
       5.288515e-33 2.6419173e-33 9.6620544e-33 4.6452337e-33
0002d0 bc c7 31 08 ff ea f6 0a bc a3 d2 08 df 4c 32 09
       5.3498787e-34 2.3777334e-32 1.2677409e-33 2.1462115e-33
0002e0 b2 24 b2 08 16 e1 a2 09 77 9c 1c 09 e2 4b 90 07
       1.0721612e-33 3.921175e-33 1.8851386e-33 2.1711312e-34
0002f0 f8 68 48 0a 1c ee 4e 09 8b 28 af 09 5e 01 2f 09
       9.649392e-33 2.4908307e-33 4.2167844e-33 2.1065502e-33
000300 28 01 20 0a 8b da 99 09 31 c1 0d 08 6d e1 c4 0a
       7.703937e-33 3.7038927e-33 4.265774e-34 1.8958909e-32
000310 a4 17 0d 08 e1 db 6e 08 f3 a5 ee 07 c5 31 da 08
       4.2458434e-34 7.1878986e-34 3.5907796e-34 1.31320985e-33
000320 3e ce 51 08 50 4e c1 06 81 3d 86 09 f4 01 00 00
       6.3136086e-34 7.27136e-35 3.2317165e-33 7e-43
000330 f4 01 00 00 f4 01 00 00 f4 01 00 00 f4 01 00 00
       7e-43 7e-43 7e-43 7e-43
000340 f4 01 00 00 f4 01 00 00 7a 5b 96 07 04 8b fe 07
       7e-43 7e-43 2.2623257e-34 3.8299378e-34
000350 e8 51 7e 07 85 84 68 08 0c 95 df 07 d6 ff 4d 06
       1.9132906e-34 6.9970736e-34 3.3640913e-34 3.8744173e-35
000360 08 0e 0f 09 f4 01 00 00 f4 01 00 00 f4 01 00 00
       1.7219596e-33 7e-43 7e-43 7e-43
000370 f4 01 00 00 f4 01 00 00 f4 01 00 00 00 00 00 00
       7e-43 7e-43 7e-43 0.0
000380 ad fe c0 08 02 5d 23 09 4d 38 a3 08 c4 3a 95 09
       1.1615454e-33 1.9664143e-33 9.823442e-34 3.5925708e-33
000390 06 7e 0f 09 5d 35 84 07 74 9f 37 0a f4 01 00 00
       1.7272255e-33 1.9892517e-34 8.841119e-33 7e-43
0003a0 f4 01 00 00 f4 01 00 00 f4 01 00 00 f4 01 00 00
       7e-43 7e-43 7e-43 7e-43
0003b0 f4 01 00 00 f4 01 00 00 00 00 00 00 00 00 00 00
       7e-43 7e-43 0.0 0.0
0003c0 00 00 00 00 00 00 00 00 00 00 00 00 00 00 00 00
       0.0 0.0 0.0 0.0
0003d0 00 00 00 00 fd ab 0c 08 42 26 6e 08 60 f0 ed 07
       0.0 4.233189e-34 7.166549e-34 3.5801076e-34
0003e0 40 8e d9 08 27 2e 51 08 1a bb c0 06 08 d7 85 09
       1.3093655e-33 6.29479e-34 7.2497294e-35 3.22208e-33
0003f0 05 c9 b2 08 df 55 17 09 98 33 97 08 0c 3f 8a 09
       1.0760245e-33 1.821634e-33 9.100112e-34 3.328158e-33

exp_avg f4 [50]
000000 00 00 00 00 04 00 00 00 04 00 00 00 04 00 00 00
       0.0 6e-45 6e-45 6e-45
000010 04 00 00 80 04 00 00 00 04 00 00 00 04 00 00 00
       -6e-45 6e-45 6e-45 6e-45
000020 00 00 00 00 04 00 00 00 00 00 00 00 04 00 00 00
       0.0 6e-45 0.0 6e-45
000030 04 00 00 80 04 00 00 00 04 00 00 00 04 00 00 00
       -6e-45 6e-45 6e-45 6e-45
000040 04 00 00 80 00 00 00 00 04 00 00 00 04 00 00 00
       -6e-45 0.0 6e-45 6e-45
000050 04 00 00 00 04 00 00 80 04 00 00 00 04 00 00 00
       6e-45 -6e-45 6e-45 6e-45
000060 04 00 00 80 04 00 00 80 04 00 00 00 04 00 00 00
       -6e-45 -6e-45 6e-45 6e-45
000070 04 00 00 00 04 00 00 00 04 00 00 00 04 00 00 00
       6e-45 6e-45 6e-45 6e-45
000080 04 00 00 00 04 00 00 80 00 00 00 00 04 00 00 00
       6e-45 -6e-45 0.0 6e-45
000090 04 00 00 00 04 00 00 00 04 00 00 00 04 00 00 80
       6e-45 6e-45 6e-45 -6e-45
0000a0 00 00 00 00 00 00 00 00 04 00 00 80 04 00 00 00
       0.0 0.0 -6e-45 6e-45
0000b0 04 00 00 80 04 00 00 00 04 00 00 00 04 00 00 00
       -6e-45 6e-45 6e-45 6e-45
0000c0 04 00 00 00 04 00 00 00
       6e-45 6e-45

exp_avg_sq f4 [50]
000000 00 00 00 00 f4 01 00 00 5a 82 e2 09 f4 01 00 00
       0.0 7e-43 5.4530103e-33 7e-43
000010 bc 2d 3b 09 f4 01 00 00 9c a0 2a 0b b9 7f a3 0a
       2.253081e-33 7e-43 3.2861638e-32 1.5744373e-32
000020 00 00 00 00 f4 01 00 00 00 00 00 00 81 9e d7 08
       0.0 7e-43 0.0 1.2977106e-33
000030 cf 99 8e 0b f4 01 00 00 f4 01 00 00 f4 01 00 00
       5.4927836e-32 7e-43 7e-43 7e-43
000040 b3 0d a2 0b 00 00 00 00 f4 01 00 00 f4 01 00 00
       6.242074e-32 0.0 7e-43 7e-43
000050 84 26 e0 09 26 ea 2b 09 90 8d 11 0a fb c6 a3 09
       5.396226e-33 2.0693472e-33 7.008121e-33 3.9427943e-33
000060 f4 01 00 00 ff ea f6 0a f8 68 48 0a 6d e1 c4 0a
       7e-43 2.3777334e-32 9.649392e-33 1.8958909e-32
000070 81 3d 86 09 f4 01 00 00 08 0e 0f 09 f4 01 00 00
       3.2317165e-33 7e-43 1.7219596e-33 7e-43
000080 74 9f 37 0a f4 01 00 00 00 00 00 00 08 d7 85 09
       8.841119e-33 7e-43 0.0 3.22208e-33
000090 60 1a 2a 0a f4 01 00 00 f4 01 00 00 b1 97 b7 0b
       8.190163e-33 7e-43 7e-43 7.0717276e-32
0000a0 00 00 00 00 00 00 00 00 3c 28 e2 09 f4 01 00 00
       0.0 0.0 5.4445357e-33 7e-43
0000b0 0e a9 ad 0c f4 01 00 00 f4 01 00 00 f4 01 00 00
       2.6756617e-31 7e-43 7e-43 7e-43
0000c0 f4 01 00 00 f4 01 00 00
       7e-43 7e-43

exp_avg f4 [20, 50]
000000 00 00 00 00 04 00 00 80 04 00 00 80 04 00 00 00
       0.0 -6e-45 -6e-45 6e-45
000010 04 00 00 80 04 00 00 00 04 00 00 80 04 00 00 80
       -6e-45 6e-45 -6e-45 -6e-45
000020 00 00 00 00 04 00 00 00 00 00 00 00 04 00 00 80
       0.0 6e-45 0.0 -6e-45
000030 04 00 00 80 04 00 00 00 04 00 00 00 04 00 00 00
       -6e-45 6e-45 6e-45 6e-45
000040 04 00 00 80 00 00 00 00 04 00 00 80 04 00 00 00
       -6e-45 0.0 -6e-45 6e-45
000050 04 00 00 80 04 00 00 80 04 00 00 80 04 00 00 80
       -6e-45 -6e-45 -6e-45 -6e-45
000060 04 00 00 80 04 00 00 80 04 00 00 80 04 00 00 80
       -6e-45 -6e-45 -6e-45 -6e-45
000070 04 00 00 80 04 00 00 00 04 00 00 80 04 00 00 00
       -6e-45 6e-45 -6e-45 6e-45
000080 04 00 00 80 04 00 00 80 00 00 00 00 04 00 00 80
       -6e-45 -6e-45 0.0 -6e-45
000090 04 00 00 80 04 00 00 80 04 00 00 00 04 00 00 80
       -6e-45 -6e-45 6e-45 -6e-45
0000a0 00 00 00 00 00 00 00 00 04 00 00 80 04 00 00 00
       0.0 0.0 -6e-45 6e-45
0000b0 04 00 00 80 04 00 00 00 04 00 00 00 04 00 00 80
       -6e-45 6e-45 6e-45 -6e-45
0000c0 04 00 00 00 04 00 00 00 00 00 00 00 04 00 00 80
       6e-45 6e-45 0.0 -6e-45
0000d0 04 00 00 80 04 00 00 00 04 00 00 80 04 00 00 00
       -6e-45 6e-45 -6e-45 6e-45
0000e0 04 00 00 80 04 00 00 80 00 00 00 00 04 00 00 00
       -6e-45 -6e-45 0.0 6e-45
0000f0 00 00 00 00 04 00 00 80 04 00 00 80 04 00 00 00
       0.0 -6e-45 -6e-45 6e-45
000100 04 00 00 00 04 00 00 00 04 00 00 80 00 00 00 00
       6e-45 6e-45 -6e-45 0.0
000110 04 00 00 80 04 00 00 00 04 00 00 80 04 00 00 80
       -6e-45 6e-45 -6e-45 -6e-45
000120 04 00 00 80 04 00 00 80 04 00 00 80 04 00 00 80
       -6e-45 -6e-45 -6e-45 -6e-45
000130 04 00 00 80 04 00 00 80 04 00 00 80 04 00 00 00
       -6e-45 -6e-45 -6e-45 6e-45
000140 04 00 00 80 04 00 00 00 04 00 00 80 04 00 00 80
       -6e-45 6e-45 -6e-45 -6e-45
000150 00 00 00 00 04 00 00 80 04 00 00 80 04 00 00 80
       0.0 -6e-45 -6e-45 -6e-45
000160 04 00 00 00 04 00 00 80 00 00 00 00 00 00 00 00
       6e-45 -6e-45 0.0 0.0
000170 04 00 00 80 04 00 00 00 04 00 00 80 04 00 00 00
       -6e-45 6e-45 -6e-45 6e-45
000180 04 00 00 00 04 00 00 80 04 00 00 00 04 00 00 00
       6e-45 -6e-45 6e-45 6e-45
000190 00 00 00 00 04 00 00 00 04 00 00 00 04 00 00 00
       0.0 6e-45 6e-45 6e-45
0001a0 04 00 00 00 04 00 00 00 04 00 00 00 04 00 00 00
       6e-45 6e-45 6e-45 6e-45
0001b0 00 00 00 00 04 00 00 00 00 00 00 00 04 00 00 00
       0.0 6e-45 0.0 6e-45
0001c0 04 00 00 00 04 00 00 00 04 00 00 00 04 00 00 80
       6e-45 6e-45 6e-45 -6e-45
0001d0 04 00 00 00 00 00 00 00 04 00 00 80 04 00 00 00
       6e-45 0.0 -6e-45 6e-45
0001e0 04 00 00 00 04 00 00 00 04 00 00 00 04 00 00 00
       6e-45 6e-45 6e-45 6e-45
0001f0 04 00 00 80 04 00 00 00 04 00 00 00 04 00 00 00
       -6e-45 6e-45 6e-45 6e-45
000200 04 00 00 00 04 00 00 00 04 00 00 00 04 00 00 80
       6e-45 6e-45 6e-45 -6e-45
000210 04 00 00 00 04 00 00 00 00 00 00 00 04 00 00 00
       6e-45 6e-45 0.0 6e-45
000220 04 00 00 00 04 00 00 00 04 00 00 80 04 00 00 00
       6e-45 6e-45 -6e-45 6e-45
000230 00 00 00 00 00 00 00 00 04 00 00 00 04 00 00 00
       0.0 0.0 6e-45 6e-45
000240 04 00 00 00 04 00 00 00 04 00 00 00 04 00 00 00
       6e-45 6e-45 6e-45 6e-45
000250 04 00 00 80 04 00 00 00 00 00 00 00 04 00 00 80
       -6e-45 6e-45 0.0 -6e-45
000260 04 00 00 80 04 00 00 00 04 00 00 80 04 00 00 00
       -6e-45 6e-45 -6e-45 6e-45
000270 04 00 00 80 04 00 00 80 00 00 00 00 04 00 00 00
       -6e-45 -6e-45 0.0 6e-45
000280 00 00 00 00 04 00 00 80 04 00 00 80 04 00 00 00
       0.0 -6e-45 -6e-45 6e-45
000290 04 00 00 00 04 00 00 80 04 00 00 80 00 00 00 00
       6e-45 -6e-45 -6e-45 0.0
0002a0 04 00 00 80 04 00 00 00 04 00 00 80 04 00 00 80
       -6e-45 6e-45 -6e-45 -6e-45
0002b0 04 00 00 80 04 00 00 80 04 00 00 80 04 00 00 80
       -6e-45 -6e-45 -6e-45 -6e-45
0002c0 04 00 00 80 04 00 00 80 04 00 00 80 04 00 00 00
       -6e-45 -6e-45 -6e-45 6e-45
0002d0 04 00 00 80 04 00 00 80 04 00 00 80 04 00 00 80
       -6e-45 -6e-45 -6e-45 -6e-45
0002e0 00 00 00 00 04 00 00 80 04 00 00 80 04 00 00 80
       0.0 -6e-45 -6e-45 -6e-45
0002f0 04 00 00 80 04 00 00 80 00 00 00 00 00 00 00 00
       -6e-45 -6e-45 0.0 0.0
000300 04 00 00 80 04 00 00 00 04 00 00 80 04 00 00 00
       -6e-45 6e-45 -6e-45 6e-45
000310 04 00 00 00 04 00 00 80 04 00 00 00 04 00 00 00
       6e-45 -6e-45 6e-45 6e-45
000320 00 00 00 00 04 00 00 80 04 00 00 80 04 00 00 00
       0.0 -6e-45 -6e-45 6e-45
000330 04 00 00 80 04 00 00 00 04 00 00 80 04 00 00 80
       -6e-45 6e-45 -6e-45 -6e-45
000340 00 00 00 00 04 00 00 00 00 00 00 00 04 00 00 80
       0.0 6e-45 0.0 -6e-45
000350 04 00 00 80 04 00 00 00 04 00 00 00 04 00 00 00
       -6e-45 6e-45 6e-45 6e-45
000360 04 00 00 80 00 00 00 00 04 00 00 80 04 00 00 00
       -6e-45 0.0 -6e-45 6e-45
000370 04 00 00 80 04 00 00 80 04 00 00 80 04 00 00 80
       -6e-45 -6e-45 -6e-45 -6e-45
000380 04 00 00 80 04 00 00 80 04 00 00 80 04 00 00 80
       -6e-45 -6e-45 -6e-45 -6e-45
000390 04 00 00 80 04 00 00 00 04 00 00 80 04 00 00 80
       -6e-45 6e-45 -6e-45 -6e-45
0003a0 04 00 00 80 04 00 00 80 00 00 00 00 04 00 00 80
       -6e-45 -6e-45 0.0 -6e-45
0003b0 04 00 00 80 04 00 00 80 04 00 00 00 04 00 00 80
       -6e-45 -6e-45 6e-45 -6e-45
0003c0 00 00 00 00 00 00 00 00 04 00 00 80 04 00 00 00
       0.0 0.0 -6e-45 6e-45
0003d0 04 00 00 80 04 00 00 00 04 00 00 00 04 00 00 80
       -6e-45 6e-45 6e-45 -6e-45
0003e0 04 00 00 00 04 00 00 00 00 00 00 00 04 00 00 80
       6e-45 6e-45 0.0 -6e-45
0003f0 04 00 00 80 04 00 00 00 04 00 00 80 04 00 00 00
       -6e-45 6e-45 -6e-45 6e-45

exp_avg_sq f4 [20, 50]
000000 00 00 00 00 f4 01 00 00 df 7b 5c 08 f4 01 00 00
       0.0 7e-43 6.634945e-34 7e-43
000010 3a 4e 68 09 f4 01 00 00 eb a8 a0 08 b5 29 33 09
       2.7962766e-33 7e-43 9.669362e-34 2.1565952e-33
000020 00 00 00 00 f4 01 00 00 00 00 00 00 07 4e 6d 09
       0.0 7e-43 0.0 2.8564526e-33
000030 07 7a c4 08 f4 01 00 00 f4 01 00 00 f4 01 00 00
       1.1825009e-33 7e-43 7e-43 7e-43
000040 de b6 02 09 00 00 00 00 f4 01 00 00 f4 01 00 00
       1.5734165e-33 0.0 7e-43 7e-43
000050 74 50 8a 08 b1 88 1a 05 6f 86 96 07 98 de c2 08
       8.324487e-34 7.2661514e-36 2.2648505e-34 1.1728282e-33
000060 f4 01 00 00 e7 68 c3 08 66 d7 4c 08 91 c1 8e 08
       7e-43 1.1760798e-33 6.1642217e-34 8.591821e-34
000070 68 47 de 08 f4 01 00 00 fe ae 78 09 f4 01 00 00
       1.33779265e-33 7e-43 2.9934195e-33 7e-43
000080 a3 69 45 09 f4 01 00 00 00 00 00 00 0c 19 82 08
       2.3762683e-33 7e-43 0.0 7.829979e-34
000090 c9 4a 74 08 f4 01 00 00 f4 01 00 00 25 3f bd 08
       7.351399e-34 7e-43 7e-43 1.1389869e-33
0000a0 00 00 00 00 00 00 00 00 33 07 35 08 f4 01 00 00
       0.0 0.0 5.447617e-34 7e-43
0000b0 84 64 a8 08 f4 01 00 00 f4 01 00 00 f4 01 00 00
       1.0134763e-33 7e-43 7e-43 7e-43
0000c0 f4 01 00 00 f4 01 00 00 00 00 00 00 f4 01 00 00
       7e-43 7e-43 0.0 7e-43
0000d0 8c 30 cb 06 f4 01 00 00 2e 16 d6 07 f4 01 00 00
       7.6431446e-35 7e-43 3.2212177e-34 7e-43
0000e0 a9 0e 14 07 e4 1b a5 07 00 00 00 00 f4 01 00 00
       1.1138591e-34 2.4842833e-34 0.0 7e-43
0000f0 00 00 00 00 24 b1 da 07 9f 11 35 07 f4 01 00 00
       0.0 3.2905108e-34 1.3622105e-34 7e-43
000100 f4 01 00 00 f4 01 00 00 dd ec 70 07 00 00 00 00
       7e-43 7e-43 1.8125201e-34 0.0
000110 f4 01 00 00 f4 01 00 00 ff ee fe 06 9b 6a 8e 03
       7e-43 7e-43 9.5895354e-35 8.370485e-37
000120 d0 b8 0a 06 72 95 33 07 f4 01 00 00 9f 15 34 07
       2.6090694e-35 1.3510381e-34 7e-43 1.3548049e-34
000130 ca c6 bc 06 cd 8e 03 07 74 d8 4c 07 f4 01 00 00
       7.1009834e-35 9.89731e-35 1.5410864e-34 7e-43
000140 d9 2d e5 07 f4 01 00 00 f2 ed b5 07 f4 01 00 00
       3.4483037e-34 7e-43 2.7373705e-34 7e-43
000150 00 00 00 00 bc c9 ef 06 fe 21 e1 06 f4 01 00 00
       0.0 9.019823e-35 8.468554e-35 7e-43
000160 f4 01 00 00 82 67 2e 07 00 00 00 00 00 00 00 00
       7e-43 1.3120723e-34 0.0 0.0
000170 d7 d4 a6 06 f4 01 00 00 8b 2f 1b 07 f4 01 00 00
       6.2755e-35 7e-43 1.1674876e-34 7e-43
000180 f4 01 00 00 f4 01 00 00 f4 01 00 00 f4 01 00 00
       7e-43 7e-43 7e-43 7e-43
000190 00 00 00 00 f4 01 00 00 52 66 aa 07 f4 01 00 00
       0.0 7e-43 2.5638896e-34 7e-43
0001a0 cd 89 b3 08 f4 01 00 00 73 51 f8 07 d8 75 8a 08
       1.0805567e-33 7e-43 3.7362764e-34 8.333278e-34
0001b0 00 00 00 00 f4 01 00 00 00 00 00 00 3c 67 b7 08
       0.0 7e-43 0.0 1.1038182e-33
0001c0 82 db 17 08 f4 01 00 00 f4 01 00 00 f4 01 00 00
       4.569794e-34 7e-43 7e-43 7e-43
0001d0 50 0e 4a 08 00 00 00 00 f4 01 00 00 f4 01 00 00
       6.080399e-34 0.0 7e-43 7e-43
0001e0 7f cb d5 07 b3 ea 6e 04 53 b6 e8 06 90 9a 16 08
       3.2168282e-34 2.8084534e-36 8.75366e-35 4.532067e-34
0001f0 f4 01 00 00 30 07 17 08 30 52 9e 07 63 a5 dc 07
       7e-43 4.544836e-34 2.3821503e-34 3.3199126e-34
000200 95 ca 2b 08 f4 01 00 00 55 32 c0 08 f4 01 00 00
       5.1696575e-34 7e-43 1.1567413e-33 7e-43
000210 75 91 98 08 f4 01 00 00 00 00 00 00 b1 17 c9 07
       9.182364e-34 7e-43 0.0 3.0257043e-34
000220 33 ce bc 07 f4 01 00 00 f4 01 00 00 96 42 12 08
       2.840829e-34 7e-43 7e-43 4.401355e-34
000230 00 00 00 00 00 00 00 00 6a ea 8b 07 f4 01 00 00
       0.0 0.0 2.1052172e-34 7e-43
000240 df 25 02 08 f4 01 00 00 f4 01 00 00 f4 01 00 00
       3.916497e-34 7e-43 7e-43 7e-43
000250 f4 01 00 00 f4 01 00 00 00 00 00 00 f4 01 00 00
       7e-43 7e-43 0.0 7e-43
000260 20 8b dd 08 f4 01 00 00 4c 6c e9 09 f4 01 00 00
       1.3333662e-33 7e-43 5.619455e-33 7e-43
000270 8c 6e 21 09 48 06 b4 09 00 00 00 00 f4 01 00 00
       1.9431649e-33 4.333933e-33 0.0 7e-43
000280 00 00 00 00 fc 71 ee 09 f9 6b 45 09 f4 01 00 00
       0.0 5.7403606e-33 2.3763781e-33 7e-43
000290 f4 01 00 00 f4 01 00 00 ad 57 83 09 00 00 00 00
       7e-43 7e-43 3.1619553e-33 0.0
0002a0 f4 01 00 00 f4 01 00 00 be fa 0a 09 3b 46 9b 05
       7e-43 7e-43 1.6729044e-33 1.4601929e-35
0002b0 7d 3f 17 08 fa cd 43 09 f4 01 00 00 eb 58 44 09
       4.551454e-34 2.356912e-33 7e-43 2.363445e-33
0002c0 58 d3 cd 08 41 71 0f 09 f9 58 5f 09 f4 01 00 00
       1.2387675e-33 1.726625e-33 2.6884483e-33 7e-43
0002d0 1b e1 f9 09 f4 01 00 00 96 5c c6 09 f4 01 00 00
       6.0156258e-33 7e-43 4.7753834e-33 7e-43
0002e0 00 00 00 00 0f b9 02 09 79 77 f5 08 f4 01 00 00
       0.0 1.5735195e-33 1.4773489e-33 7e-43
0002f0 f4 01 00 00 55 28 3e 09 00 00 00 00 00 00 00 00
       7e-43 2.2889382e-33 0.0 0.0
000300 0a e6 b5 08 f4 01 00 00 96 33 29 09 f4 01 00 00
       1.0947623e-33 7e-43 2.036689e-33 7e-43
000310 f4 01 00 00 f4 01 00 00 f4 01 00 00 f4 01 00 00
       7e-43 7e-43 7e-43 7e-43
000320 00 00 00 00 f4 01 00 00 82 1c 22 06 f4 01 00 00
       0.0 7e-43 3.0489758e-35 7e-43
000330 1c ce 2a 07 f4 01 00 00 e7 3e 6c 06 21 ba 03 07
       1.2849949e-34 7e-43 4.443288e-35 9.910043e-35
000340 00 00 00 00 f4 01 00 00 00 00 00 00 ef 7a 2e 07
       0.0 7e-43 0.0 1.3126432e-34
000350 2a 77 90 06 f4 01 00 00 f4 01 00 00 f4 01 00 00
       5.4341876e-35 7e-43 7e-43 7e-43
000360 bd 38 c0 06 00 00 00 00 f4 01 00 00 f4 01 00 00
       7.230574e-35 0.0 7e-43 7e-43
000370 9d 64 4b 06 24 44 e3 02 35 5e 5d 05 df 46 8f 06
       3.8253975e-35 3.3393763e-37 1.0408673e-35 5.389476e-35
000380 f4 01 00 00 a8 ad 8f 06 6d 9d 16 06 10 eb 51 06
       7e-43 5.4045786e-35 2.8327523e-35 3.9481228e-35
000390 ce 6e a3 06 f4 01 00 00 92 d8 36 07 f4 01 00 00
       6.14766e-35 7e-43 1.3755802e-34 7e-43
0003a0 e1 25 11 07 f4 01 00 00 00 00 00 00 7d 4f 3f 06
       1.0919719e-34 7e-43 0.0 3.5981506e-35
0003b0 51 9e 33 06 f4 01 00 00 f4 01 00 00 23 25 8b 06
       3.378247e-35 7e-43 7e-43 5.2340556e-35
0003c0 00 00 00 00 00 00 00 00 23 1b 05 06 f4 01 00 00
       0.0 0.0 2.5034457e-35 7e-43
0003d0 d1 a0 77 06 f4 01 00 00 f4 01 00 00 f4 01 00 00
       4.6573686e-35 7e-43 7e-43 7e-43
0003e0 f4 01 00 00 f4 01 00 00 00 00 00 00 f4 01 00 00
       7e-43 7e-43 0.0 7e-43
0003f0 24 be 68 07 f4 01 00 00 ea 38 75 08 f4 01 00 00
       1.7509617e-34 7e-43 7.379391e-34 7e-43

exp_avg f4 [20]
000000 04 00 00 80 04 00 00 80 04 00 00 00 04 00 00 80
       -6e-45 -6e-45 6e-45 -6e-45
000010 04 00 00 80 04 00 00 80 04 00 00 80 04 00 00 80
       -6e-45 -6e-45 -6e-45 -6e-45
000020 04 00 00 00 04 00 00 00 04 00 00 80 04 00 00 80
       6e-45 6e-45 -6e-45 -6e-45
000030 04 00 00 00 04 00 00 00 04 00 00 80 04 00 00 00
       6e-45 6e-45 -6e-45 6e-45
000040 04 00 00 80 04 00 00 80 04 00 00 80 04 00 00 80
       -6e-45 -6e-45 -6e-45 -6e-45

exp_avg_sq f4 [20]
000000 d9 65 8b 08 28 77 00 07 77 7a d7 07 60 11 0c 09
       8.3897025e-34 9.664667e-35 3.2421583e-34 1.6860057e-33
000010 ac fd 4c 06 be 25 93 07 6a 96 2f 07 f7 d9 53 04
       3.8554504e-35 2.2140285e-34 1.320974e-34 2.4903015e-36
000020 0e 0f 33 05 e2 aa 01 00 02 c7 1d 08 3a e5 c2 04
       8.419305e-36 1.53137e-40 4.74794e-34 4.5819692e-36
000030 e6 b5 66 08 86 0c 00 00 5a 04 08 04 f4 01 00 00
       6.942693e-34 4.493e-42 1.5988721e-36 7e-43
000040 15 b7 ec 07 c3 dc 2d 09 f0 03 a5 08 2d 4c 9e 07
       3.561694e-34 2.092792e-33 9.931502e-34 2.381797e-34

exp_avg f4 [2, 20]
000000 04 00 00 00 04 00 00 00 04 00 00 00 04 00 00 00
       6e-45 6e-45 6e-45 6e-45
000010 04 00 00 00 04 00 00 00 04 00 00 00 04 00 00 00
       6e-45 6e-45 6e-45 6e-45
000020 04 00 00 00 04 00 00 00 04 00 00 00 04 00 00 00
       6e-45 6e-45 6e-45 6e-45
000030 04 00 00 00 04 00 00 00 04 00 00 00 04 00 00 00
       6e-45 6e-45 6e-45 6e-45
000040 04 00 00 00 04 00 00 00 04 00 00 00 04 00 00 00
       6e-45 6e-45 6e-45 6e-45
000050 04 00 00 80 04 00 00 80 04 00 00 80 04 00 00 80
       -6e-45 -6e-45 -6e-45 -6e-45
000060 04 00 00 80 04 00 00 80 04 00 00 80 04 00 00 80
       -6e-45 -6e-45 -6e-45 -6e-45
000070 04 00 00 80 04 00 00 80 04 00 00 80 04 00 00 80
       -6e-45 -6e-45 -6e-45 -6e-45
000080 04 00 00 80 04 00 00 80 04 00 00 80 04 00 00 80
       -6e-45 -6e-45 -6e-45 -6e-45
000090 04 00 00 80 04 00 00 80 04 00 00 80 04 00 00 80
       -6e-45 -6e-45 -6e-45 -6e-45

exp_avg_sq f4 [2, 20]
000000 f4 01 00 00 f4 01 00 00 f4 01 00 00 f4 01 00 00
       7e-43 7e-43 7e-43 7e-43
000010 f4 01 00 00 f4 01 00 00 f4 01 00 00 f4 01 00 00
       7e-43 7e-43 7e-43 7e-43
000020 f4 01 00 00 f4 01 00 00 f4 01 00 00 f4 01 00 00
       7e-43 7e-43 7e-43 7e-43
000030 f4 01 00 00 f4 01 00 00 f4 01 00 00 f4 01 00 00
       7e-43 7e-43 7e-43 7e-43
000040 f4 01 00 00 f4 01 00 00 f4 01 00 00 f4 01 00 00
       7e-43 7e-43 7e-43 7e-43
000050 1f c5 af 0b 59 e5 d2 0b 89 0a 8f 0b 66 f2 91 0b
       6.770414e-32 8.123414e-32 5.509745e-32 5.621669e-32
000060 a7 e2 25 0a 4a eb c9 0b 68 a4 cc 0b cd d7 dd 0b
       7.9870896e-33 7.777641e-32 7.882531e-32 8.5450804e-32
000070 71 61 cf 0b 55 b7 e0 0b da a8 bf 0b 7e 44 dd 0b
       7.9880113e-32 8.655751e-32 7.3824583e-32 8.522916e-32
000080 d5 55 8f 0b cf bc e0 0b 78 ed de 0b ba bd e0 0b
       5.521074e-32 8.656575e-32 8.586859e-32 8.656713e-32
000090 46 5b c1 0b 0a 75 92 0b 2f 54 a8 0b 5c 22 cb 0b
       7.447823e-32 5.6413255e-32 6.483791e-32 7.8244454e-32

exp_avg f4 [2]
000000 04 00 00 00 04 00 00 80
       6e-45 -6e-45

exp_avg_sq f4 [2]
000000 f4 01 00 00 d4 bd e0 0b
       7e-43 8.6567283e-32
