Multi-UAVs path planning/path planning/Path_DDPG_actor_1.pth (torch, 22511 bytes, 18 tensors)

in_to_y1.weight f4 [50, 7]
00000000: a785 c2be 2f45 023e 65c7 e3be 857e ebbf
00000010: 6e0a 29bd e3f8 cebe 89e2 28bf 35be 94be
00000020: 1e89 1a3e f15d 7e3f 6203 a4bc d878 363e
00000030: 69df bd3f 0d78 93bf 69d9 a83e fd4a cc3e
00000040: 4227 11bf f328 0dbe f828 35bf 8ca5 79bf
00000050: e8f3 903f 8c1a 143e 9d70 4bbf 9ec7 d83e
00000060: 8276 b63e 7011 ae3e 8795 7ebf 42d2 b13e
00000070: 57a6 713f 4d1f 1d3f b62d 813f 9e64 5ebd
00000080: 8926 34bf c120 153f c031 363f 35a2 d0be
00000090: 3964 513f 2a8c 48bf 91a9 113f b738 efbd
000000a0: 1d20 90be 24ab 84bf e52b 5fbf 060e 0040
000000b0: eedb 3b3f 001f 193f 4dd1 323f d079 1240
000000c0: a874 263f f2b6 04bf ebc6 6cbf d476 5abe
000000d0: 805c 4e3f 5620 513f 603a 91bf b131 133e
000000e0: 1271 11bf 7d37 46bf e4f4 d93d d13e cf3e
000000f0: d3d4 463f a4ea 88bf c6fb d0be fc03 d63f
00000100: f94a 893f 4d5f 863e 3e0a 49bf f969 d8be
00000110: ded8 9abd 6da8 8b3f 1278 1cbe 31cd bbbe
00000120: ddcd 71bc 1303 74bd 7556 80bd ccf5 863c
00000130: 1edb b2bb 61aa 80be 1c4d e63f 6cf3 31bf
00000140: 9bea fb3e ca38 82bf 6457 bbbd 9edb 30be
00000150: b2ba a4bf 9161 c53f a8de 9a3e 53e3 433d
00000160: fcc0 c03e 3778 0840 35b3 1bbd 3507 83bf
00000170: 2c81 ebbf 9e0b 2b3e 44ec 55be 1a25 043e
00000180: 8665 8d3e 3fa9 383d 55e2 dfbd 1387 1a3f
00000190: 188f 2dbf 84d4 563f 1c52 08bf f1e2 0ebe
000001a0: 1033 aebd c55e 363f 9f3a 84bf 60c7 c73e
000001b0: 77c5 cdbe 1c4d edbe 7c7b 65bf ae41 67bf
000001c0: b876 2c3f 9cac 883f 3516 28bf 5557 083f
000001d0: 9a2e c9be d68c 293e 46f9 973f 6e96 a7bd
000001e0: 683b 7fbf 1561 d93f 5e25 83be e616 bd3e
000001f0: af22 0e3e b6d6 fa3f 9174 e73e 411b a1bf
00000200: f5e8 ed3e 22e5 bcbe 7fdd 1dbe 1445 7fbf
00000210: 1862 81bf 67e4 ab3d a867 a3bc 5353 2f3d
00000220: aa57 ba3d 7d43 e73c 773b d5bd 6088 433e
00000230: e8fd abbe 52d8 1e3e 34a6 853f 99e9 a23d
00000240: 49b6 2c3f d9c6 ec3f 8805 95bf 5b9d 0e3d
00000250: 1a52 e33f 9145 2dbf 5df4 593f 5f67 44bf
00000260: fd40 12bf c43d 4f3f 0a8f ec3d 0bbb 87bf
00000270: 5e5b df3e cec3 47bf 4b69 d6be 4171 8fbf
00000280: dc08 91bf 5d1c d43e 3346 e13e f9e6 f6be
00000290: afb2 523d 8b67 66be 6dad e4be 9a90 213d
000002a0: e8c0 78bf 4339 b23f 03ea 353e ff14 39be
000002b0: 82c3 f33d eff1 743f f427 0f3f fca3 093e
000002c0: d6c4 49bf a9b9 0a3e 05a2 7cbf aff0 8dbe
000002d0: 7c31 74bf 07d2 91bf fa3e 2bbf 6a53 da3e
000002e0: df3e 07bf da8c 37bd a542 d9be f74e 3bbe
000002f0: 630e b93e 50ff 03bd 99cb c7bd badf 6d3d
00000300: 4a49 283d 9b9e 84bd 7f48 8ebd cb00 26be
00000310: 81f8 13bf 4a73 06bf 70ba 0f40 c987 1e3e
00000320: 2acf b63e 86a6 b03f 79b0 edbf c6c1 c83e
00000330: c478 d93e 4452 9ebe 972f 913d 154f 2abe
00000340: 70ba 09bf 2239 7f3e b6ed 6ebf e4fd 9ebf
00000350: 9541 cebe c958 3abf efe6 69be 6660 c6be
00000360: 3c44 1940 92b4 413f aa26 a5bf 2884 d63e
00000370: ab40 023f 5377 39bd 8d00 a9bf dda7 87be
00000380: c761 0ebf 63d4 be3f 8201 a6bb 49b1 7d3e
00000390: fd95 183f d3fb a03f b86a 5b3f 390b a73f
000003a0: 7455 a23d f3fb 2f3e 91ef 413e a150 d23e
000003b0: 0e60 b6bf c407 3a3f 6b56 93bf 5be6 b93f
000003c0: 6d00 8c3e 7f2f e03e d073 0a3f eb03 0340
000003d0: 8e6b 0abe dd67 a8be 46cf 4fbf a7bb 02bf
000003e0: 2dd8 083f ab41 2f3f 53c9 94bf a298 3a40
000003f0: c778 243f b086 0240 8362 32be 0ff6 be3e
-0.37992594 0.12721704 -0.44488063 -1.8397986 -0.041269712 -0.4042426 -0.65970665 -0.29051366
0.15091369 0.99362093 -0.020021144 0.17819536 1.4833804 -1.1521012 0.3297837 0.39900962
-0.5670053 -0.13785152 -0.7076564 -0.9751823 1.1324434 0.14463252 -0.7946871 0.42339796
0.3563729 0.3399768 -0.9944691 0.34730726 0.9439444 0.61375886 1.0092075 -0.054295175
-0.703713 0.58253103 0.7116966 -0.40748754 0.8179355 -0.78338873 0.5689936 -0.116807394
-0.281495 -1.0364728 -0.8717635 2.000856 0.7338246 0.5981293 0.6985062 2.2886848
0.65021753 -0.5184165 -0.92491025 -0.21334392 0.80609894 0.81689966 -1.134594 0.14374425
-0.56813157 -0.7742842 0.10642412 0.40477613 0.77668494 -1.0696607 -0.40817088 1.6719966
1.0726005 0.26244584 -0.78531253 -0.4226835 -0.075608954 1.0910774 -0.15280178 -0.36679986
-0.014758554 -0.059573244 -0.0626649 0.016474627 -0.0054582497 -0.2512999 1.7992282 -0.6951206
0.49202427 -1.0173581 -0.09147528 -0.17271277 -1.2869475 1.54204 0.30247998 0.047824215
0.37647235 2.1323373 -0.038012702 -1.0236574 -1.8398795 0.1670365 -0.2089091 0.12904778
0.2761652 0.04508328 -0.10931841 0.60362357 -0.6779647 0.83918023 -0.5325029 -0.13953759
-0.08505833 0.71238357 -1.033039 0.390193 -0.40189716 -0.46347892 -0.8964155 -0.90334594
0.6736865 1.0677676 -0.65658885 0.5325826 -0.39293367 0.16557631 1.1872947 -0.08182989
-0.9970002 1.6982752 -0.25614446 0.36931533 0.13880418 1.9596775 0.4520612 -1.2586442
0.46466795 -0.36893564 -0.15416525 -0.9971478 -1.0108061 0.08393174 -0.019946888 0.042804074
0.09098752 0.028230423 -0.10411733 0.19094992 -0.33592153 0.15512207 1.0441346 0.079547115
0.67465645 1.8498183 -1.1642313 0.034818035 1.775943 -0.67684275 0.85138494 -0.7672023
-0.57130414 0.8095362 0.1155072 -1.0603956 0.43624395 -0.7803315 -0.41877207 -1.1206437
-1.1330829 0.4142789 0.4399887 -0.48223093 0.051439937 -0.22500436 -0.44663563 0.039444543
-0.9716935 1.3923725 0.1776505 -0.18074416 0.119025245 0.9568166 0.5592034 0.13441461
-0.7881597 0.13547386 -0.9868472 -0.2772269 -0.9538801 -1.139222 -0.6689297 0.42641765
-0.5283031 -0.04481206 -0.42433658 -0.18291841 0.3614379 -0.032225907 -0.0975563 0.05807469
0.04108552 -0.06475564 -0.06947421 -0.1621124 -0.5780106 -0.5251967 2.2457542 0.15481485
0.3570493 1.3800819 -1.856948 0.39210337 0.4247495 -0.3092214 0.07089155 -0.1663173
-0.53800106 0.24924138 -0.9333147 -1.2421231 -0.4028441 -0.72791725 -0.22842 -0.3874542
2.3947897 0.75666153 -1.2902424 0.41897702 0.50879925 -0.045279812 -1.3203293 -0.26495257
-0.55617946 1.4908565 -0.0050660977 0.2477466 0.59603864 1.2576851 0.85709715 1.30503
0.07926455 0.17185955 0.18939044 0.4107714 -1.4248064 0.726681 -1.1510748 1.4523424
0.27344075 0.43786237 0.54082966 2.0471141 -0.13517591 -0.3289174 -0.8117565 -0.51067585
0.5345486 0.68459576 -1.1623939 2.915566 0.6424679 2.0394707 -0.17420392 0.37297103

in_to_y1.bias f4 [50]
00000000: 1b18 993e b888 6cbe 22fa 49bf 1e84 843f
00000010: b11d eabe d622 cf3e 7900 a53c d339 6e3f
00000020: c3bc ac3f 6e2b a53e 6e91 9cbe 0c2c 6bbf
00000030: 24ff a2bd b46e 6d3e 3c0b 41bf 94f6 693f
00000040: a088 b6be a985 443f cdd8 693f e832 c1be
00000050: 0505 e7be 38e0 413e 4f46 533f f30b 22bf
00000060: 52de 573d b6e7 0e3f c576 0e3d ad35 a8be
00000070: e30b 513e cfd8 2bbf 8691 193f 149f 643f
00000080: 82a3 bd3e 5586 0a3f 519a 84be 16ef 903f
00000090: 139e 77ba b9bb b13e a101 97be ce65 55bd
000000a0: 07bd 6ebe c951 5f3f 0867 babe d130 b93e
000000b0: aec5 afbe 676f 333f 31ab fb3e fd2c 81be
000000c0: a287 4dbe 8c72 323f
0.29901204 -0.23099029 -0.788973 1.0352819 -0.45725778 0.40456265 0.020141827 0.9305698
1.3495106 0.32259697 -0.30579704 -0.91864085 -0.079588205 0.23186761 -0.7540777 0.91391873
-0.35651112 0.7676645 0.91346437 -0.3773415 -0.45121017 0.18933189 0.8252916 -0.63299483
0.052702256 0.5582231 0.034781236 -0.3285345 0.2041469 -0.671277 0.59987676 0.89305234
0.3703881 0.54111224 -0.25898984 1.1322963 -0.0009445857 0.34713534 -0.2949343 -0.05209904
-0.23314296 0.8723417 -0.36406732 0.36170056 -0.34330505 0.7009186 0.49154046 -0.25229636
-0.20071271 0.69706035

y1_to_y2.weight f4 [20, 50]
00000000: 17a5 2e3f 495e 303f a650 123d 3dd3 6c3e
00000010: 0317 ca3e 04c8 873d cd43 943e cb2c 1cbf
00000020: cf1c 31bd 3ea8 ac3e 4f28 c83c 4110 b0be
00000030: 0a1f fa3e 986a e53e 71eb bebe 729b 733e
00000040: 8f9e afbe 7ae4 a83f 3f50 123e 52d9 463d
00000050: b804 313f 4200 79bf 22c7 d03e ae5c 66bd
00000060: 90b3 283e 50d5 8d3e b05e a33e df2f 683d
00000070: 09b9 8e3f e208 efbd 94a9 40bf b031 103f
00000080: 1647 4a3d 1a95 05bf b77b d23d 78de 57bf
00000090: 4e51 adbe 1fd2 1b3d bd1e 94be a5a1 2f3e
000000a0: c967 18bf 8716 11be d31a 08be cf2d f63e
000000b0: 2613 3a3e 78a5 02bf 8b7a bcbe 4f87 943e
000000c0: 88a5 cabd 380a 533f 25be 553f d446 813f
000000d0: cbea d9bf fca5 d53d 12a1 8bbd a6e6 b73e
000000e0: 2177 e43d 29fd 56bf 1c2f 3ebf b373 60be
000000f0: 0f08 e33d bcef 4c3f 5c89 dc3e 4ea7 9ebc
00000100: 5501 f93e 93f7 bc3e 0f03 39be e8e6 6c3f
00000110: 4dee d93e b874 da3c edf3 743f cfdb 96be
00000120: 07dd c93e aa82 92bf 3652 043f 1858 a23e
00000130: fa33 06bf c78a 593d 6ed7 c13f 3915 74bf
00000140: 3354 43c0 0dd3 fdbd 677a 603e c983 a2be
00000150: 4e16 ca3e 9dfb d8bf 2ce2 28bd a2c1 a03e
00000160: 4f03 d33d b636 a9bd 7384 a1be ebb9 b13e
00000170: 135a 1b3e 7e62 4fbe f782 613d 88d5 8fbf
00000180: 2406 07c0 87ce 75bc 81b9 ca3d 9161 df3f
00000190: 3929 08bf 74ef 273f 3721 983c e7f1 cfbe
000001a0: 3979 ee3e 7b05 38be 8aee 2b3f 13c8 0fbf
000001b0: e4f8 8abf 5385 3cbe d723 e0bd 3a4a 1240
000001c0: 39af 863f 67db 673e 481a a93f 8afe aebf
000001d0: 8672 003f 84f7 9d3e 2a81 0ec0 08ab 293d
000001e0: 9e4e 3d3f ebe7 973d 463a a0bf ca6c 833d
000001f0: cd12 103f 7f5e 37bf e104 123e a7e2 20bd
00000200: fc64 3b3f e8bd a53d 6dc5 84c0 866c 40c0
00000210: 94b2 543e e620 12bf 77b6 903f 8506 6cbf
00000220: e155 db3e 9097 f0bf 07b7 b83d 7b1e 383f
00000230: 909a 163f 9279 d0bf ffd6 9dbc 2027 e0bf
00000240: 8c7b 20be 64ab a9be 6415 ffbf fb41 aa3e
00000250: 7c71 903e 39c1 633e b6a0 4bbf de50 db3e
00000260: 0dba 3d3e 3f88 843e 3a6d 11c0 1d41 953e
00000270: 50f6 ad3f b1d7 883f ec8d dcbe 4714 b5bf
00000280: c080 dcbd 4ff1 22c0 9560 913f f536 22bf
00000290: 8ccc 193e 0d15 1abf 67e3 edbf 1d6d 603f
000002a0: fdc0 de3e efd1 6b3d 4466 003f de43 173f
000002b0: d18b 0cbe dba9 53be c409 183f c59f 08bf
000002c0: 0f35 103e 9742 3fbc 5d99 473f a52b 5dbe
000002d0: e046 4fc0 62bb 96bf 512c 0d3f 0af1 d53d
000002e0: a1ab a53f 0fed 803f d27d 2ebd 819d 99be
000002f0: beaf dcbd f894 9b3f aeda 8b3f 479d 04bf
00000300: 5a6b 773d 3df9 e93f ab08 473d c3bd b83e
00000310: e9f8 44bf a298 6c3e 71dd 753d a464 db3e
00000320: 3e28 a2bf e9ba 04bf 6440 b03e 0d63 5e3e
00000330: 71e9 b4bf c59f 3fbf ace5 f5be 789a 2240
00000340: af79 1f40 2f33 bbbf 70a0 9cbd 0484 69c0
00000350: ab7a 59bf 5ebc 163f cf8c f5bf 4bf6 c63f
00000360: 54f8 91bf 70c3 fd3f cbe3 0d40 9d93 0c3e
00000370: a824 32be 1931 1bbf c40a 3b3f dede 3d3f
00000380: 06e3 6ebf 53a6 b83d af66 1ebf e209 583d
00000390: 77e3 3c3e 275b 9d3e 91f7 1a40 e289 3940
000003a0: 72dc 38bf 3776 e63e b0c9 36bf b104 3440
000003b0: e3d8 22c0 a254 ad3f 70a6 a3be 2824 23bf
000003c0: 1a59 33bf 10d7 8c3f a3f6 823d 18ed d13f
000003d0: 2f78 e63d b050 763e 4eeb 3e40 4904 ddbe
000003e0: f47a cebf feb1 203f 4868 2cc0 8d4a 4f3d
000003f0: dbe4 ef3f 34ec 3f3d 35fc 3ebe 18a9 1bbf
0.6822066 0.6889387 0.035721444 0.23127456 0.39470682 0.06629947 0.28957978 -0.6100585
-0.043240365 0.3372211 0.024433283 -0.343874 0.48851806 0.44807887 -0.37289003 0.23789766
-0.34300658 1.3194726 0.14288424 0.048547097 0.69147825 -0.9726602 0.40776926 -0.05624073
0.16474748 0.27701807 0.31908178 0.05668628 1.1150218 -0.11671616 -0.75258756 0.5632582
0.0493842 -0.52180636 0.10277503 -0.84323835 -0.33851093 0.038042184 -0.289297 0.17151506
-0.59533364 -0.1416875 -0.13291483 0.48081824 0.18171367 -0.51033735 -0.36812243 0.29009482
-0.09894854 0.8243747 0.8349326 1.009974 -1.7024778 0.1043205 -0.06817831 0.35918158
0.111555345 -0.8398004 -0.74290633 -0.21919136 0.110855214 0.80053306 0.43073547 -0.019366886
0.4863383 0.36907634 -0.18067573 0.92539835 0.42564622 0.026666984 0.956847 -0.29464576
0.39426443 -1.1446126 0.51687944 0.31707835 -0.5242306 0.053110864 1.5143869 -0.95344883
-3.052014 -0.1239377 0.21921693 -0.3174117 0.39470142 -1.6951786 -0.04123132 0.3139773
0.103033654 -0.082623884 -0.31546363 0.34712157 0.1517108 -0.20252416 0.05505654 -1.123704
-2.1097498 -0.015002853 0.09898663 1.745165 -0.531879 0.6559975 0.018570526 -0.40614244
0.4657686 -0.1797084 0.67160857 -0.56164664 -1.0857205 -0.18410234 -0.10944336 2.2857804
1.0522224 0.22642289 1.3211145 -1.3671429 0.5017475 0.30852902 -2.2266335 0.041422874
0.73948085 0.07417282 -1.2517784 0.06417234 0.5627869 -0.71628565 0.14259674 -0.039278653
0.73200965 0.08092862 -4.1491 -3.0066237 0.20771247 -0.5708145 1.1305684 -0.9219745
0.42838958 -1.8796253 0.09019285 0.7192151 0.58829594 -1.62871 -0.019267557 -1.751194
-0.1567213 -0.33138573 -1.9928403 0.33253464 0.28211582 0.22241677 -0.795421 0.42835134
0.18528004 0.25885198 -2.2722917 0.2915124 1.3590794 1.0690824 -0.43077028 -1.4146813
-0.107667446 -2.5459783 1.13576 -0.6336511 0.15019435 -0.6018837 -1.8585023 0.87666494
0.43506613 0.057573255 0.50156045 0.5908793 -0.1372521 -0.20670263 0.593899 -0.5336879
0.1408274 -0.011673591 0.7796839 -0.2159868 -3.2387009 -1.1775935 0.55145746 0.10446365
1.2943002 1.0072345 -0.04260046 -0.30002978 -0.10775708 1.2154837 1.0926111 -0.51802486
0.060405113 1.8279186 0.04859225 0.36082277 -0.76942307 0.231051 0.060025636 0.4285022
-1.2668531 -0.518477 0.34424126 0.21717472 -1.4133741 -0.74853164 -0.48026788 2.540678
2.491802 -1.4624995 -0.076477885 -3.6486826 -0.849528 0.58881176 -1.9183596 1.5543913
-1.1403909 1.9825268 2.2170284 0.13728185 -0.17396796 -0.6062179 0.730633 0.74168193
-0.9331516 0.09016099 -0.6187543 0.0527438 0.18446146 0.30733606 2.4213603 2.8990407
-0.7221137 0.45012066 -0.714015 2.8127863 -2.5444877 1.3541453 -0.3196292 -0.63727045
-0.70057833 1.1003132 0.063946985 1.640048 0.11253392 0.24054217 2.9831119 -0.43167332
-1.6131272 0.62771595 -2.6938648 0.050608207 1.8741716 0.04685612 -0.18650897 -0.6080489

y1_to_y2.bias f4 [20]
00000000: 7063 e93d f2f3 8e3e c3e7 d9be d879 443e
00000010: 6b4c c33e 8c87 e13d 9cde 823e a27d 3abe
00000020: 67d9 b03e 2902 7b3d 3554 abbc 93f9 973e
00000030: 8559 a4be 1a3c cf3e 7d5c 33bf 088b 953e
00000040: ef84 e8be 60d5 773e 713f c3be 804b 853f
0.11395919 0.2792049 -0.42559633 0.19187105 0.3814424 0.11012182 0.25560462 -0.18211988
0.34540865 0.061281357 -0.020914176 0.29682598 -0.32099548 0.4047554 -0.70063 0.29207635
-0.4541392 0.2420249 -0.3813434 1.0413666

out.weight f4 [2, 20]
00000000: 9558 923f 8ff2 77be 9975 a43f b4ad 793f
00000010: 5871 0340 34c5 ec3f 04a6 c73f 7c20 063e
00000020: 2ff4 e53f 4a5d ba3f 6ac5 473f 64ff af3f
00000030: 3087 4f40 ba1d 0a40 5a23 db3e e51f 093f
00000040: 201c ec3f bc38 8d3f 1c88 42bf e49d 4040
00000050: c553 9dbf 430b b9bf 83e7 ecbf 9881 913f
00000060: 66b0 f33f acac eebf 4739 c03f 0a1b 98bf
00000070: 9334 08c0 db13 8e3f 5474 a3bf 70cb 963f
00000080: 337e e33f 82b1 be3f 30ca b9be df8b 8c3e
00000090: 431d 24c0 dbd5 343f 4fb2 dcbf 89ec a840
1.1433283 -0.24213623 1.2848388 0.97530675 2.053793 1.8497682 1.5597539 0.1309833
1.7965144 1.455972 0.78035605 1.3749814 3.2426262 2.1580644 0.4280041 0.5356429
1.8446083 1.1032939 -0.75988936 3.0096369 -1.229119 -1.4456562 -1.8508152 1.1367674
1.9038208 -1.8646445 1.501748 -1.1883252 -2.1282089 1.109981 -1.2769876 1.1780834
1.7772888 1.4897921 -0.3628707 0.27450463 -2.564286 0.7063882 -1.7241915 5.278874

out.bias f4 [2]
00000000: 09a6 dd3f b3e9 be3e
1.7316295 0.37287673

exp_avg f4 [50, 7]
00000000: 61b8 5a29 c77f ac29 d1fc 6729 ebea dc24
00000010: 855f a829 a2c8 f028 0400 0080 9d6d 94ad
00000020: 8d76 e7ad 1590 9aad 05da 3aae 1568 d2ad
00000030: c28e 1bad 0400 0080 0400 0000 0400 0000
00000040: 0400 0000 0400 0000 0400 0000 0400 0000
00000050: 0400 0000 84c7 bd2c 4d66 112d a8b1 c92c
00000060: 7e94 492d e2d2 0a2d ed1e 4c2c 3b97 4caa
00000070: 7479 c8ad 7c14 1cae b857 d5ad f25c 6dae
00000080: 7215 13ae a1c8 56ad 312b cfab ecc7 de2b
00000090: a5af 282c b8a2 e12b ec68 5e2c 9170 0c2c
000000a0: 8e8c 5b2b 0400 0080 8fb6 5aad 5a4e aaad
000000b0: bb92 61ad 03d4 07ae 2a74 9bad 5580 e6ac
000000c0: 3284 2a2c e9ff 112e 271d 642e 2e4b 192e
000000d0: 21be b42e a512 542e 2e6c 9b2d 0f76 b4ab
000000e0: 2b44 2e2e c5a3 872e b295 362e 90ea d32e
000000f0: 4f86 7c2e 747a b92d 809d 4cac a7b9 a0ad
00000100: 092b fbad 5d2f a9ad bddb 42ae fc77 e8ad
00000110: 53ea 2aad a860 652b 0000 0000 0000 0000
00000120: 0000 0000 0000 0000 0000 0000 0000 0000
00000130: 0000 0000 0400 0000 0400 0000 0400 0000
00000140: 0400 0000 0400 0000 0400 0000 0400 0000
00000150: 9511 a5ad 4b7d 00ae 867c abad 70a3 4bae
00000160: a424 ecad 095a 2ead 7966 192c 0400 0080
00000170: 0400 0080 0400 0000 0400 0000 0400 0000
00000180: 0400 0000 0400 0000 0400 0000 0400 0000
00000190: 0400 0000 0400 0000 0400 0000 0400 0000
000001a0: 0400 0000 d95f 7c2d 2726 bd2d 9772 882d
000001b0: 785f c72d c1f4 b62d ad1b 082d 0400 0000
000001c0: f7c0 6ead e9ad b7ad 2c3c 81ad 2688 fcad
000001d0: d7e5 b2ad cbff 01ad b72c caab 00d4 d6ad
000001e0: c4a7 28ae 0b56 d7ad 8548 91ae 0b63 10ae
000001f0: 72db 59ad 13f1 b62c 3242 bd2d 24a9 0e2e
00000200: 0f26 cd2d 2d67 1c2e 5d34 0a2e 79de 4d2d
00000210: 0400 0000 0000 0000 0000 0000 0000 0000
00000220: 0000 0000 0000 0000 0000 0000 0000 0000
00000230: 5e8a 8aad 82d4 d7ad b2b0 8fad 9dfc 2eae
00000240: 0ba9 c2ad 6b68 10ad 0400 0080 3dbc abaa
00000250: 6a8f 91aa ea60 47ab f0fb 4e2c 1be9 94ab
00000260: f3d6 b3aa 60dd d9ab 8aaa 1c2c 4363 552c
00000270: 8cf2 292c c0b8 c72a 190d 2b2c fae1 8d2b
00000280: 0400 0000 0400 0080 0400 0080 0400 0080
00000290: 0400 0080 0400 0080 0400 0080 0400 0080
000002a0: 3b04 8cad 09f0 d9ad 480f 93ad 10ee 29ae
000002b0: 3612 cbad 140d 15ad 5476 3d2b 0400 0000
000002c0: 0400 0000 0400 0000 0400 0000 0400 0000
000002d0: 0400 0000 0400 0080 0400 0080 0400 0080
000002e0: 0400 0080 0400 0080 0400 0080 0400 0080
000002f0: 0400 0080 0000 0000 0000 0000 0000 0000
00000300: 0000 0000 0000 0000 0000 0000 0000 0000
00000310: ae1f 20ad 5ccf 7fad b51e 21ad 41f0 f5ad
00000320: 1afc 5aad 1926 a2ac 0400 0080 0400 0080
00000330: 0400 0080 0400 0080 0400 0080 0400 0080
00000340: 0400 0080 0400 0080 2a03 e4ab d56b 24ac
00000350: abdf 14ac dce6 08ac 53ed 2cac 1f3e 77ab
00000360: 2ea5 b2ac 4dfb 2c2e e89c 852e 1c24 352e
00000370: edb5 c72e 5c61 7a2e 2db1 b82d a44b c7ac
00000380: 6f08 92ac ccc5 e2ac 60e1 9aac 3394 2dad
00000390: c910 d8ac 3bc3 1dac cf3d 4c2a 3a44 412c
000003a0: f40e 972c 3f8f 432c fb44 042d 61b0 8c2c
000003b0: 3dfc cd2b e544 a1ab 6ec5 75ad f738 bead
000003c0: ad67 7fad 5b98 12ae 0847 b0ad f843 02ad
000003d0: ef6a 172c fcec 1d2e d166 772e 3e2c 252e
000003e0: f3d6 c82e ed67 652e 40f6 a72d 2529 12ac
000003f0: fa4c 94ad 08f2 e4ad a5cd 9fad b688 21ae
4.8565647e-14 7.6605e-14 5.1511587e-14 9.580776e-17 7.477269e-14 2.6732363e-14 -6e-45 -1.687433e-11
-2.6314307e-11 -1.7571758e-11 -4.2485144e-11 -2.3920458e-11 -8.8424285e-12 -6e-45 6e-45 6e-45
6e-45 6e-45 6e-45 6e-45 6e-45 5.3938538e-12 8.265011e-12 5.7324874e-12
1.1458499e-11 7.891217e-12 2.900731e-12 -1.8171308e-13 -2.2791304e-11 -3.5488487e-11 -2.4254251e-11 -5.3970113e-11
-3.3442978e-11 -1.220904e-11 -1.4720223e-12 1.5829538e-12 2.3971738e-12 1.6032375e-12 3.160634e-12 1.9957684e-12
7.799949e-13 -6e-45 -1.24324015e-11 -1.9361557e-11 -1.282235e-11 -3.088375e-11 -1.7673047e-11 -6.551241e-12
2.4231836e-12 3.3196477e-11 5.186709e-11 3.4854945e-11 8.219226e-11 4.821978e-11 1.7669501e-11 -1.2822537e-12
3.9623565e-11 6.1681805e-11 4.1514965e-11 9.636836e-11 5.7417456e-11 2.1086445e-11 -2.9077574e-12 -1.827234e-11
-2.8554508e-11 -1.9234109e-11 -4.430566e-11 -2.642863e-11 -9.715412e-12 8.149128e-13 0.0 0.0
0.0 0.0 0.0 0.0 0.0 6e-45 6e-45 6e-45
6e-45 6e-45 6e-45 6e-45 -1.8766136e-11 -2.9215113e-11 -1.9495749e-11 -4.6302018e-11
-2.6846365e-11 -9.910747e-12 2.1799491e-12 -6e-45 -6e-45 6e-45 6e-45 6e-45
6e-45 6e-45 6e-45 6e-45 6e-45 6e-45 6e-45 6e-45
6e-45 1.4345824e-11 2.1503755e-11 1.5512298e-11 2.2666077e-11 2.0799697e-11 7.73685e-12 6e-45
-1.35715805e-11 -2.0881923e-11 -1.4692324e-11 -2.8709545e-11 -2.0338327e-11 -7.3895985e-12 -1.4365374e-12 -2.442313e-11
-3.8347783e-11 -2.448088e-11 -6.6067186e-11 -3.2829777e-11 -1.23837485e-11 5.1995157e-12 2.1516209e-11 3.243729e-11
2.3322703e-11 3.5561932e-11 3.1424075e-11 1.17023e-11 6e-45 0.0 0.0 0.0
0.0 0.0 0.0 0.0 -1.5750231e-11 -2.4537043e-11 -1.6335686e-11 -3.9787385e-11
-2.2130317e-11 -8.208638e-12 -6e-45 -3.0506318e-13 -2.5856688e-13 -7.08335e-13 2.9414214e-12 -1.0580732e-12
-3.1945938e-13 -1.5480221e-12 2.2263602e-12 3.0324222e-12 2.4150985e-12 3.5477697e-13 2.4307832e-12 1.0081374e-12
6e-45 -6e-45 -6e-45 -6e-45 -6e-45 -6e-45 -6e-45 -6e-45
-1.5918036e-11 -2.477664e-11 -1.6718751e-11 -3.8637593e-11 -2.3086515e-11 -8.472573e-12 6.73105e-13 6e-45
6e-45 6e-45 6e-45 6e-45 6e-45 -6e-45 -6e-45 -6e-45
-6e-45 -6e-45 -6e-45 -6e-45 -6e-45 0.0 0.0 0.0
0.0 0.0 0.0 0.0 -9.101981e-12 -1.4541115e-11 -9.158609e-12 -2.795997e-11
-1.2447843e-11 -4.6085466e-12 -6e-45 -6e-45 -6e-45 -6e-45 -6e-45 -6e-45
-6e-45 -6e-45 -1.6201253e-12 -2.336566e-12 -2.1156226e-12 -1.9454915e-12 -2.4574412e-12 -8.783824e-13
-5.077403e-12 3.9331472e-11 6.076012e-11 4.1186707e-11 9.081789e-11 5.692989e-11 2.099706e-11 -5.664318e-12
-4.150506e-12 -6.445266e-12 -4.401965e-12 -9.866818e-12 -6.1409528e-12 -2.2419417e-12 1.8140284e-13 2.7464823e-12
4.2933383e-12 2.7790684e-12 7.518648e-12 3.9986213e-12 1.4636136e-12 -1.145886e-12 -1.3970476e-11 -2.1625797e-11
-1.45180925e-11 -3.3331875e-11 -2.0040428e-11 -7.4047365e-12 2.151775e-12 3.590815e-11 5.6252617e-11 3.755595e-11
9.13313e-11 5.2160876e-11 1.9095059e-11 -2.0770688e-12 -1.6859836e-11 -2.6028082e-11 -1.8167532e-11 -3.6728585e-11

exp_avg_sq f4 [50, 7]
00000000: c171 931c 3124 0e1d 8709 a21c 7df3 681b
00000010: 0a02 e51c e76a 821b f401 0000 e31c de22
00000020: 29b5 4523 9fe7 b622 e1e5 0a24 b62c 2223
00000030: ce82 9821 f401 0000 f401 0000 f401 0000
00000040: f401 0000 f401 0000 f401 0000 f401 0000
00000050: f401 0000 e04c aa21 4e6f 1522 bcf2 8b21
00000060: b008 c322 3cac f621 5400 6720 ec0b 111c
00000070: 1ca3 1e23 fd7d 8b23 f7c7 0123 70fc 3f24
00000080: adf1 6423 51c0 d521 23fb 371f 1add 201f
00000090: a211 9e1f 2299 0d1f 3023 2520 9d87 671f
000000a0: d7d4 fa1d 75c8 8e0d eda4 1d23 ddda 8b23
000000b0: 95b6 0123 ab52 4724 5002 6523 386a d621
000000c0: 3172 2220 8bf0 e523 ac66 4b24 4f6e bc23
000000d0: 6540 0f25 e7dc 2624 de1e 9c22 666e 681f
000000e0: a5b2 4424 9eb5 ad24 0378 2124 3178 7025
000000f0: 03e0 8e24 95a4 0523 3340 6c20 ab4c 9b21
00000100: 292d 0e22 9000 8321 7ab2 bf22 cc05 e321
00000110: 1228 5d20 bdb7 a91e 0000 0000 0000 0000
00000120: 0000 0000 0000 0000 0000 0000 0000 0000
00000130: 0000 0000 1e06 0000 7117 0000 fc07 0000
00000140: b041 0000 5806 0000 f401 0000 f401 0000
00000150: cbfc 5523 1757 bd23 4902 3023 1439 8424
00000160: c689 9b23 4896 1122 1605 0d20 f401 0000
00000170: f401 0000 f401 0000 f401 0000 f401 0000
00000180: f401 0000 f401 0000 5e4e 0000 27f1 0000
00000190: 0955 0000 08e6 0200 1947 0000 bd13 0000
000001a0: f401 0000 f7d4 a323 7688 0f24 052a 8723
000001b0: 8ea8 ba24 ad87 ec23 3e7d 5d22 f401 0000
000001c0: ad50 c622 df94 2d23 6236 a222 e684 e123
000001d0: ed95 0e23 ac5a 8521 8332 581f 431c bc22
000001e0: e573 3223 4e0a a322 c2c6 f323 5d15 0c23
000001f0: 5b48 8c21 cf8c 4321 5f42 4924 83ba b024
00000200: b571 2524 d99b 6d25 8056 9124 c1e1 0723
00000210: f401 0000 0000 0000 0000 0000 0000 0000
00000220: 0000 0000 0000 0000 0000 0000 0000 0000
00000230: 7d39 0323 a4b5 6923 df1b d822 baa5 2424
00000240: 2681 3f23 6e17 b421 f401 0000 4810 0c20
00000250: 91e8 9220 9ca5 0f20 5f4e 2f21 1124 5620
00000260: 38ce ec1e bda2 a91f dde8 3e22 4399 9922
00000270: 4c38 2722 4bf0 2721 d5ac 8622 d600 0321
00000280: f401 0000 f401 0000 f401 0000 f401 0000
00000290: f401 0000 f401 0000 f401 0000 f401 0000
000002a0: 59c8 ec22 d721 5123 db72 c222 a8f2 1024
000002b0: cbfe 2b23 f3d6 a021 c056 671e 16bc 101b
000002c0: c352 8e1b e866 f61a 2952 8c1a 492f 251b
000002d0: 4a89 f419 f401 0000 f401 0000 f401 0000
000002e0: f401 0000 f401 0000 f401 0000 f401 0000
000002f0: f401 0000 0000 0000 0000 0000 0000 0000
00000300: 0000 0000 0000 0000 0000 0000 0000 0000
00000310: 4b14 ae21 c7fd 1d22 1108 9121 75b0 e722
00000320: a008 0022 b53d 7420 f562 4406 f401 0000
00000330: f401 0000 f401 0000 f401 0000 f401 0000
00000340: f401 0000 f401 0000 97d2 bd1f aef0 1a20
00000350: 202a 2720 6bcf 921f 67bd 0e20 2beb 8f1e
00000360: 6422 3221 fe67 d124 52e6 3825 7e34 ac24
00000370: f949 0026 0aec 1725 b311 8e23 5081 4c21
00000380: a3a7 ff21 8067 6222 3478 d121 cf35 2523
00000390: 4243 3922 8fa9 ac20 64f4 8c1c 4a09 8e21
000003a0: c743 fc21 1deb 6b21 0149 ad22 0781 cf21
000003b0: 20d2 4220 fdfc 3a1f 5c9d 5423 dbc0 bb23
000003c0: 06d2 2e23 de42 8224 6461 9a23 d44e 1022
000003d0: b61f fe1f 6fbe 6224 f8c8 c824 bdc4 3924
000003e0: 3c45 8f25 6f98 a424 81d9 1923 855a 0f20
000003f0: 36b0 1e23 db7f 8b23 a46b 0223 d6be 3c24
9.757049e-22 1.8812254e-21 1.0722723e-21 1.9269266e-22 1.5154476e-21 2.157578e-22 7e-43 6.0203806e-18
1.07177536e-17 4.9576437e-18 3.0118695e-17 8.7915055e-18 1.0334544e-18 7e-43 7e-43 7e-43
7e-43 7e-43 7e-43 7e-43 7e-43 1.1539997e-18 2.025219e-18 9.483258e-19
5.2864054e-18 1.6715198e-18 1.956657e-19 4.7991884e-22 8.599737e-18 1.5123768e-17 7.035448e-18 4.1630346e-17
1.2411082e-17 1.4484347e-18 3.8959493e-20 3.406421e-20 6.6944774e-20 2.998458e-20 1.3987686e-19 4.902833e-20
6.639452e-21 8.799684e-31 8.5459114e-18 1.5163102e-17 7.031767e-18 4.322127e-17 1.24146046e-17 1.452932e-18
1.3759717e-19 2.4930104e-17 4.4105575e-17 2.0429718e-17 1.242509e-16 3.6182624e-17 4.2316567e-18 4.921923e-20
4.2652043e-17 7.533446e-17 3.5012964e-17 2.0857404e-16 6.1962174e-17 7.244796e-18 2.0011219e-19 1.0523502e-18
1.9268496e-18 8.877054e-19 5.1959623e-18 1.5383653e-18 1.8732686e-19 1.7969563e-20 0.0 0.0
0.0 0.0 0.0 0.0 0.0 2.194e-42 8.409e-42 2.864e-42
2.3564e-41 2.276e-42 7e-43 7e-43 1.1600284e-17 2.0528305e-17 9.541463e-18 5.734257e-17
1.6863483e-17 1.9730723e-18 1.1944847e-19 7e-43 7e-43 7e-43 7e-43 7e-43
7e-43 7e-43 2.8113e-41 8.6509e-41 3.0505e-41 2.6619e-40 2.5505e-41 7.081e-42
7e-43 1.776269e-17 3.112377e-17 1.4654525e-17 8.0950184e-17 2.5644632e-17 3.0017388e-18 7e-43
5.3753426e-18 9.4098735e-18 4.396777e-18 2.4450834e-17 7.7295834e-18 9.036431e-19 4.578156e-20 5.0987425e-18
9.673941e-18 4.419215e-18 2.643029e-17 7.593939e-18 9.505921e-19 6.625493e-19 4.3641146e-17 7.6643796e-17
3.5874985e-17 2.0609276e-16 6.303026e-17 7.36617e-18 7e-43 0.0 0.0 0.0
0.0 0.0 0.0 0.0 7.113698e-18 1.2669419e-17 5.8576427e-18 3.5702207e-17
1.0381479e-17 1.2203476e-18 7e-43 1.1863848e-19 2.4887262e-19 1.2167367e-19 5.939603e-19 1.8138438e-19
2.5072762e-20 7.184351e-20 2.5873078e-18 4.1633005e-18 2.2662524e-18 5.6899826e-19 3.6503766e-18 4.4385633e-19
7e-43 7e-43 7e-43 7e-43 7e-43 7e-43 7e-43 7e-43
6.4180055e-18 1.13370786e-17 5.2705413e-18 3.143056e-17 9.323883e-18 1.0898918e-18 1.2246978e-20 1.1972175e-22
2.3545413e-22 1.0190947e-22 5.803538e-23 1.3663759e-22 2.528446e-23 7e-43 7e-43 7e-43
7e-43 7e-43 7e-43 7e-43 7e-43 0.0 0.0 0.0
0.0 0.0 0.0 0.0 1.179607e-18 2.1411816e-18 9.827717e-19 6.2799507e-18
1.73518e-18 2.0688021e-19 3.6936205e-35 7e-43 7e-43 7e-43 7e-43 7e-43
7e-43 7e-43 8.0393005e-20 1.3123942e-19 1.4159388e-19 6.217655e-20 1.2090536e-19 1.5237977e-20
6.035426e-19 9.081547e-17 1.6037492e-16 7.4682035e-17 4.450917e-16 1.3177135e-16 1.5403167e-17 6.928903e-19
1.7323845e-18 3.0683504e-18 1.4194208e-18 8.956062e-18 2.5107781e-18 2.9250138e-19 9.327596e-22 9.624753e-19
1.7094125e-18 7.9932267e-19 4.696904e-18 1.4061019e-18 1.6501964e-19 3.95963e-20 1.1525865e-17 2.0356258e-17
9.477033e-18 5.649179e-17 1.673796e-17 1.955737e-18 1.07625646e-19 4.9167242e-17 8.707663e-17 4.0282124e-17
2.485346e-16 7.1381895e-17 8.340205e-18 1.2142522e-19 8.602511e-18 1.5124559e-17 7.070108e-18 4.0927646e-17

exp_avg f4 [50]
00000000: 9cfd 2d2a 0065 66ae 0400 0000 2218 952d
00000010: c8ed 9dae 40de a42c ca37 2aae 9525 e52e
00000020: cb8f 082f 9e1c 7cae 0000 0000 0400 0000
00000030: a8ab 80ae 0400 0000 0400 0000 320c 462e
00000040: 5a80 3dae f26d a3ae 208f 952e 0000 0000
00000050: 1036 56ae 6d49 ceab ab98 d32c 0400 0080
00000060: 3f7d 5bae 0400 0000 0400 0080 0000 0000
00000070: bfdb f4ad 0400 0080 2ea5 b2ac 8b7b 072f
00000080: a8fb 66ad 5c4c 172d d1a8 3fae 80e3 f72e
00000090: f1ea 6bae 0400 0000 0400 0080 ce38 2aae
000000a0: 09f2 f1ad 2ac0 cf2c 0000 0000 0400 0000
000000b0: 0000 0000 306d 962e 5282 95ac 0400 0000
000000c0: d54e 02ae 4f92 82ad
1.5453475e-13 -5.238565e-11 6e-45 1.6950056e-11 -7.181772e-11 4.685835e-12 -3.8703075e-11 1.042039e-10
1.2420213e-10 -5.7323583e-11 0.0 6e-45 -5.8512584e-11 6e-45 6e-45 4.503082e-11
-4.3087624e-11 -7.431912e-11 6.8011596e-11 0.0 -4.8705984e-11 -1.465756e-12 6.0139302e-12 -6e-45
-4.9906076e-11 6e-45 -6e-45 0.0 -2.7837175e-11 -6e-45 -5.077403e-12 1.232207e-10
-1.3129865e-11 8.6003114e-12 -4.357831e-11 1.1272672e-10 -5.3641484e-11 6e-45 -6e-45 -3.8703978e-11
-2.7506013e-11 5.9046283e-12 0.0 6e-45 0.0 6.840606e-11 -4.249303e-12 6e-45
-2.9628595e-11 -1.4844263e-11

exp_avg_sq f4 [50]
00000000: 2fb2 0c1e dcd0 4c24 f401 0000 d5b8 1b23
00000010: 35e2 9024 ea99 9920 5fe7 9024 fef6 5225
00000020: 5180 b425 f930 1023 0000 0000 7b46 0000
00000030: 9493 c424 f401 0000 3bfd 0200 6f6b 1525
00000040: 9c97 3424 8562 3324 06be b725 0000 0000
00000050: fe01 7224 115f 8c21 5c7c a323 f401 0000
00000060: c151 5924 3604 831c f401 0000 0000 0000
00000070: 4d5b 2223 f401 0000 6422 3221 0807 4026
00000080: 27a8 6a23 9c17 0323 4923 c324 c634 d025
00000090: dbe4 9024 f401 0000 f401 0000 6f82 8024
000000a0: 28a2 0a24 d761 de23 0000 0000 c1f2 b115
000000b0: 0000 0000 d30e 9d24 da58 f820 f401 0000
000000c0: 9103 4a24 1641 b821
7.448386e-21 4.441236e-17 7e-43 8.4417065e-18 6.2833255e-17 2.602106e-19 6.2842e-17 1.8298281e-16
3.1311973e-16 7.816626e-18 0.0 2.5284e-41 8.525146e-17 7e-43 2.74513e-40 1.296009e-16
3.9159696e-17 3.8897887e-17 3.1874205e-16 0.0 5.2477073e-17 9.511933e-19 1.7725164e-17 7e-43
4.7123623e-17 8.669941e-22 7e-43 0.0 8.801371e-18 7e-43 6.035426e-19 6.662291e-16
1.2720773e-17 7.106524e-18 8.4627545e-17 3.611801e-16 6.283774e-17 7e-43 7e-43 5.5732114e-17
3.006133e-17 2.4110725e-17 0.0 7.187273e-26 0.0 6.811301e-17 4.207163e-19 7e-43
4.380479e-17 1.2485553e-18

exp_avg f4 [20, 50]
00000000: c675 afa3 7caa 85ac 0400 0000 52e9 32ad
00000010: 0f68 f9ab 4ac5 0dad 5010 b3ad 648e 35ad
00000020: b304 5cad b311 aaac 0000 0000 0400 0000
00000030: a4de 1bad 0400 0000 0400 0080 3da5 d6aa
00000040: 1c32 99ac e592 cfac 38ec 8faa 0000 0000
00000050: e048 bbac 1907 40ad 4bb3 80a7 0400 0080
00000060: 864a abac 0400 0080 0400 0000 0000 0000
00000070: 5112 2ead 0400 0080 049f 432b 4886 09ad
00000080: 216d 82ad bffb 38ad fc2b 41ad 768b 10ad
00000090: 6e02 89ad 0400 0080 0400 0080 38f0 84ad
000000a0: c969 a6ad 3c40 35a7 0000 0000 0400 0080
000000b0: 0000 0000 ee2d 9caa 85e9 1a2b 0400 0000
000000c0: 85eb 8fad 21b5 51ad 4672 45a3 e29f 11ac
000000d0: 0400 0000 ba49 cfac cd6c abab 77af 9aac
000000e0: 2fc2 4ead 9e19 ceac cd01 f7ac 0f88 5dac
000000f0: 0000 0000 0400 0000 f1b3 b1ac 0400 0000
00000100: 0400 0080 a4a2 67aa 008a 3eac af30 8cac
00000110: 5236 1baa 0000 0000 da29 4cac 0602 deac
00000120: 4c7a fba6 0400 0000 b87a 4fac 0400 0080
00000130: 0400 0000 0000 0000 99b4 bdac 0400 0000
00000140: 7a3a 2624 9888 99ac 109e 18ad f102 daac
00000150: 63cf d9ac 897d beac c7e1 20ad 0400 0080
00000160: 0400 0080 4e52 17ad 6e93 41ad b3ca b2a6
00000170: 0000 0000 0400 0080 0000 0000 d445 57ab
00000180: d8a2 0324 0400 0000 41b1 25ad 06b0 e7ac
00000190: 2114 02a5 5cd0 06ac 0400 0000 1b3d afac
000001a0: bd82 92ab 4a66 6dac 2369 2cad aaba a1ac
000001b0: 3ae5 d2ac 162c 67ac 0000 0000 0400 0000
000001c0: 82d9 99ac 0400 0000 0400 0080 8636 23ab
000001d0: 8e46 faab d924 84ac 1908 0aab 0000 0000
000001e0: f883 36ac ad32 a4ac 06f4 14a9 0400 0080
000001f0: 8955 3aac 0400 0080 0400 0000 0000 0000
00000200: b384 aaac 0400 0000 e44e d029 8361 7aac
00000210: 176e 01ad 1ec3 b9ac 9e79 b2ac 4f30 95ac
00000220: f36e 05ad 0400 0080 0400 0080 6bd7 fcac
00000230: 1eb8 17ad 1a4f d7a8 0000 0000 0400 0080
00000240: 0000 0000 af93 d5aa 4af5 a429 0400 0000
00000250: 74aa 08ad 784a d1ac 6946 861f f77e 9825
00000260: 0400 0000 fc03 48a8 5ccb 14a8 856b 9725
00000270: e50f bca8 8a17 05a8 3103 dda7 35a0 94a8
00000280: 0000 0000 0400 0080 4080 f9a7 0400 0080
00000290: 0400 0000 65f2 9125 736c 46a8 a7fb e4a8
000002a0: 9253 6a25 0000 0000 2884 ad25 e6d5 4fa8
000002b0: 96c2 6624 0400 0080 d55d 2ca8 0400 0000
000002c0: 0400 0000 0000 0000 843e 2c26 0400 0080
000002d0: b977 66a8 aefe 59a7 fc0b aba8 cf35 85a8
000002e0: 96b8 e4a7 b403 0ca9 8180 bca8 0400 0080
000002f0: 0400 0080 5072 4ca8 3d40 c8a8 ecf1 1c24
00000300: 0000 0000 0400 0000 0000 0000 936a baa8
00000310: 4d82 36a8 0400 0080 5988 8da8 61c0 1ba7
00000320: 6914 f324 87ee 902c 0400 0080 2ae8 3d2d
00000330: e1ce 092c 2516 fd2c edfa b92d 2fb7 332d
00000340: 3511 662d 62f0 e72c 0000 0000 0400 0080
00000350: 8c89 262d 0400 0080 0400 0000 a127 932b
00000360: caa6 822c a9ea 112d 5844 862b 0000 0000
00000370: 8ed2 c72c afad 2c2d d6b7 e728 0400 0080
00000380: 64da c82c 0400 0000 0400 0000 0000 0000
00000390: a0ea 372d 0400 0080 1d96 a5a9 84f5 052d
000003a0: b5a1 8b2d 3b82 452d affd 412d e4ab 282d
000003b0: 7696 8d2d 0400 0000 0400 0080 9c98 882d
000003c0: d88d a32d c038 b228 0000 0000 0400 0000
000003d0: 0000 0000 69a1 952b 9320 83a9 0400 0080
000003e0: 9689 912d db67 5e2d e399 91a3 4c9c 14a9
000003f0: 0400 0080 0123 90a9 737c fda8 9962 d7a8
-1.9023417e-17 -3.799015e-12 6e-45 -1.0169936e-11 -1.7721396e-12 -8.058729e-12 -2.0357188e-11 -1.0320276e-11
-1.2506596e-11 -4.8336556e-12 0.0 6e-45 -8.860166e-12 6e-45 -6e-45 -3.8128693e-13
-4.354085e-12 -5.8996024e-12 -2.5565812e-13 0.0 -5.3229504e-12 -1.0915512e-11 -3.5721527e-15 -6e-45
-4.868386e-12 -6e-45 6e-45 0.0 -9.894822e-12 -6e-45 6.9498595e-13 -7.817365e-12
-1.4827752e-11 -1.0515088e-11 -1.0980546e-11 -8.216419e-12 -1.5576176e-11 -6e-45 -6e-45 -1.5113341e-11
-1.8918993e-11 -2.5153617e-15 0.0 -6e-45 0.0 -2.7743037e-13 5.5035864e-13 6e-45
-1.636181e-11 -1.1920493e-11 -1.070359e-17 -2.0694492e-12 6e-45 -5.891479e-12 -1.2180479e-12 -4.3964238e-12
-1.1752862e-11 -5.8577162e-12 -7.020362e-12 -3.1481517e-12 0.0 6e-45 -5.05062e-12 6e-45
-6e-45 -2.0573349e-13 -2.707723e-12 -3.9844443e-12 -1.3785612e-13 0.0 -2.9013376e-12 -6.309844e-12
-1.7449772e-15 6e-45 -2.9484592e-12 -6e-45 6e-45 0.0 -5.3917534e-12 6e-45
3.6045044e-17 -4.3636865e-12 -8.675297e-12 -6.1962592e-12 -6.1905355e-12 -5.414062e-12 -9.14508e-12 -6e-45
-6e-45 -8.6016316e-12 -1.1003516e-11 -1.2406173e-15 0.0 -6e-45 0.0 -7.648025e-13
2.854403e-17 6e-45 -9.418522e-12 -6.5849574e-12 -1.1282523e-16 -1.9158208e-12 6e-45 -4.9805832e-12
-1.0410211e-12 -3.3736508e-12 -9.800413e-12 -4.596619e-12 -5.9940082e-12 -3.2851547e-12 0.0 6e-45
-4.3726698e-12 6e-45 -6e-45 -5.79849e-13 -1.7783151e-12 -3.7557566e-12 -4.9038687e-13 0.0
-2.5937013e-12 -4.6667865e-12 -3.3074258e-14 -6e-45 -2.6479671e-12 -6e-45 6e-45 0.0
-4.846423e-12 6e-45 9.250741e-14 -3.5581267e-12 -7.357246e-12 -5.2796786e-12 -5.0725665e-12 -4.240198e-12
-7.58481e-12 -6e-45 -6e-45 -7.186187e-12 -8.6242385e-12 -2.39041e-14 0.0 -6e-45
0.0 -3.7938877e-13 7.325614e-14 6e-45 -7.768553e-12 -5.948405e-12 5.686769e-20 2.6453832e-16
6e-45 -1.1103094e-14 -8.259747e-15 2.6267183e-16 -2.0879086e-14 -7.388087e-15 -6.1343282e-15 -1.650078e-14
0.0 -6e-45 -6.9250432e-15 -6e-45 6e-45 2.5317743e-16 -1.1014724e-14 -2.5422222e-14
2.032458e-16 0.0 3.010027e-16 -1.153719e-14 5.003812e-17 -6e-45 -9.568265e-15 6e-45
6e-45 0.0 5.975921e-16 -6e-45 -1.27935255e-14 -3.0252862e-15 -1.8990011e-14 -1.4789302e-14
-6.348284e-15 -3.1089457e-14 -2.0927923e-14 -6e-45 -6e-45 -1.1349062e-14 -2.223232e-14 3.4032024e-17
0.0 6e-45 0.0 -2.0696367e-14 -1.0131284e-14 -6e-45 -1.5713276e-14 -2.161486e-15
1.0541903e-16 4.119208e-12 -6e-45 1.0794957e-11 1.9583712e-12 7.193151e-12 2.1143498e-11 1.0215647e-11
1.3077807e-11 6.5921027e-12 0.0 -6e-45 9.466549e-12 -6e-45 6e-45 1.0455977e-12
3.7133395e-12 8.294401e-12 9.540242e-13 0.0 5.6792964e-12 9.8156335e-12 2.5725878e-14 -6e-45
5.708588e-12 6e-45 6e-45 0.0 1.0454443e-11 -6e-45 -7.3535125e-14 7.61469e-12
1.5874283e-11 1.12270705e-11 1.1027109e-11 9.587862e-12 1.6096662e-11 6e-45 -6e-45 1.5529182e-11
1.8593946e-11 1.9786581e-14 0.0 6e-45 0.0 1.0631887e-12 -5.8232194e-14 -6e-45
1.6545692e-11 1.26422995e-11 -1.5786105e-17 -3.2998167e-14 -6e-45 -6.400957e-14 -2.8142614e-14 -2.3912555e-14

exp_avg_sq f4 [20, 50]
00000000: 7568 4b19 8aa6 8b1e f401 0000 690a ab20
00000010: 4b5e ec1e 2b33 0120 a545 8721 8efa 9b20
00000020: 88b1 e320 a8ba 1920 0000 0000 f401 0000
00000030: bff1 1f20 f401 0000 f401 0000 dc61 071e
00000040: f1ed a61f 57cd 7d20 ef7b cb1d 0000 0000
00000050: 11b2 281f afbd d620 be90 841c f401 0000
00000060: bb6a 861f 6354 4913 f401 0000 0000 0000
00000070: 8d75 2c20 f401 0000 26c6 fe1e fe54 4620
00000080: 5f61 1e21 2556 d720 56d6 7620 7e15 e620
00000090: a4fb 3821 f401 0000 f401 0000 c875 0521
000000a0: c796 7421 bb3c 7e1c 0000 0000 ccd7 0b04
000000b0: 0000 0000 6b80 b01f 8761 ae1e f401 0000
000000c0: 08f4 3621 8dc8 6b20 02bc 7d19 1e76 ab1e
000000d0: f401 0000 dcb7 be20 6ba7 371e 4f42 2520
000000e0: 4ae3 9521 d428 b720 c9fd 0621 fa8b c41f
000000f0: 0000 0000 f401 0000 3e4b 3720 f401 0000
00000100: f401 0000 a9dc 291e 5d70 8a1f 8179 f71f
00000110: cc38 fe1d 0000 0000 a835 4e1f 26f3 e820
00000120: 006e af1c f401 0000 1c56 671f 415e b114
00000130: f401 0000 0000 0000 9af6 5320 f401 0000
00000140: 7ccf c910 7bbc 6b20 9975 2821 8025 e320
00000150: f1a3 9120 f95c a120 4171 4121 f401 0000
00000160: f401 0000 c6e5 1921 0397 8421 3e95 a71c
00000170: 0000 0000 af59 0d07 0000 0000 9eb7 d91d
00000180: 455e 8a10 f401 0000 f60b 4c21 cde1 9520
00000190: f303 6f1a bd1d c11f f401 0000 47ad e221
000001a0: 719f 821f a8e3 2c21 6328 b822 b211 e821
000001b0: 61fa 2522 b1fe c120 0000 0000 f401 0000
000001c0: ceba 5b21 f401 0000 f401 0000 8d41 081f
000001d0: 9ab0 d620 7b7b 0721 2c17 cf1e 0000 0000
000001e0: c22c 7220 ffaf 3122 aba4 931d f401 0000
000001f0: ad50 8b20 84a2 7017 f401 0000 0000 0000
00000200: f367 6e21 f401 0000 649e f71a 6083 9321
00000210: 32fe 4e22 d926 0b22 d266 b521 8561 ca21
00000220: c82e 7322 f401 0000 f401 0000 b8c2 3d22
00000230: e645 aa22 20ec 861d 0000 0000 6606 560b
00000240: 0000 0000 386d 9d1e a081 a51a f401 0000
00000250: 73c2 8022 1720 8121 0d50 d915 c122 3f16
00000260: f401 0000 dba6 091a a6cf b219 30b6 3617
00000270: 82c0 dd1a 2d43 3519 68e1 4019 1ad8 a91a
00000280: 0000 0000 f401 0000 4dc5 3819 f401 0000
00000290: f401 0000 2cb8 b916 c32c dc19 4320 291b
000002a0: e5c7 8f16 0000 0000 8ac8 a616 7038 041a
000002b0: a5ed 9016 f401 0000 9038 af19 6cc5 4115
000002c0: f401 0000 0000 0000 b843 d117 f401 0000
000002d0: 41d9 0a1a 7606 8e18 42fc b21a 664f 7d1a
000002e0: 095a 1019 2228 581b 0e37 e51a f401 0000
000002f0: f401 0000 5904 011a 3399 e81a de34 c316
00000300: 0000 0000 203e 7a0a 0000 0000 eece b41a
00000310: 9a75 bd19 f401 0000 c566 841a 3efc bf18
00000320: 3625 3f1a feaa 3720 f401 0000 629e 5c22
00000330: 4d50 fe1f 2e81 a321 d1f9 3623 8810 6b22
00000340: a8f5 a322 fabc 1721 0000 0000 f401 0000
00000350: 9bc9 d821 f401 0000 f401 0000 ef96 221f
00000360: b4e6 6421 e395 7521 b582 f71e 0000 0000
00000370: 19d8 ee20 2fac bb22 e4a2 a11d f401 0000
00000380: 623b 0621 5e6e b715 f401 0000 0000 0000
00000390: 9d13 e421 f401 0000 e9a9 041b 4e5a 1222
000003a0: 2733 cc22 de6f 8722 dd7b 3722 1497 4a22
000003b0: 3132 f122 f401 0000 f401 0000 f842 bd22
000003c0: 36df 2c23 ab6d 921d 0000 0000 901d 120a
000003d0: 0000 0000 eb34 f51e e501 b31a f401 0000
000003e0: 5e72 0023 5947 da21 7408 9119 b85a e61c
000003f0: f401 0000 3531 0e1e 8af9 9a1c e2fb 891c
1.0515949e-23 1.4786076e-20 7e-43 2.8975416e-19 2.502647e-20 1.0943655e-19 9.166391e-19 2.6423825e-19
3.8572776e-19 1.3021363e-19 0.0 7e-43 1.3547811e-19 7e-43 7e-43 7.167077e-21
7.0697376e-20 2.1497875e-19 5.3861797e-21 0.0 3.5722677e-20 3.6378532e-19 8.772442e-22 7e-43
5.692778e-20 2.5411373e-27 7e-43 0.0 1.4607861e-19 7e-43 2.6975248e-20 1.6799374e-19
5.366135e-19 3.6479422e-19 2.0907928e-19 3.8977738e-19 6.267467e-19 7e-43 7e-43 4.5218035e-19
8.286997e-19 8.4120043e-22 0.0 1.643846e-36 0.0 7.475135e-20 1.8463303e-20 7e-43
6.198697e-19 1.9971631e-19 1.3117761e-23 1.8154181e-20 7e-43 3.230892e-19 9.7225606e-21 1.3997983e-19
1.0156796e-18 3.1028424e-19 4.573685e-19 8.32408e-20 0.0 7e-43 1.5525598e-19 7e-43
7e-43 8.992417e-21 5.863116e-20 1.0480958e-19 6.7291967e-21 0.0 4.366658e-20 3.946323e-19
1.1608963e-21 7e-43 4.898738e-20 1.790961e-26 7e-43 0.0 1.7953989e-19 7e-43
7.96002e-29 1.9967637e-19 5.7076253e-19 3.848011e-19 2.4672443e-19 2.7335985e-19 6.5540834e-19 7e-43
7e-43 5.214252e-19 8.98464e-19 1.1089711e-21 0.0 1.0634017e-34 0.0 5.7629277e-21
5.457665e-29 7e-43 6.913372e-19 2.5391004e-19 4.9427232e-23 8.178788e-20 7e-43 1.5360222e-18
5.5320915e-20 5.8577167e-19 4.991606e-18 1.5725615e-18 2.249422e-18 3.2864012e-19 0.0 7e-43
7.444732e-19 7e-43 7e-43 2.8853343e-20 3.6369875e-19 4.5903204e-19 2.1926561e-20 0.0
2.0513006e-19 2.4081145e-18 3.908084e-21 7e-43 2.3600903e-19 7.7753306e-25 7e-43 0.0
8.077511e-19 7e-43 1.024127e-22 9.995882e-19 2.8052776e-18 1.8858579e-18 1.2292253e-18 1.3713866e-18
3.2957407e-18 7e-43 7e-43 2.571736e-18 4.61526e-18 3.5713652e-21 0.0 4.1219714e-32
0.0 1.6668193e-20 6.845182e-23 7e-43 3.490035e-18 8.749874e-19 8.77719e-26 1.5439824e-25
7e-43 2.846572e-23 1.8488637e-23 5.9037325e-25 9.171447e-23 9.371047e-24 9.971688e-24 7.024589e-23
0.0 7e-43 9.552422e-24 7e-43 7e-43 3.000459e-25 2.2765546e-23 1.3989777e-22
2.3229047e-25 0.0 2.6945304e-25 2.734255e-23 2.341443e-25 7e-43 1.8117421e-23 3.9131778e-26
7e-43 0.0 1.3523403e-24 7e-43 2.8713227e-23 3.6712664e-24 7.402662e-23 5.238331e-23
7.462808e-24 1.7880069e-22 9.4801126e-23 7e-43 7e-43 2.6680087e-23 9.620046e-23 3.1537313e-25
0.0 1.20487466e-32 0.0 7.478057e-23 1.9589641e-23 7e-43 5.4759954e-23 4.9627042e-24
3.9527933e-23 1.555728e-19 7e-43 2.9899407e-18 1.0770603e-19 1.1079503e-18 9.9191405e-18 3.185719e-18
4.4441337e-18 5.14109e-19 0.0 7e-43 1.4690094e-18 7e-43 7e-43 3.4429684e-20
7.755474e-19 8.32076e-19 2.6206201e-20 0.0 4.046177e-19 5.086876e-18 4.278477e-21 7e-43
4.547956e-19 7.408724e-26 7e-43 0.0 1.5455073e-18 7e-43 1.0973685e-22 1.9834497e-18
5.534847e-18 3.6710267e-18 2.4866697e-18 2.7456085e-18 6.5376323e-18 7e-43 7e-43 5.129946e-18
9.3714054e-18 3.8759272e-21 0.0 7.0352044e-33 0.0 2.596227e-20 7.4035726e-23 7e-43
6.963112e-18 1.479114e-18 1.4996063e-23 1.5243574e-21 7e-43 7.527593e-21 1.0255369e-21 9.13101e-22

exp_avg f4 [20]
00000000: 595a 21ad e6cc b8ac 2737 a4ac 7ed5 0da8
00000010: be0c 2f2d 8cf7 9ea9 d2e5 a02c 5269 e0ac
00000020: de53 09ac 7c9e a52c e53a 79ac ae53 ab2c
00000030: 2be3 072d d2b6 852d 9ab1 a0a4 fb60 1823
00000040: ba3d 1dac 8d56 972c e6b6 e1a6 5e28 c62c
-9.171852e-12 -5.252343e-12 -4.6672835e-12 -7.873366e-15 9.950428e-12 -7.059552e-14 4.5729887e-12 -6.378156e-12
-1.9515427e-12 4.7071774e-12 -3.5417721e-12 4.8694026e-12 7.724303e-12 1.5201538e-11 -6.968981e-17 8.260473e-18
-2.2345307e-12 4.301287e-12 -1.5662086e-15 5.63198e-12

exp_avg_sq f4 [20]
00000000: 6000 8120 3fc8 9120 0bd4 b221 af11 9c19
00000010: e3dc 2d22 68fb 251e b888 2121 2839 e320
00000020: fca6 7921 aa1c cb20 db12 3920 b1bf 4e20
00000030: b2f7 f920 bb24 ad1f 03e7 a90f c9b0 680f
00000040: 7bc9 e41f a7c0 851e d243 c416 0bf7 2423
2.1853698e-19 2.4696467e-19 1.2117876e-18 1.6137164e-23 2.3562808e-18 8.787017e-21 5.472987e-19 3.8493119e-19
8.4585484e-19 3.4408506e-19 1.5676348e-19 1.7512304e-19 4.2346152e-19 7.3329115e-20 1.6753669e-29 1.1472531e-29
9.689508e-20 1.4161602e-20 3.1708308e-25 8.942771e-18

exp_avg f4 [2, 20]
00000000: 0400 0080 0400 0080 0400 0080 0400 0080
00000010: 0400 0080 0400 0080 0400 0080 0400 0080
00000020: 0400 0080 0400 0080 0400 0080 0400 0080
00000030: 0400 0080 0400 0080 0400 0080 0400 0080
00000040: 0400 0080 0400 0080 0400 0080 0400 0080
00000050: 7a8b 1f2e 542b 3f2e 9aa2 442e 9b0a d82d
00000060: 4058 8fad cba3 d72d a2dc 6c2c 6c21 222e
00000070: aa71 cf2d 5407 ac2c 5545 3f2e d60f b22c
00000080: 7ef5 9cad 8e74 872b d16c 5d25 eefa d72d
00000090: 4f42 cc2d 4707 302e 5b06 8326 3e1a c0ad
-6e-45 -6e-45 -6e-45 -6e-45 -6e-45 -6e-45 -6e-45 -6e-45
-6e-45 -6e-45 -6e-45 -6e-45 -6e-45 -6e-45 -6e-45 -6e-45
-6e-45 -6e-45 -6e-45 -6e-45 3.6276294e-11 4.3466855e-11 4.470966e-11 2.4561067e-11
-1.6296409e-11 2.4515409e-11 3.3660093e-12 3.686422e-11 2.3583652e-11 4.8893476e-12 4.348995e-11 5.0608224e-12
-1.7844167e-11 9.624677e-13 1.9205563e-16 2.4554105e-11 2.3221562e-11 4.002423e-11 9.091674e-16 -2.1839527e-11

exp_avg_sq f4 [2, 20]
00000000: f401 0000 f401 0000 f401 0000 f401 0000
00000010: f401 0000 f401 0000 f401 0000 f401 0000
00000020: f401 0000 f401 0000 f401 0000 f401 0000
00000030: f401 0000 f401 0000 f401 0000 f401 0000
00000040: f401 0000 f401 0000 f401 0000 f401 0000
00000050: 8e55 3821 b51b 6e21 e03b 1823 5664 cd23
00000060: ee0d 5d23 e7f1 cc23 2bd8 3b21 87c6 7121
00000070: 8df5 ad23 14e1 4a21 3945 7821 35b3 0421
00000080: 95bf b123 28a8 c223 ef82 2311 3b92 cd23
00000090: 860b ca23 1579 6323 dab2 0416 f22f 3923
7e-43 7e-43 7e-43 7e-43 7e-43 7e-43 7e-43 7e-43
7e-43 7e-43 7e-43 7e-43 7e-43 7e-43 7e-43 7e-43
7e-43 7e-43 7e-43 7e-43 6.2454856e-19 8.0674207e-19 8.2526155e-18 2.2268638e-17
1.1983384e-17 2.2220174e-17 6.364416e-19 8.1916725e-19 1.8860692e-17 6.873815e-19 8.4117284e-19 4.496052e-19
1.9271517e-17 2.1104739e-17 1.289878e-28 2.2288076e-17 2.1905764e-17 1.2331335e-17 1.0719311e-25 1.0039023e-17

exp_avg f4 [2]
00000000: 0400 0080 01fb d72d
-6e-45 2.4554138e-11

exp_avg_sq f4 [2]
00000000: f401 0000 6c92 cd23
7e-43 2.2288157e-17
