Multi-UAVs path planning/path planning/Path_SAC_actor_L.pth (torch, 833053 bytes, 24 tensors)

in_to_y1.weight f4 [256, 7]
000000 a2 de 9d 3f b4 74 9f bd 38 74 e1 be ee 04 1f 3f
       1.2333567 -0.07785931 -0.4403398 0.621169
000010 d0 36 1a bd aa bb cc be 7f 3b b7 3e 86 aa 91 3d
       -0.03764993 -0.39986926 0.3578758 0.07112603
000020 57 ad 48 3d 0b 92 50 bb 53 da e0 3d ae 52 20 bd
       0.048993435 -0.003182533 0.10979142 -0.03914135
000030 52 ef eb bd 13 73 09 3e 37 1c 57 3f c4 48 12 bf
       -0.11520256 0.13422804 0.8402743 -0.5714228
000040 31 d1 7c bf d6 d0 9c bd 5c 3a fe bd 95 90 d5 be
       -0.987567 -0.0765702 -0.12413475 -0.4171187
000050 75 4f 35 bc ca 65 d3 3e 72 ba 94 bf 16 7b 68 bf
       -0.011066307 0.41288596 -1.1619399 -0.90812814
000060 36 1f 09 bf 32 47 8d be 19 f5 8d be 3f d3 df 3e
       -0.5356325 -0.2759338 -0.27726057 0.43715855
000070 b0 91 2d bd cb 9e c6 bc dd 0d c4 3d 7f f7 26 be
       -0.042375267 -0.02424564 0.09572957 -0.1630535
000080 7f f1 3b bd 1c 06 47 3d 7a b2 2b be f5 5f 03 3e
       -0.045884605 0.04858981 -0.16767302 0.12829573
000090 81 40 ed bf 53 2e 1e bf c3 54 82 3e e4 65 ea be
       -1.853531 -0.61789435 0.25455293 -0.4578086
0000a0 3a 93 b0 be 41 d2 55 3e 0c 32 28 bf 0a 2c 0d be
       -0.34487325 0.20880987 -0.65701365 -0.13786331
0000b0 19 bd bf be ac 21 83 3e df c8 55 3d 6b a8 22 bd
       -0.37448958 0.25611627 0.05219352 -0.039711397
0000c0 dc 10 a2 3f a4 c0 6b 3f d2 4f 10 bf a7 3d e6 bd
       1.2661395 0.9209082 -0.56371796 -0.11242228
0000d0 21 9f 4a be 2d 6f 67 3e 2f 0e 03 3e b8 c6 f7 be
       -0.19787265 0.22601004 0.1279838 -0.48393798
0000e0 11 fe ca bd 06 db 1f be 2f 85 0e 3e 24 7a a4 bd
       -0.099117406 -0.15610895 0.13917993 -0.08031109
0000f0 44 d6 e4 bc 3f d6 33 3c 1f 68 04 3e 07 52 73 bf
       -0.027934201 0.010976373 0.12930344 -0.9504704
000100 e7 81 af be ca 0d 61 bf 8f a2 a4 3d c3 7d 03 bf
       -0.34278795 -0.87911665 0.08038818 -0.5136377
000110 07 a2 a1 be 85 ea 9f bd 27 6e 4f bd fb 27 f1 3c
       -0.3156893 -0.07808403 -0.05064216 0.02943801
000120 23 e4 81 3d 9c 62 06 be cb d5 14 be 4b 57 cc 3d
       0.06342342 -0.13123554 -0.1453468 0.09977587
000130 6f 35 07 be a7 dc 9d bd e9 1d fd 3c 69 80 d6 bd
       -0.13203977 -0.07708102 0.030898051 -0.10473711
000140 67 1b ec bd c7 c0 85 bc 93 11 90 be b4 97 01 3d
       -0.11528664 -0.016327275 -0.28138408 0.031638816
000150 86 89 aa 3e 6a cf a8 3f 3d 11 0e bf 70 62 af 3d
       0.33308047 1.3188298 -0.55495054 0.08563697
000160 85 6a a9 3c 9b 9a 8b be ee 84 70 bd ff bb cb bf
       0.020680675 -0.27266392 -0.05872052 -1.5916747
000170 ae 0f 66 bf cf 66 79 3e c5 6e 60 3f e1 d4 4d be
       -0.89867675 0.24355625 0.8766902 -0.20100738
000180 ef 6f 18 bf 3a 39 22 bf b9 a4 02 3f ac 13 ed 3c
       -0.595458 -0.6336857 0.51032597 0.028940044
000190 83 63 0b 3f 2b eb c3 bf f4 b0 2d 3e b9 72 78 be
       0.5444872 -1.5306143 0.16962034 -0.24262513
0001a0 d5 de c5 be 64 e8 ed bf 2f 9a 45 bf 78 af 1f bf
       -0.3864657 -1.8586545 -0.7718839 -0.6237712
0001b0 81 7c 23 3f fc af 4f be 7a 7f 59 be ac f8 dc 3d
       0.6386185 -0.20281976 -0.21240035 0.10789618
0001c0 58 89 3c be 85 bf 6b be 79 54 7b be 53 19 68 bf
       -0.18411767 -0.23022278 -0.24543943 -0.9066364
0001d0 bd d3 f1 be 66 42 94 be 8c b0 d0 3e f0 0f ef bf
       -0.47231856 -0.28956908 0.40759695 -1.8676739
0001e0 b4 c9 0d bf c7 8e 9b be 86 0b 59 be cb 24 89 be
       -0.553859 -0.30382368 -0.21195802 -0.26785883
0001f0 90 a5 84 bd 90 a9 ac 3d 06 7c 95 3f 07 d5 7e bf
       -0.06476891 0.08430779 1.1678474 -0.99543804
000200 c1 36 18 be 3e 1f 20 be ab a7 4c 3d 06 bb 1b 3e
       -0.14864637 -0.15636918 0.049964588 0.15208063
000210 18 ef ca be 4a c8 52 bc d2 96 18 bc 73 fd 99 3d
       -0.3963554 -0.012865135 -0.009313302 0.07519045
000220 33 f1 7f bd 3b 66 5f bd d4 96 41 be e7 4a 32 3d
       -0.062485885 -0.054540854 -0.18905193 0.043528464
000230 af b9 cf 3e 60 9b 0e 3e f6 aa 9c be 43 e0 8e bf
       0.40571353 0.13926458 -0.30599183 -1.1162189
000240 30 9e 40 bf 77 b1 e7 be 14 55 91 3e 57 1b 9d 3e
       -0.75241375 -0.45252582 0.28385222 0.3068492
000250 f5 7e bd bf 84 e9 8e bd b3 8b 51 3f 80 be fb 3d
       -1.4804369 -0.06978133 0.8185379 0.12292194
000260 f8 ab ea be 0b 3a 6e 3d d8 d9 db be 58 f3 17 c0
       -0.45834327 0.058160823 -0.4293964 -2.3742275
000270 fd 75 1d 3e 53 7c 76 3e 6c 52 98 3e 64 58 9d 3d
       0.1537704 0.24070863 0.29750383 0.07682875
000280 53 1d ad 3e 81 9b 91 bd 4d 71 2e 3d 4d af 1d 3c
       0.33811435 -0.07109738 0.04258852 0.0096243145
000290 15 31 0e 3d 56 20 8d bc 56 60 25 3e 9e a2 1d 3e
       0.034714777 -0.017227333 0.1615003 0.15394065
0002a0 f4 96 4e be b4 d2 e0 be a9 fb f1 be ef 89 12 bf
       -0.20174772 -0.43910754 -0.47262314 -0.5724172
0002b0 ee 48 ad be 92 33 5e be 8b 31 18 3f 12 93 eb bd
       -0.33844703 -0.2169936 0.59450597 -0.11502661
0002c0 c7 8d fe bb 2a 93 e0 bc 04 63 bb bd 4b db 5d 3d
       -0.007768366 -0.027413923 -0.09149745 0.054164212
0002d0 a7 62 b9 bd 19 da 9b 3c 53 26 5c 3f a3 7e da bf
       -0.090520196 0.019024896 0.8599598 -1.7069896
0002e0 ff 3e 3a 3f 54 9c af 3d 8d 9d a3 bd 13 e6 51 3e
       0.72752374 0.08574739 -0.07989035 0.20497923
0002f0 db ea ac be e1 80 32 bf 65 74 0b c0 a8 2d 61 3f
       -0.3377293 -0.69727904 -2.1789792 0.8796029
000300 3f 15 0a 3f 11 54 23 bd fc 7f 2d be 8d 78 0f be
       0.5393867 -0.039875094 -0.16943353 -0.1401083
000310 f0 33 44 bf 46 3f 8e 3f 69 59 8c bf d5 0f 89 bf
       -0.7664175 1.111306 -1.0964786 -1.0707957
000320 96 cc b8 be 97 02 fc be 6b 40 e0 3e be a0 d3 bf
       -0.36093587 -0.49220726 0.43799147 -1.653343
000330 1f e7 a2 be 69 71 9d 3d c1 8f c0 3e 62 78 a4 3d
       -0.31816956 0.07687647 0.37609676 0.08030774
000340 6a ae a4 3e 15 27 8f 3e 4e f2 b9 3d d1 29 94 bd
       0.32164317 0.27959505 0.09079419 -0.07234538
000350 ab 81 40 be 39 b1 13 be 2c 24 4f 3d a5 dd b7 bd
       -0.18799464 -0.14423074 0.050571606 -0.08977822
000360 8f 18 83 bd 04 c3 2a 3e a0 6c 51 bf b5 6b 81 3d
       -0.064011686 0.16675955 -0.81806374 0.063193716
000370 36 8f 2a c0 ea 5c d0 be a7 90 e6 be 89 94 73 3c
       -2.664991 -0.40695888 -0.45032236 0.0148669565
000380 54 8b bf bf 93 d3 99 3d 0b a1 23 bd 0d 5e a6 3e
       -1.4964395 0.07511058 -0.039948504 0.3249363
000390 ca 8d 6d be c6 0c 31 be e4 a9 36 be a3 30 9f 3e
       -0.2319862 -0.17290029 -0.17838246 0.31091794
0003a0 7b 0e 91 bf da d7 0f bf 76 9d 98 be 98 e7 b4 3e
       -1.1332544 -0.5618874 -0.29807633 0.35332942
0003b0 20 fd 8e 3e f3 ff e4 be 70 be f0 3e 7e aa af bf
       0.27927494 -0.44726524 0.47020292 -1.3723905
0003c0 db 59 a5 bc 9b a5 18 bf cc a7 a5 be 8c 40 b0 be
       -0.020184448 -0.59627694 -0.3235458 -0.34424245
0003d0 0b e0 98 3e 47 d0 cc bb 99 9d a4 3d 38 51 e9 3c
       0.2985843 -0.0062504145 0.08037872 0.02848111
0003e0 fb aa 6e be a0 d9 47 bc 9d 9c ac 3d 1a 7d 32 3d
       -0.23307411 -0.012197882 0.08428309 0.043576337
0003f0 ca f8 e7 bf bc 97 85 bf e0 75 c4 be 04 5f ed 3e
       -1.8122799 -1.0436931 -0.3837118 0.46361554

in_to_y1.bias f4 [256]
000000 58 49 2a bf 2a d2 ad be 53 34 2c 3e ce 1b 63 3e
       -0.66518164 -0.33949405 0.16816835 0.22178575
000010 ee 7c c1 bd 78 47 0d be 19 b2 fb bd 6a db a7 3e
       -0.094476566 -0.13796794 -0.12289829 0.32784587
000020 c4 9b b5 be 6e 0e b2 bd ce 95 4b be 09 9d 8e bd
       -0.35470402 -0.086941585 -0.19881365 -0.06963546
000030 6d de b9 be 8e 62 9c be 77 1f c2 be b9 62 0a be
       -0.3630251 -0.3054394 -0.3791463 -0.13514222
000040 22 5f 18 3d fb 9d 93 3b 99 9d 9e 3e 10 1c fe bd
       0.0372001 0.0045049167 0.30979612 -0.12407696
000050 83 7f 18 bf 7f a1 94 3d a3 74 3d 3e 90 34 6f be
       -0.5956957 0.072573654 0.18501525 -0.23359895
000060 6f 87 17 be 60 f6 79 be 08 06 85 3e 2d ca ae 3e
       -0.14797758 -0.24410391 0.25981164 0.34138623
000070 66 39 9a be 84 80 88 3e 24 5a 7f be d4 67 df 3d
       -0.30121917 0.2666055 -0.2493673 0.109084755
000080 f2 c7 56 3e fb 36 2e 3f 37 07 79 be 76 1f 8a be
       0.2097471 0.68052644 -0.24319158 -0.26977128
000090 ea 49 a0 be 06 5b be be e3 63 55 be 69 fc 0d 3f
       -0.31306392 -0.3717882 -0.20838885 0.5546327
0000a0 e7 23 ed be db b8 8b 3e a3 9e 6d 3d 09 99 4b 3f
       -0.46316454 0.2728947 0.058012616 0.7953039
0000b0 15 fa 1f bf e5 56 26 be 50 86 85 3e 5c e3 50 3e
       -0.6249097 -0.16244085 0.26079035 0.2039923
0000c0 47 f6 79 3e a9 bb 09 3d 88 92 43 3e 6e e6 9c be
       0.24410354 0.033626232 0.19098866 -0.30644554
0000d0 f3 08 a5 3e 17 bf d0 3e 50 c6 18 be 71 ca 86 be
       0.3223339 0.4077079 -0.149194 -0.26326326
0000e0 8c 2c d5 bd 78 62 29 3f b0 6d a1 be 2f 97 9b be
       -0.10408887 0.66165876 -0.31528997 -0.3038878
0000f0 5e 44 08 3f eb 24 f6 bc 22 c1 4b bd e6 80 0b ba
       0.5322932 -0.0300469 -0.049744733 -0.00053216366
000100 f2 7b 88 be c7 d4 4a be ac 04 a2 3d b1 85 da 3d
       -0.26657063 -0.1980773 0.07911047 0.10670031
000110 42 9e 93 be 4c d2 d3 bc 83 44 e7 be 0d f1 27 3f
       -0.2883168 -0.025857113 -0.45169458 0.6560219
000120 28 bb a8 bc b3 89 81 be 0f bb 21 bd 1a 0b 92 be
       -0.020597056 -0.2530037 -0.039485034 -0.28524095
000130 5e e2 8b 3c 04 7f 98 3e d6 09 93 be 4e 49 6d be
       0.017075714 0.29784405 -0.28718442 -0.23172495
000140 dc 5b 32 3e ae 8f f0 bd 9c 99 46 3e 53 1d f8 bc
       0.17417854 -0.11746155 0.19394535 -0.03028742
000150 88 d3 ba 3e c2 57 75 be 3a ca 85 be 46 c4 d8 3c
       0.3648951 -0.23959258 -0.2613085 0.026460778
000160 c6 13 90 be 3b 60 41 bd 28 42 5f 3e 97 f5 92 be
       -0.28140086 -0.047210913 0.2180258 -0.28702995
000170 bd 4c 15 bf c5 05 21 bd 82 b2 a9 be f1 0f 6c be
       -0.5832022 -0.039312143 -0.33144003 -0.23052956
000180 e9 fd 16 3e 7c 47 9d be 21 65 5d be f9 de 51 3e
       0.14745297 -0.307186 -0.21620609 0.20495214
000190 0f c3 39 3e 08 9a d8 3d 03 a1 9d be a3 00 a0 be
       0.18140815 0.10576254 -0.30786905 -0.31250486
0001a0 3b 4d 67 be 91 b6 d0 3e 45 5f bc bd dd f1 57 be
       -0.22588055 0.40764287 -0.09197859 -0.21088357
0001b0 9c 01 06 bf 71 cb 37 be d8 fc 2f be 53 62 5a bd
       -0.52346206 -0.179487 -0.17186296 -0.053316426
0001c0 95 2f 82 be e7 0f 29 bf ca 19 66 3e 94 7d c1 be
       -0.25426927 -0.6603989 0.22470775 -0.3779112
0001d0 c4 4e 9e be 27 7e 60 be 84 2a 20 3f 22 60 b0 be
       -0.30919468 -0.21923123 0.62564874 -0.34448344
0001e0 d8 a3 1a bf 9d 2f 97 be 51 e8 86 bd 8a 14 24 3d
       -0.60406256 -0.29528514 -0.065872796 0.04005865
0001f0 3e e1 fc be c8 2f cb be b7 2d 90 be 0f d3 c6 bd
       -0.49390596 -0.39684892 -0.28159878 -0.09708225
000200 3a 05 00 bf 3f 4a 93 be 1c 81 0b be 4b 9d 27 bf
       -0.50007975 -0.28767583 -0.1362347 -0.65474385
000210 3b 2e 86 be 5e 70 dd bc fd d2 94 3e 70 15 01 3e
       -0.26207146 -0.02703112 0.2906722 0.12605834
000220 cf 79 93 be 3c 10 d4 ba dd f0 8b 3e 52 2f e7 3e
       -0.2880387 -0.0016179155 0.27332202 0.4515329
000230 a4 1e de be e6 fb 39 bd 6c 5f df be 4c 9a e1 bd
       -0.43382752 -0.045406245 -0.4362749 -0.11015758
000240 9b cb a7 be cd 03 72 3e 69 45 01 3f 59 4c 80 3d
       -0.32772526 0.23634262 0.50496536 0.06264562
000250 bd d3 87 be 4b ef 81 be 36 a7 ed 3e 39 dc 72 be
       -0.2652873 -0.2537788 0.46416634 -0.23716821
000260 19 d9 dd 3e 3d 9a d2 bc fe 10 22 be 07 34 de bd
       0.43329695 -0.025708312 -0.15826795 -0.10849767
000270 10 b7 b1 be 92 47 c1 be 7f 33 9e 3e 17 f0 52 be
       -0.34709978 -0.37749916 0.30898663 -0.205994
000280 ff c6 d7 3e bd e0 2f 3f ae ea 84 3e ba 51 7c be
       0.4214401 0.687023 0.25960296 -0.24640551
000290 ba a0 a0 3e d7 7d 5b 3e 4a 65 32 be b2 e2 25 be
       0.31372625 0.21434723 -0.17421451 -0.16199759
0002a0 0c eb b3 be 0b ee 17 3f ce d4 1b bf 49 ca b5 be
       -0.35140264 0.593476 -0.6087159 -0.35505894
0002b0 73 3b 0a bd 7c c7 c7 be e2 ce b5 be f3 25 bd 3e
       -0.0337481 -0.39019382 -0.35509402 0.36943015
0002c0 88 f7 52 3e be f1 2b bc b1 18 93 be 26 1b 4f 3d
       0.20602238 -0.010494648 -0.28729776 0.050563
0002d0 8d f1 bd be 5f 40 32 be b1 47 95 3e 21 ad ad 3e
       -0.3709835 -0.17407368 0.2915626 0.3392115
0002e0 b5 08 bf be 8a dd bf be 3d 73 15 bf 93 6a d2 3d
       -0.3731133 -0.37473708 -0.58378965 0.10274234
0002f0 ad 69 69 be bd a8 81 be e7 de 97 bc 21 1d a4 be
       -0.22794218 -0.2532405 -0.018538905 -0.32053474
000300 ec 40 17 3f a2 03 fb be ae 88 62 be 15 37 c3 3e
       0.5908344 -0.4902621 -0.22122452 0.38127962
000310 a9 07 69 3d 4a 96 5b be e2 be 86 be 8c c2 a3 be
       0.05689207 -0.2144405 -0.26317507 -0.31984365
000320 50 88 1a 3f 3a 1b 8b be 98 5e 80 be 96 65 18 3c
       0.60364246 -0.2716921 -0.2507217 0.009301564
000330 70 24 a3 bd 93 3b 9e be 35 67 23 be c7 80 c2 be
       -0.07965934 -0.30904827 -0.15957339 -0.37988874
000340 42 93 81 be 60 42 83 3d f2 a3 9c 3e aa b1 a9 be
       -0.2530766 0.064091444 0.3059383 -0.3314336
000350 7b fa 1f bd be 2f 50 be 76 6b 98 be f6 bf c5 be
       -0.039057236 -0.20330712 -0.29769486 -0.38623017
000360 43 bd 16 be 28 e7 85 3d 53 3a 09 3f a1 b8 9c be
       -0.14720635 0.0653823 0.5360462 -0.3060961
000370 53 54 18 3f 2b 6c 1c be 69 89 f1 3e 11 48 29 3e
       0.5950367 -0.15275638 0.47175148 0.16531397
000380 a6 28 bd be 2d 1d 0d 3f 12 b6 d4 3d bd 69 15 be
       -0.36945075 0.55122644 0.1038629 -0.14591117
000390 0d fb 3b be 38 84 ab be 74 e3 87 be c9 17 89 bd
       -0.18357487 -0.33499312 -0.2654072 -0.0669399
0003a0 e2 1a b6 be c2 8e d0 3e 45 ff 3a 3f f8 13 c3 be
       -0.35567385 0.40733916 0.7304576 -0.38101172
0003b0 bf 3c 51 be d2 db ad be dd 89 d5 be 3f c6 d8 3e
       -0.20433329 -0.33956772 -0.41706744 0.4233875
0003c0 ab 13 a4 be f8 7d 9d be c0 f7 d5 bd f6 71 25 be
       -0.32046255 -0.3076017 -0.10447645 -0.16156754
0003d0 07 ab 8f be 76 32 88 3d 09 c1 2b bf f0 cb be 3e
       -0.2806017 0.0665025 -0.67091423 0.37264967
0003e0 cf f8 8d bd 1d 57 9f 3e 6a e6 af be b3 92 cc 3e
       -0.06932222 0.3112115 -0.3435548 0.39955673
0003f0 d6 27 50 3e cb e1 05 be 9b 50 6d be c0 cc 11 bc
       0.20327696 -0.13074414 -0.2317528 -0.008898914

y1_to_y2.weight f4 [256, 256]
000000 5f 57 5d bf 7b bb a4 bd 7d e4 61 be b1 f6 ef bd
       -0.8646144 -0.080435716 -0.22059818 -0.117169745
000010 18 bf 65 3d dc 89 fd be 1e bc 4f bf 3d db 73 3c
       0.056090444 -0.4951924 -0.8114642 0.014883813
000020 c0 23 b8 bd 97 b1 72 3d ca 63 e8 39 6a 16 bd 3d
       -0.08991194 0.059251394 0.00044324837 0.09232791
000030 51 b9 2d bf da 23 ca bd f2 14 12 bd fc 3a f1 be
       -0.67860895 -0.098701194 -0.035664506 -0.47115314
000040 80 8f 12 be 5c ce 89 3e f9 fd 09 bf 0d ab 21 bd
       -0.14312553 0.26915252 -0.53903157 -0.039469767
000050 92 02 66 bf 41 4c 82 bd 88 9e f7 bd 74 a4 85 bd
       -0.8984767 -0.063622005 -0.12090784 -0.065255076
000060 05 fe 8e 3d 77 04 b4 3c af 75 7c bd 61 1d 81 3e
       0.06982044 0.021974785 -0.06163567 0.25217727
000070 88 16 0a be b8 15 74 be 09 be bd 3d ab 93 f9 3d
       -0.13485157 -0.2383641 0.09264762 0.121863686
000080 a2 ba 20 bd 80 71 e8 bd 05 0d 7a bd c4 02 c6 bd
       -0.039240487 -0.113497734 -0.061047573 -0.09668496
000090 a7 d5 ad be 14 80 81 3e 1f 3f b6 bd c1 3e 01 be
       -0.33952066 0.25293028 -0.08898758 -0.12621595
0000a0 1e 79 c8 bd 85 28 37 3d c3 95 95 be 30 a9 7d be
       -0.09788726 0.044716377 -0.29215822 -0.24771571
0000b0 88 e3 8c 3e 95 6d d1 bd 5f 99 16 bf fa 02 0e be
       0.27517343 -0.10225979 -0.58827776 -0.13868323
0000c0 25 14 cf 3d 11 b4 94 bd a3 7c 56 be 63 b1 e1 3b
       0.10111264 -0.072609074 -0.20945983 0.006887601
0000d0 a2 85 f0 3d 52 8b 87 bd c9 aa 3d 3d 24 8d 04 be
       0.117442384 -0.0661837 0.04630545 -0.12944466
0000e0 fa af 9f 3d df d0 12 3e 70 46 1d 3d d0 eb 80 bd
       0.07797237 0.1433749 0.038397253 -0.06294978
0000f0 8c 8e cc be 93 57 a3 3d 67 fb 99 3c f1 5b 22 bd
       -0.39952505 0.07975688 0.018796636 -0.039638463
000100 61 7a c3 3d b2 e3 31 3e b7 59 a0 be 7c 57 1c be
       0.09544826 0.17372015 -0.31318447 -0.15267748
000110 7f dc 42 be df 81 42 3e 33 f2 b5 be 18 bc a5 3e
       -0.19029425 0.18994854 -0.35536346 0.32370067
000120 c8 25 3d be ff 3a de bd c8 25 79 3c 76 76 bb 3d
       -0.18471444 -0.10851096 0.015206762 0.09153454
000130 1a e3 06 bf ec 39 66 be 63 b1 8d bd f0 98 37 3e
       -0.5269028 -0.22483033 -0.069185995 0.17929435
000140 16 34 56 bd 87 58 d8 bd 5d 1f b6 bd ea 4d 02 3e
       -0.052295767 -0.1056376 -0.08892701 0.12725034
000150 07 11 b7 3d c5 43 12 bf 66 fb 4e bd 00 9f c9 bc
       0.089387946 -0.5713466 -0.05053272 -0.02461195
000160 e7 83 93 bd 52 7c ee bc 35 28 e2 bc 73 6b 76 be
       -0.07202893 -0.029112015 -0.027607063 -0.24064426
000170 6e 1d 8d be b9 36 34 3e 1a 05 19 bc 41 35 61 bc
       -0.27561516 0.17599 -0.009339595 -0.013745607
000180 01 10 b7 be df e0 37 be b8 39 6b be 17 68 b4 3d
       -0.35754398 -0.17956875 -0.22971237 0.08808916
000190 34 fc 00 bf 36 f1 87 3d c6 94 21 be 11 f5 2e 3e
       -0.5038483 0.06637804 -0.15779409 0.17085673
0001a0 2d c4 ab 3b 8c eb 25 bf 69 9a 32 3e ee 89 2d 3d
       0.005241892 -0.6481254 0.17441715 0.042367868
0001b0 77 83 0b bf a2 02 52 bd 7b 9e 81 be e4 78 66 3e
       -0.54497474 -0.051272042 -0.25316224 0.22507054
0001c0 fb e8 0c 3e 43 90 84 bf 40 33 4f 3e 2f 6b c1 bc
       0.1376075 -1.0356525 0.20234394 -0.02361068
0001d0 46 53 86 bb 6b 17 64 3e 4a 71 9e 3e bb e7 a8 bc
       -0.0040992824 0.22274558 0.30945808 -0.02061831
0001e0 52 f0 0d bf 72 97 82 3d ee 2e ad 3d 82 14 c4 be
       -0.55444825 0.06376542 0.08456217 -0.38296896
0001f0 ec 6b 4f bf 5d 42 9c be eb 2e 8a 3e 92 c2 be be
       -0.8102405 -0.3051938 0.2698892 -0.3725782
000200 8e e5 ba 3d 2a 90 78 bf 01 32 0b 3d 39 99 24 bf
       0.09125815 -0.97094977 0.033983234 -0.642963
000210 6b 31 d3 be 58 43 25 3e 06 8a 08 be 58 51 cf be
       -0.4124864 0.16138971 -0.13333902 -0.40491748
000220 95 c5 56 bd 0d 5a bf be f6 6a 46 3b 8d 86 ce 3d
       -0.052434523 -0.3737339 0.0030276156 0.10084257
000230 b9 97 54 3c 43 86 09 be c2 96 5c be 3e 81 14 bc
       0.012975627 -0.13430123 -0.21541885 -0.009064017
000240 17 9e 0c 3d 1a a2 8a bd 44 b5 22 bd 66 7f bc be
       0.034330454 -0.067692 -0.03972365 -0.36815947
000250 aa 98 6c bf 7b 77 e8 3b 62 74 69 be fd d9 c2 bc
       -0.92420447 0.0070943213 -0.22798303 -0.023785586
000260 4c 3f a6 3e 85 cf 90 bd 36 f8 f5 be 9b c8 c8 3d
       0.32470167 -0.07070831 -0.48040932 0.098038875
000270 8c 8c 16 3e 65 1c 5d be d1 3b d5 bd 20 f8 13 3e
       0.14702052 -0.21592863 -0.104118 0.14450121
000280 f9 5d 98 be fa 5b 01 3d 9d 86 c5 bb 18 95 4b 3a
       -0.29759195 0.031581856 -0.00602801 0.0007766052
000290 aa d9 ee be 3b d5 cb bc f9 97 38 3e 62 09 70 3d
       -0.4665044 -0.02488195 0.18026723 0.0586027
0002a0 7e 5c a2 bd 18 cf 2a be c8 d7 d2 bd 9e 30 85 3e
       -0.07927798 -0.16680562 -0.10295063 0.26013654
0002b0 51 1d e3 be 6c b7 e4 be c8 ab 55 be d7 de 72 be
       -0.44358304 -0.4467119 -0.2086631 -0.23717819
0002c0 4e e7 9a be c2 78 57 3e 7a a9 91 3e 6f 00 4b 3c
       -0.30254596 0.21042159 0.28449613 0.01239024
0002d0 d5 cb 3d bf 7f da c6 be 4d 84 25 3e db c2 f5 be
       -0.7413915 -0.38838574 0.1616375 -0.48000225
0002e0 6d 4a 57 3e 94 8c 6a be 34 28 0e be 3e eb 8a be
       0.21024485 -0.22905189 -0.13882524 -0.271326
0002f0 3f 4f ce 3d 38 57 05 3d 3e ee ce be c6 ff 3a bd
       0.10073709 0.03255388 -0.4041614 -0.04565408
000300 ec ed 13 bf b1 10 c8 bc 92 54 2d be b3 62 53 3e
       -0.57784915 -0.024422022 -0.16926792 0.2064312
000310 44 b9 fe 3d 60 40 fd bc a8 1b 6e bd fa da dc bd
       0.1243768 -0.030914485 -0.058131844 -0.10783954
000320 13 27 27 bf eb 49 c4 3b 2f cb b0 3d ff bc b4 3d
       -0.65294 0.005990257 0.08632504 0.08825111
000330 b2 0a 50 bd 3e 30 97 bd 62 ae f4 bc bb b1 19 3d
       -0.05079145 -0.07382248 -0.029868308 0.037523013
000340 16 42 80 3d f1 36 4a bc da 48 e3 bd 03 04 3a be
       0.06262605 -0.012342201 -0.1109788 -0.18165593
000350 f3 31 ad be 93 73 cb bd b0 8c 05 be c8 dd 27 bf
       -0.3382717 -0.099341534 -0.1304195 -0.65572786
000360 eb ad 76 3d 9f 2f 9d be 49 50 3b 3e 15 2c f4 bb
       0.060224455 -0.30700395 0.18292345 -0.007451544
000370 18 80 9e 3c 35 26 a4 3d f5 b5 b1 bd ed 05 12 be
       0.01934819 0.080151 -0.08677284 -0.14260073
000380 b8 24 dd be 70 6e 06 bf 9b bb 7b 3d b7 5a 84 be
       -0.43192077 -0.52512264 0.06145821 -0.2585046
000390 68 85 78 ba b9 e5 fd be 57 ce 6c 3e d8 9a 21 3e
       -0.00094803283 -0.49589327 0.23125587 0.15781724
0003a0 38 2c c9 be 0f 2a 1a bd 27 f3 bc be 00 a2 87 be
       -0.3929155 -0.037637766 -0.3690426 -0.26490784
0003b0 6a 7a 1c bd 14 f2 91 3c d7 77 83 be c5 f4 bd 3e
       -0.03820268 0.017815627 -0.25677368 0.37100807
0003c0 2e d9 d3 3c 45 d4 11 be d7 64 52 be 67 bf 35 bf
       0.025860395 -0.1424113 -0.2054628 -0.7099518
0003d0 63 00 24 3d c9 5a 93 bc 34 ff 6f bf 76 5e 2f bf
       0.04003943 -0.017987626 -0.93748784 -0.6850351
0003e0 a2 6c 59 3d d2 c9 b3 be 5f c8 fe bd 57 06 7f 3e
       0.053082116 -0.35114914 -0.124405615 0.24904762
0003f0 c1 34 fb be 90 ac 8f bd 96 5e c6 be 19 56 f2 bc
       -0.49063686 -0.070153356 -0.38744038 -0.02958207

y1_to_y2.bias f4 [256]
000000 a5 c7 e0 bc 2c 2e 6a bd bf bd b0 bd 18 68 ba 3d
       -0.027438948 -0.05717294 -0.08629941 0.091018856
000010 73 9c 15 be 3d 75 ee 3d 68 10 85 3c da f4 a4 3e
       -0.14610462 0.11643455 0.016243175 0.32218057
000020 c7 50 08 be a7 b0 a8 3e 8c cc f7 3d dd 53 3e be
       -0.13312064 0.32947275 0.12099561 -0.18586679
000030 74 c5 b7 bd e6 17 f5 bd c9 63 76 3f f9 44 d8 bd
       -0.08973208 -0.11967449 0.9624601 -0.105600305
000040 4e 1a 8b be f1 62 2a bf 15 b6 9d bd e7 8b 93 be
       -0.27168506 -0.6655722 -0.07700745 -0.28817675
000050 44 14 97 3c 75 bc 82 be 16 78 ac be e1 5d 2b 3d
       0.01844228 -0.25534406 -0.33685368 0.041837577
000060 58 a5 66 bd 57 4d 26 be 0b fb cd 3d 06 93 53 bd
       -0.056310028 -0.1624044 0.10057648 -0.051653884
000070 d9 08 10 be bc 09 72 3d 4b f8 9e bd 89 98 d6 bd
       -0.14065875 0.059091315 -0.07762202 -0.104783125
000080 9f 81 c6 be 32 f9 78 3e ea b4 9e bd 56 74 ce 3e
       -0.38770768 0.2431381 -0.0774935 0.40323132
000090 6a 0a 9d bd 1e 44 d3 3e 2e f3 94 bc 73 f5 48 bc
       -0.07668002 0.41262907 -0.018182363 -0.012265551
0000a0 66 29 45 be cc ca 8b bd 9c 8e f6 bc e8 2a 1b be
       -0.19254074 -0.0682579 -0.030097298 -0.15153086
0000b0 3f 8b 2d 3d cf 5f ed 3d 89 8e 7c 3c dc be da bd
       0.042369124 0.1159054 0.015414842 -0.10680935
0000c0 19 90 6e 3e c5 69 19 bd 98 b8 0e be f3 e3 bb bd
       0.23297156 -0.037454385 -0.13937604 -0.09174337
0000d0 8b b6 81 3e 3e 3c 87 be c5 a4 c1 3d 60 82 fd bd
       0.25334582 -0.2641315 0.094552554 -0.12378383
0000e0 80 7f 96 be 87 b6 a8 3c 33 25 03 3e 72 a5 11 be
       -0.2939415 0.020594848 0.12807159 -0.14223269
0000f0 c0 0c a9 be 9a 1f 00 3d d3 28 58 3e a8 fd d7 bd
       -0.3301754 0.031280138 0.21109323 -0.10546428
000100 5b a9 e5 bd ad 9a 52 3e 43 28 f7 be 91 95 93 3d
       -0.112139426 0.20566817 -0.48272905 0.07206262
000110 fd 4a cf bd ea 88 01 bf 04 11 56 bd a6 28 9d 3e
       -0.10121725 -0.5059954 -0.05226232 0.30695075
000120 d5 b9 06 bd f1 8f 36 bc 2d 69 94 bd 4d f6 c7 3e
       -0.032892067 -0.011142717 -0.07246623 0.390551
000130 74 19 12 3d bf 3e 18 be b3 26 2f bd d6 2a 81 3c
       0.035668805 -0.14867686 -0.042761516 0.015767496
000140 bb 56 3e 3e 94 c4 a9 bd 20 34 cf bb cc 46 d6 bd
       0.18587773 -0.082894474 -0.0063233525 -0.10462722
000150 33 d5 2e bd 08 f9 17 3f f1 9b 2b be 25 14 7e bc
       -0.04268379 0.59364367 -0.16758706 -0.0155077325
000160 8a e8 06 be ca 15 d3 bd e1 1f 4b bd 46 bf 48 3e
       -0.13174644 -0.1030689 -0.04959095 0.19604215
000170 7d 1d 1b be c8 04 bf bd 00 f7 c9 bd 92 b7 2d 3e
       -0.15147968 -0.09327084 -0.09861565 0.16964558
000180 3c 7f 0d be b1 89 e9 be 3b a9 06 bf 3b 73 68 bd
       -0.13818067 -0.45612863 -0.52601975 -0.056750517
000190 a4 f7 d2 3d 64 47 6a 3e 52 1f 10 bd b2 41 10 be
       0.1030114 0.22878796 -0.03518612 -0.14087561
0001a0 ff 5c 94 3e 05 b5 5a be cb 03 df 3d 90 35 e8 3c
       0.289772 -0.21358116 0.10889395 0.028345853
0001b0 fe cb 06 3d 2b 50 0e be 5e 8d f1 3c 7f 56 1b 3f
       0.032909386 -0.13897769 0.029486354 0.6067886
0001c0 3c 5f 09 be c5 c6 ac bd 26 5c c6 bc bd 45 d7 bd
       -0.13415235 -0.0843635 -0.024213862 -0.105113484
0001d0 6a fd 58 3e 46 23 f5 bd 3c da 17 3f c9 1f b9 bd
       0.2119042 -0.119696185 0.59317374 -0.09039266
0001e0 18 3a 72 bd e9 58 54 be bd 64 14 bd 97 0a 83 be
       -0.059137434 -0.20737042 -0.036228884 -0.25594017
0001f0 11 39 4a bd 86 d1 a2 be 39 66 25 3e b2 3e fa ba
       -0.04937083 -0.3180048 0.16152276 -0.0019092171
000200 c1 d8 b3 3d 31 16 09 be 4c 52 4e 3e 6f a3 a0 bd
       0.08781577 -0.13387372 0.20148581 -0.078436725
000210 5b 46 63 bb 54 7d 6f 3e 10 f8 da 3d 95 e6 ab bd
       -0.0034679386 0.23387653 0.106918454 -0.083935894
000220 ce 7e d7 bc fb fd 8a 3e 43 bb d7 bd a8 a7 6d be
       -0.026305582 0.27146897 -0.10533764 -0.23208487
000230 19 33 ce bd b5 1f 07 3e 59 4f 97 bd 46 6e 32 3f
       -0.1006834 0.13195689 -0.07388181 0.69699514
000240 4d 7c 41 bd 94 3a bf 3d 73 a6 ef bc a2 77 ee 3b
       -0.047237683 0.09337345 -0.029254174 0.007277445
000250 30 76 93 3e d3 43 8d bd 8d 4a 4a be 90 f8 43 be
       0.28801107 -0.06897702 -0.19755001 -0.19137788
000260 07 a4 9b bd 5e d7 a6 be 90 9d 81 bc 44 5a 22 3d
       -0.07599645 -0.32586187 -0.015822202 0.039636865
000270 1a 9c 9a bd 98 49 ae bd 4e 8b e4 3d 94 d0 48 3d
       -0.07549305 -0.08510131 0.11159383 0.04902704
000280 bd 39 ea bc e5 91 71 be ca 58 81 3e 49 07 03 be
       -0.028591985 -0.2359081 0.25263053 -0.12795748
000290 3b c9 ef 3d f7 a1 14 3f 84 98 9d 3e 3d 6a 94 3e
       0.117083035 0.5805964 0.30780423 0.28987303
0002a0 f8 20 b6 be 82 2e 9d bd 3e 48 ec be 54 f8 b2 bd
       -0.35572028 -0.07674886 -0.46148866 -0.08738771
0002b0 91 ab 02 be 9b f0 09 be f9 21 b5 bd b6 89 ec bd
       -0.1276076 -0.1347069 -0.088443704 -0.11549704
0002c0 f4 28 86 bd 4a 30 26 3e f6 31 d3 bd ec dd 9b 3b
       -0.0655078 0.16229358 -0.10312264 0.0047566798
0002d0 68 20 f9 bd 5c 54 4d be c7 f4 2a be ca 38 b9 bd
       -0.12164384 -0.20051712 -0.16694938 -0.09044035
0002e0 db 99 36 be 0a 44 9a bb 76 51 b1 bd 0b 44 c0 3e
       -0.17832129 -0.004707818 -0.086581156 0.37551913
0002f0 75 ed 2a be d9 a3 e4 3d 79 04 50 3e 3b f6 fa bd
       -0.16692145 0.11164064 0.20314206 -0.12253996
000300 ad f7 20 be cc ef 4a 3f 46 5b 44 3f d1 ff d5 3e
       -0.15719481 0.7927215 0.7670177 0.41796735
000310 77 92 99 be 4d 7d 16 3e b3 bb 3d 3c cd dd 8a bd
       -0.29994556 0.14696236 0.0115803955 -0.067805864
000320 15 b9 22 be 69 51 9b 3e a4 f5 86 be a9 43 5d bd
       -0.15890916 0.3033555 -0.26359284 -0.054019604
000330 e4 50 35 3f 0c 08 4e 3f c3 ae 12 be ad b8 f0 3d
       0.70826554 0.8048103 -0.14324479 0.11753974
000340 ec b1 eb 3d 28 fb 8c 3e a6 aa 5d bd 03 69 a7 bd
       0.11508545 0.27535367 -0.05411782 -0.08174326
000350 17 aa e4 3e 39 13 ed bd fe 94 e1 bb 40 20 13 be
       0.44661018 -0.11575932 -0.0068842163 -0.14367771
000360 30 d0 2b 3d 18 2b 21 3e 2a a6 8c bd 72 fd 66 3e
       0.04194659 0.15739095 -0.06867631 0.22557619
000370 16 db 9d bd 96 e0 47 3e 77 cc 09 3e 6c f8 9a bd
       -0.07707803 0.19519266 0.13456903 -0.07566914
000380 2d 48 06 bf 2f 0b 92 3e 28 06 1d bd 16 90 21 bc
       -0.5245388 0.28524157 -0.03833595 -0.009861013
000390 14 52 d8 be 66 42 87 bd 23 15 fd 3b 01 f1 99 3d
       -0.4225012 -0.06604461 0.007723467 0.07516671
0003a0 74 4d 87 3e ee df 0a 3d a7 c2 74 3e cd f2 78 bf
       0.2642628 0.033904962 0.23902379 -0.97245485
0003b0 e1 6d ea 3e 02 17 df 3d 16 6f dc bd f5 32 c9 bd
       0.45786956 0.1089306 -0.107633755 -0.098241724
0003c0 93 68 cd bd 54 4e cb bd 21 5e ae be c0 3f 18 bd
       -0.100297116 -0.09927049 -0.3405619 -0.03717017
0003d0 01 e5 93 3e 82 97 4c be a8 ca d4 bd e1 30 8b 3d
       0.28885654 -0.1997967 -0.10390216 0.06796432
0003e0 3a 81 85 bd fa ec 85 be 58 bf db 3d ed c9 32 3e
       -0.06518789 -0.2615736 0.10729855 0.17459841
0003f0 44 10 49 be cd 7a 04 be c9 4a 81 bd 13 3f 0f 3e
       -0.19635111 -0.1293747 -0.06313092 0.13988905

out.weight f4 [2, 256]
000000 67 4a 88 be 4e e4 eb bd cf 98 fe 3d e8 b2 d9 be
       -0.26619264 -0.11518155 0.1243149 -0.42519307
000010 fb 34 66 bd 62 89 33 be f7 db 0e 3f 27 dc 50 bf
       -0.05620287 -0.17532876 0.5580439 -0.81585926
000020 a2 65 9a 3f 09 3a 21 bf 87 ee 34 3f 94 1a e4 3e
       1.2062266 -0.6297918 0.70676464 0.44551528
000030 12 f6 f2 3d 95 8d 44 bd db 8c 23 c0 e8 70 bd bd
       0.118633404 -0.047986586 -2.5554721 -0.09250051
000040 83 8c 80 be 0c 9d 1d 3f 17 36 28 bd ef d3 a4 3e
       -0.25107202 0.6156776 -0.04106721 0.32192943
000050 8e fd cd 3e a2 89 31 3c 18 f5 49 3f 05 79 4e 3d
       0.4023251 0.010836037 0.7888961 0.050408382
000060 6d 15 cb 3d f6 36 12 3c f6 81 19 3f c0 8c 81 3e
       0.09916196 0.0089242365 0.5996393 0.25302696
000070 97 ce 13 be cb c1 f8 be 2e fc 80 3c c9 be 09 3e
       -0.14434277 -0.48585352 0.015745249 0.13451685
000080 a1 27 84 bf f9 3e 12 3e 12 49 b6 bd 58 52 0c bf
       -1.0324594 0.14281835 -0.08900656 -0.54813147
000090 c5 f6 66 3b fa 48 1a bf c9 ac a3 bf 96 53 86 bf
       0.00352423 -0.60267603 -1.2787105 -1.0494258
0000a0 41 62 8c bc 6a e5 30 bd 91 96 e4 3c 6c 8f b9 3b
       -0.017136695 -0.043187536 0.027903827 0.005662849
0000b0 f4 9f 80 bf 26 17 2f 3b 22 11 d2 be f6 44 55 bf
       -1.0048814 0.0026716678 -0.41028696 -0.8330835
0000c0 2e 6e 7c bf 1a dc 3d bb c5 a5 21 bd e7 03 80 3f
       -0.9860562 -0.0028970302 -0.03946473 1.0001191
0000d0 c1 fa 70 3d 18 a9 03 40 1b b7 10 3f b0 80 60 be
       0.058832888 2.0571957 0.56529397 -0.2192409
0000e0 5d db cd be 50 97 bd bf 7e 7e 40 3f 22 47 44 bc
       -0.40206423 -1.4811802 0.7519301 -0.01197985
0000f0 c9 54 37 3e 15 10 de be 26 c8 d7 3d 31 c4 87 3d
       0.17903437 -0.43371645 0.10536222 0.066292174
000100 12 03 09 3e 9b b2 11 3e 93 c1 c3 3e 12 fc 21 bd
       0.13380077 0.14228289 0.38233623 -0.039547034
000110 2c d7 3c 3e 31 b7 2e 3e bb c3 00 bf da 4b 00 3f
       0.18441457 0.1706207 -0.5029866 0.5011574
000120 ab 0d b6 bc 79 50 42 bf 52 9c 8b 3d 48 08 3b bf
       -0.022223314 -0.7590404 0.06816925 -0.7305951
000130 3a 2d aa 3e b1 1f 59 bc bf 41 0d 40 d6 00 d3 3f
       0.3323763 -0.013252185 2.2071378 1.648463
000140 46 24 f9 3f f0 d8 ed 3c 98 94 39 3f 84 1a 9b bf
       1.9464195 0.029034108 0.7249236 -1.2117467
000150 4d d8 8f 3d b7 a3 53 40 77 a1 4d be 4b 1d 8c 3e
       0.07023678 3.3068674 -0.20081125 0.273661
000160 27 33 f5 bd 98 cb ac 3d e1 a5 17 be 1d 3e 9d 3c
       -0.11972647 0.0843727 -0.14809372 0.019194657
000170 72 44 d2 3e 56 b0 99 3d f2 c6 25 be 32 6d ac be
       0.41067845 0.075043365 -0.16189173 -0.3367706
000180 78 86 44 bd 83 cb 73 3e 2d 6e 7a 3e d4 34 d5 3e
       -0.047979802 0.23808102 0.24456091 0.41641867
000190 16 f5 d2 3e f5 55 22 3f a1 16 3c 3e 00 4d e5 bd
       0.4120261 0.6341241 0.18368007 -0.11196327
0001a0 f9 c3 2f 3c 93 69 1c 3b ab e5 3c be ad be e1 3e
       0.010727876 0.0023866638 -0.18446986 0.44090787
0001b0 52 c8 7a 3d 58 35 9f be 3c 30 b7 bf 3f ab 90 3f
       0.061226197 -0.31095386 -1.4311595 1.130226
0001c0 ce 7f 55 3f 51 03 c5 be eb 82 94 bf ab 72 a2 bf
       0.8339814 -0.38479093 -1.1602453 -1.2691244
0001d0 89 53 25 be 6a c4 51 bd 03 7d 24 c0 f3 78 25 bd
       -0.16145147 -0.051212706 -2.57013 -0.04039855
0001e0 a9 d5 48 3d f6 a9 73 be 21 08 0d 3f 98 1a fb 3e
       0.049031887 -0.23795304 0.5509053 0.49043727
0001f0 f9 dd 0e be f1 44 04 be dc 74 06 3d 39 ac e5 bd
       -0.13951863 -0.12916924 0.03282629 -0.112144895
000200 b0 dc 37 c0 39 32 2e bc ec 0b a2 3d d1 07 19 bc
       -2.8728447 -0.010632091 0.0791243 -0.0093402425
000210 3b e8 ee bd 2f 44 02 bf f7 98 d2 bf a2 eb 99 3d
       -0.11665388 -0.5088529 -1.6452931 0.075156465
000220 58 f2 59 bd 8a 24 b4 3d df c7 25 3f 65 7a d3 3f
       -0.053209633 0.08796032 0.64758104 1.6521727
000230 39 f3 ec 3c b6 49 d7 3c 49 b0 b2 3f 30 e5 0b be
       0.028924571 0.026280265 1.3960048 -0.13661647
000240 0f 0e b3 3f aa 6d 17 bf d7 ea 9e 3d b5 f6 a8 3f
       1.3988665 -0.5915171 0.07759636 1.3200289
000250 35 23 e2 bc 35 f9 44 bf c3 bd 1b bc 52 0c ad 3d
       -0.027604679 -0.7694276 -0.009505692 0.084496155
000260 71 b2 7a bd 21 43 62 3f 20 35 46 3d 33 42 1f bf
       -0.06120533 0.8838368 0.048390508 -0.62210387
000270 d4 2a 9d bb 80 91 da 39 79 f6 1a 3e 76 b7 6f 3d
       -0.0047963653 0.00041688606 0.15133084 0.05852457
000280 d4 c8 51 3c c0 41 9b 3e a5 0f c0 be 3e 25 28 3d
       0.012804229 0.303236 -0.37511936 0.041051142
000290 93 c9 83 be 0f 69 16 bf 91 99 a4 bf 2d 2b c9 3d
       -0.25739726 -0.58754057 -1.2859365 0.09822688
0002a0 88 b2 68 bf 64 35 0b be 6f 45 6f be 2b 37 80 bf
       -0.9089742 -0.13594586 -0.2336633 -1.0016836
0002b0 62 c7 06 3e b2 ec d8 bf 56 fa 04 3d e8 4e aa bd
       0.13161996 -1.6947234 0.0324653 -0.083158314
0002c0 68 57 4e 3e 0c ee 39 bd 97 dc b2 3d ff 00 63 be
       0.2015053 -0.045393035 0.087334804 -0.22168349
0002d0 1d d6 7a ba 3c e8 32 bf bc 23 95 bd 9d ec 69 3d
       -0.00095686485 -0.6988561 -0.072822064 0.057110418
0002e0 99 75 b1 be 1c 9a e2 bd 03 71 9c 3c 4d 07 b2 bf
       -0.34660032 -0.1106455 0.019096857 -1.3908478
0002f0 07 7b 5c bd ad c9 44 3d 57 d4 8b 3d 06 86 c4 bc
       -0.053828266 0.048043896 0.0682761 -0.023989689
000300 20 d6 20 bd f8 14 9e 3b e1 7e ad 3e 47 6b 28 bf
       -0.039266706 0.004824277 0.33885863 -0.6578869
000310 e8 b3 b1 3d d3 e8 4f 40 4d b5 ae be f2 ff fe 3b
       0.086768925 3.2485855 -0.34122697 0.007781976
000320 5a 78 a3 3d 4d 96 6b 3f f9 fa ba bd c0 b3 46 bd
       0.079819396 0.92026216 -0.091299005 -0.048511267
000330 3a 70 f2 3d 72 3b 05 c0 ba 58 4d bd ef 3b 49 be
       0.11837812 -2.0817533 -0.050133444 -0.19651769
000340 46 18 a5 3c 5e b3 83 3e 38 45 8d bd 27 a3 9d be
       0.020153176 0.25722784 -0.06897968 -0.30788538
000350 7c 7e 1c be 57 16 c2 be 0c 7a cf ba 0b 2a bb bb
       -0.15282625 -0.3790767 -0.001582922 -0.005711799
000360 2b 1b 36 bf ce 0e 91 be 56 d1 1c be 1e 21 8c bd
       -0.71135205 -0.28331608 -0.1531423 -0.06842254
000370 59 ea 39 bf 36 5f 8d be 81 eb 8f 3f 7f 8b 07 3c
       -0.7262321 -0.27611703 1.1243745 0.008273005
000380 06 a4 ea 3e f8 0e d4 bf dc d5 42 be 1f 35 26 bd
       0.45828265 -1.6567068 -0.19026893 -0.040578004
000390 2e ce de 3e 02 bd 02 3e 88 42 c9 3c 3b 85 4b bf
       0.43516678 0.12767413 0.024567857 -0.7950017
0003a0 75 21 f1 3e bc 7b 37 3d d3 f0 08 bf 07 c4 49 bc
       0.47095838 0.044795737 -0.5349247 -0.012314803
0003b0 a3 5a c7 be 77 c7 df be 24 ee 78 3b fa 89 a5 3e
       -0.38936338 -0.43706867 0.003798374 0.3233183
0003c0 42 3a 76 bd d0 b2 12 3d c1 c2 4f 3f 9c 38 eb bd
       -0.060114153 0.03581506 0.81156546 -0.11485407
0003d0 f9 9c ae 3e 66 3e 81 3e 25 7c ee bc 11 ec 27 3e
       0.34104136 0.2524292 -0.029111931 0.16398646
0003e0 d3 aa ac be 30 c2 50 3e 9a b3 23 be 4d 8d b1 3e
       -0.3372408 0.20386577 -0.15986481 0.34678116
0003f0 b0 d5 91 3d 8d a5 b3 bd f2 84 8c 3d 9b a4 b9 be
       0.07120836 -0.08771811 0.06861295 -0.36258397

out.bias f4 [2]
000000 ac 8b 9a be 36 0b a1 be
       -0.30184686 -0.31453866

std_out.weight f4 [2, 256]
000000 04 73 c6 bd c7 57 a7 bd 8b df 54 bc 3e cd 0e bc
       -0.09689906 -0.08171039 -0.01299275 -0.008715926
000010 0f 16 11 3d 6e fb ce be b9 ec 68 3e ff 37 57 3e
       0.035421427 -0.404262 0.22746553 0.21017455
000020 34 d1 7e bd b8 bd 99 bd 0f ee c7 3e a1 6f c1 bd
       -0.06221123 -0.07506889 0.39048812 -0.0944512
000030 7e ce e4 3a f8 4c 04 3d 44 15 c3 bd f9 0f dd bc
       0.0017456559 0.032299966 -0.095255405 -0.026985155
000040 2d 2d 37 3e db ec 44 3e 97 fe 2e b8 d8 f4 fd 3a
       0.17888327 0.19230978 -4.1721938e-05 0.0019375337
000050 ac 4b 34 bf f6 fb 31 3e c4 c8 a5 bb 6f df fc 3d
       -0.70427966 0.17381272 -0.0050593335 0.12347304
000060 cb f8 33 3c 0e c2 d9 3c 5f 83 1f 3f 98 17 3e bd
       0.01098461 0.02658179 0.6230983 -0.04640922
000070 78 42 35 be 19 0d 94 3d 54 a4 b3 3c a9 7c c4 3b
       -0.17701137 0.07229061 0.021928944 0.005996306
000080 c4 13 fc 3d f3 47 b4 bd ce bf 2e bd cf b5 8b 3e
       0.123084575 -0.08802786 -0.042663388 0.27287146
000090 30 80 a7 bd a6 21 bd 3d 96 5a 9b 3e 08 3f fa 3d
       -0.08178747 0.092349336 0.3034255 0.122190535
0000a0 66 39 00 3e 51 f5 35 be d0 db 2a be a0 9c 29 bd
       0.12521896 -0.17769362 -0.16685414 -0.041409135
0000b0 f1 61 5b 3e 36 5a d2 3e 92 69 66 bc 70 c6 20 3d
       0.2142408 0.4108445 -0.014063256 0.039251745
0000c0 80 70 fa 3c bb e7 00 be c6 c8 04 3d d0 3e 58 be
       0.030571222 -0.12588398 0.032418035 -0.21117711
0000d0 02 2a 5c be 28 61 7b bd 2d e1 98 3e d6 9e 75 3e
       -0.215004 -0.061371952 0.29859295 0.23986372
0000e0 74 6d 1f bd b2 fe cf 3e 82 5c 3a bd 80 67 5e 3c
       -0.038922742 0.40624005 -0.04549838 0.013574481
0000f0 37 b3 45 bd eb a4 af 3d 88 99 e8 be 40 c3 2d 3d
       -0.048266616 0.085763775 -0.45429635 0.042422533
000100 12 9a 5d 3d 20 a9 31 bf f2 fa 82 3e 14 b6 82 be
       0.05410201 -0.6939869 0.2558208 -0.2552954
000110 fb 8c 2e 3e 44 0c e8 3c 4e 12 ce bd 45 d9 ed 3d
       0.17045967 0.028326161 -0.10062085 0.116137065
000120 33 70 b4 bd cb 6c f5 3e 61 76 03 3d d5 af 6e 3e
       -0.08810463 0.47934565 0.032095317 0.23309262
000130 ee ee 43 3e 88 36 2c 3d b9 c4 aa 3e 5f c5 76 3e
       0.19134113 0.042044193 0.33353212 0.24098729
000140 7c 66 e3 3d ca 7a ab 3d 8c 67 9e 3d c6 24 77 3d
       0.11103532 0.083730295 0.07734594 0.060337804
000150 fa 9a 84 bd df 75 a7 3d 6f 81 88 bd 73 fe 3e 3d
       -0.06474872 0.08176779 -0.066653125 0.04662938
000160 44 c2 23 bf 83 16 90 3d 17 1d 42 3e b6 be 9a bd
       -0.639683 0.07035544 0.1895641 -0.075559065
000170 ac 3b 06 be 49 99 83 3c 18 40 0c 3e 67 e6 96 bd
       -0.131087 0.016064303 0.13696325 -0.073681645
000180 27 ba 69 3d 82 ec 7f 3c e4 01 ac 3b f0 d8 f8 3e
       0.057062294 0.015620353 0.005249249 0.4860301
000190 5d 42 8f 3e 9b de 76 3d 79 0a 34 3e ae f4 22 3d
       0.2798032 0.060270887 0.1758212 0.039784126
0001a0 cc 00 9e 3d 56 1f 60 bd 03 ff 1b 3f 21 29 20 3d
       0.07714996 -0.054717384 0.6093599 0.039101724
0001b0 54 e2 07 3e 4d 7b f8 3e 39 02 09 be 8c 94 13 3f
       0.13269931 0.4853157 -0.13379754 0.5764854
0001c0 9e 0c 7e 3d 0f d1 2a be a7 45 52 3d 3a 08 e9 bd
       0.06202375 -0.16681312 0.051335957 -0.11378522
0001d0 c4 df 01 3e 50 d5 7a 3d 06 2e 86 3e d9 d4 99 3d
       0.12683016 0.061238587 0.26206988 0.075113006
0001e0 70 7c 01 3f f8 87 04 3e 39 71 8b 3e d0 26 b9 be
       0.505805 0.12942493 0.2723482 -0.36162424
0001f0 ce 54 c4 3d 2f df 9c 3d c6 94 92 be 3a a6 ac bd
       0.09586488 0.076597564 -0.2862913 -0.08430143
000200 6f 07 8a 3e 48 7d 75 bd 1d 5c bc 3e bc 0a 8c bc
       0.26958796 -0.05993393 0.36789027 -0.017094962
000210 14 88 8f 3e 28 0a a5 3c 44 ab b2 3e e8 bc 08 3e
       0.28033507 0.020146444 0.3489629 0.13353312
000220 54 d0 f7 3d 25 78 90 3d 32 64 52 3e 88 a0 ce bd
       0.12100282 0.07054166 0.20546034 -0.10089213
000230 7b b1 26 3c 1d 41 11 bf b2 71 24 be bb bf d0 be
       0.010174151 -0.5673998 -0.16058996 -0.4077128
000240 73 96 9c 3e 92 e7 23 bf 9b 9b 2b 3d 9f eb 31 3d
       0.30583534 -0.64025223 0.041896444 0.043437596
000250 88 04 2b bf 04 47 4a 3e 53 a5 13 bd 3a d0 28 ba
       -0.6680379 0.19753653 -0.036046337 -0.00064397196
000260 95 20 54 3d 3a be 0f 3e d2 61 08 bd cd 02 5d 3d
       0.051788885 0.1403741 -0.033296414 0.05395775
000270 40 3a 20 bd 40 2b aa 3d d4 fa bf 3c be c5 99 3e
       -0.03911805 0.083090305 0.023435034 0.30033678
000280 de b3 8d be 43 a7 a0 3d d2 48 1d 3d 7e 13 30 3d
       -0.2767629 0.07844403 0.038399525 0.04298734
000290 36 46 88 3e c2 11 57 bd a4 93 f0 bc e8 70 19 be
       0.26616067 -0.05250717 -0.029367276 -0.14984477
0002a0 d1 af c9 3d 61 f3 5f be ee c2 23 bf 6d c0 9c 3d
       0.098479874 -0.21870185 -0.63969314 0.0765389
0002b0 29 26 0d 3e 4b cb 2a bf de fb 8b be cc ad 10 bd
       0.13784088 -0.6671645 -0.27340597 -0.035321996
0002c0 08 00 45 3e 06 fe 5a be 5c 33 6a 3c c3 94 16 be
       0.19238293 -0.21385965 0.014294472 -0.14705186
0002d0 11 a4 0c bd be db 13 bf 76 ad 2c 3c fb db be 3d
       -0.034336153 -0.57757175 0.010539403 0.09319302
0002e0 f1 66 36 bf dc 8f 9a bd af eb 53 3c bc 35 51 bc
       -0.71250826 -0.0754697 0.012934609 -0.012769159
0002f0 50 89 71 bd 96 24 ec 3d e1 ec 0b bf 2d 6a a6 bd
       -0.058968842 0.11530416 -0.54658324 -0.0812572
000300 c2 79 49 3e f4 28 1d bd a2 6c 89 3c 42 4c 52 3f
       0.19675353 -0.038369134 0.016775433 0.8214761
000310 f5 f2 ae bd da f2 0d 3f 15 e6 ca 3d 9e 38 b7 bd
       -0.08542434 0.5544869 0.09907166 -0.08946346
000320 e5 ad 18 3a 7b 7c 5f 3e 83 05 31 3d 04 fb 1e bc
       0.0005824252 0.2182483 0.043218147 -0.0097034015
000330 25 51 3f bf d2 b3 11 3e 8d 8b 76 bb aa dc 70 be
       -0.7473319 0.14228752 -0.00376198 -0.23521677
000340 90 3e 19 bf ac b3 8e bd cf 36 7c 3d 80 bd 08 bd
       -0.5986109 -0.069678634 0.061575707 -0.033383846
000350 4d bc 9c 3f 05 2a a7 3c 93 7f c6 3d 42 3b ee bd
       1.2244965 0.020405779 0.096923016 -0.11632396
000360 b8 b0 89 3d 99 bf 51 3e 97 2c 05 3e 15 ec 2d bf
       0.067231596 0.20483245 0.13005291 -0.6793836
000370 ca bc 8b 3e c9 b1 db be 02 80 87 3c 35 d9 e4 3c
       0.27292472 -0.42909077 0.016540531 0.027935604
000380 f8 91 3a 3e df 89 18 be d9 a3 05 3d e9 a2 35 be
       0.18219745 -0.14896344 0.03262696 -0.17737927
000390 a1 32 af bc 98 00 8f bb cf eb 37 3d 13 ae ee 3e
       -0.021386446 -0.0043640845 0.04490262 0.46617183
0003a0 17 94 01 bf 39 e8 67 3e ae 70 8f be 4a bc a2 bd
       -0.5061659 0.2264718 -0.28015655 -0.079460695
0003b0 58 71 04 3e ae b9 b6 bc 9e b5 0a bd c7 52 ef 3d
       0.12933862 -0.022305336 -0.03386461 0.116857104
0003c0 02 5e 0c 3d 8b 9a 32 be 1a 73 d4 bd ec f4 cd bb
       0.03426934 -0.17441766 -0.103735164 -0.0062853005
0003d0 83 e5 4f bc 4d 37 bc bd 91 b4 15 3d 8f ce b2 3c
       -0.012688997 -0.09190235 0.036549155 0.02182701
0003e0 c3 e4 99 bc 25 32 3f 3f 32 ee d8 bd b2 c1 04 3e
       -0.01878584 0.7468589 -0.10592307 0.12964514
0003f0 f6 f9 3b 3e 7d 6f d5 bd 15 3c 10 3c ba d8 6e 3e
       0.18357071 -0.10421655 0.008803387 0.23324862

std_out.bias f4 [2]
000000 16 65 9e bf 1b 35 9c bf
       -1.2374599 -1.2203707

exp_avg f4 [256, 7]
000000 60 ed a7 3a 7c fe 57 3b 28 ea 80 b9 27 b2 6e 3b
       0.0012811832 0.003295808 -0.00024588523 0.0036422105
000010 ad 93 8f 3a 6e 81 88 39 5a 6a c8 b9 00 00 00 00
       0.0010954045 0.00026036374 -0.0003822621 0.0
000020 00 00 00 00 00 00 00 00 00 00 00 00 00 00 00 00
       0.0 0.0 0.0 0.0
000030 00 00 00 00 00 00 00 00 bc 5e 60 bb b6 ca 00 ba
       0.0 0.0 -0.0034236154 -0.0004913019
000040 c5 87 e1 ba 02 36 40 3a 1e 46 b6 ba c4 47 18 ba
       -0.00172066 0.00073322665 -0.0013906395 -0.0005809034
000050 04 00 00 80 00 94 9e 38 a6 ad 1a ba 40 61 82 39
       -6e-45 7.561594e-05 -0.00059005094 0.0002486799
000060 74 9a 68 b9 30 7e 4e b9 80 10 88 b6 04 00 00 80
       -0.00022182782 -0.000196927 -4.0550367e-06 -6e-45
000070 04 00 00 80 04 00 00 80 04 00 00 00 04 00 00 00
       -6e-45 -6e-45 6e-45 6e-45
000080 04 00 00 00 04 00 00 00 04 00 00 80 c0 40 34 3a
       6e-45 6e-45 -6e-45 0.00068761036
000090 f3 d1 94 ba 40 b9 ef 38 13 6d 0a ba 40 85 fd b7
       -0.0011354074 0.000114309136 -0.00052805356 -3.0222e-05
0000a0 98 66 e9 38 04 00 00 80 78 27 c1 39 8e 51 db 39
       0.00011129415 -6e-45 0.00036841235 0.00041831698
0000b0 a2 53 d2 39 17 34 f9 39 68 90 b7 39 82 e7 56 39
       0.00040116633 0.0004753179 0.0003501207 0.00020494874
0000c0 62 e9 8b 3a 35 a3 13 3b 20 4c 18 3c 16 ee d6 3b
       0.0010674412 0.00225277 0.009295493 0.006559144
0000d0 b7 ce 9c 3b 61 a0 69 3b 79 da d4 3a 04 00 00 00
       0.0047853845 0.0035648572 0.0016239426 6e-45
0000e0 04 00 00 00 04 00 00 80 04 00 00 00 04 00 00 00
       6e-45 -6e-45 6e-45 6e-45
0000f0 04 00 00 00 04 00 00 00 00 00 00 00 04 00 00 80
       6e-45 6e-45 0.0 -6e-45
000100 04 00 00 00 04 00 00 00 04 00 00 00 04 00 00 00
       6e-45 6e-45 6e-45 6e-45
000110 04 00 00 00 04 00 00 80 00 00 00 00 00 00 00 00
       6e-45 -6e-45 0.0 0.0
000120 00 00 00 00 00 00 00 00 00 00 00 00 00 00 00 00
       0.0 0.0 0.0 0.0
000130 00 00 00 00 04 00 00 80 04 00 00 80 04 00 00 00
       0.0 -6e-45 -6e-45 6e-45
000140 04 00 00 00 04 00 00 00 04 00 00 00 04 00 00 00
       6e-45 6e-45 6e-45 6e-45
000150 08 0f cf bb aa 79 72 bb cb ea 0f bb 48 a0 82 bb
       -0.0063189305 -0.0036998787 -0.0021960016 -0.003986392
000160 46 23 40 bb 84 a3 9c ba 32 b8 4e 39 04 00 00 00
       -0.00293179 -0.0011950587 0.00019714309 6e-45
000170 04 00 00 80 04 00 00 80 04 00 00 80 04 00 00 80
       -6e-45 -6e-45 -6e-45 -6e-45
000180 04 00 00 80 04 00 00 00 91 17 83 3b d1 8b 17 3b
       -6e-45 6e-45 0.004000612 0.0023124109
000190 35 5c 49 3b 95 f4 50 3a d9 fb 07 3b 02 b9 6c 3a
       0.0030725126 0.0007971016 0.0020749478 0.0009030254
0001a0 04 00 00 80 04 00 00 80 04 00 00 00 04 00 00 00
       -6e-45 -6e-45 6e-45 6e-45
0001b0 04 00 00 00 04 00 00 00 04 00 00 00 04 00 00 00
       6e-45 6e-45 6e-45 6e-45
0001c0 04 00 00 00 04 00 00 00 04 00 00 00 04 00 00 00
       6e-45 6e-45 6e-45 6e-45
0001d0 04 00 00 00 04 00 00 00 04 00 00 00 04 00 00 00
       6e-45 6e-45 6e-45 6e-45
0001e0 04 00 00 80 04 00 00 80 04 00 00 80 04 00 00 80
       -6e-45 -6e-45 -6e-45 -6e-45
0001f0 04 00 00 80 04 00 00 80 ea 3e 94 3a 1c 89 51 3a
       -6e-45 -6e-45 0.0011310254 0.0007993148
000200 e6 6d dc 3a ec 78 d3 3a 7c c2 f2 39 92 37 96 39
       0.001681742 0.001613406 0.0004630274 0.00028651633
000210 04 00 00 00 00 00 00 00 00 00 00 00 00 00 00 00
       6e-45 0.0 0.0 0.0
000220 00 00 00 00 00 00 00 00 00 00 00 00 00 00 00 00
       0.0 0.0 0.0 0.0
000230 04 00 00 00 04 00 00 00 04 00 00 00 04 00 00 00
       6e-45 6e-45 6e-45 6e-45
000240 04 00 00 00 04 00 00 00 04 00 00 00 a0 ba 3b 3b
       6e-45 6e-45 6e-45 0.0028645173
000250 af 6a c3 3a 57 0f 83 3a c9 ef 46 3b 8c 94 b5 3a
       0.0014909114 0.0009999078 0.0030355325 0.0013853475
000260 6c 90 41 3a 60 dc bd 39 a0 92 b1 b9 34 a7 0c 3a
       0.0007383886 0.0003621308 -0.00033869315 0.00053654914
000270 00 a6 76 b8 70 ec 9c 38 d8 66 f1 38 30 2f ba b7
       -5.880557e-05 7.4826996e-05 0.00011510932 -2.2194901e-05
000280 04 00 00 00 04 00 00 00 04 00 00 00 04 00 00 00
       6e-45 6e-45 6e-45 6e-45
000290 04 00 00 00 04 00 00 00 04 00 00 00 04 00 00 00
       6e-45 6e-45 6e-45 6e-45
0002a0 04 00 00 00 04 00 00 80 04 00 00 00 04 00 00 00
       6e-45 -6e-45 6e-45 6e-45
0002b0 04 00 00 00 04 00 00 00 04 00 00 00 00 00 00 00
       6e-45 6e-45 6e-45 0.0
0002c0 00 00 00 00 00 00 00 00 00 00 00 00 00 00 00 00
       0.0 0.0 0.0 0.0
0002d0 00 00 00 00 00 00 00 00 d0 2d c4 3a 54 74 83 3b
       0.0 0.0 0.0014967266 0.00401167
0002e0 5f 65 a4 3b b4 1c 15 3a 6e 5c 49 3b 49 9f a9 3a
       0.005016967 0.0005688176 0.0030725258 0.0012941147
0002f0 04 00 00 00 44 a2 70 ba 6c e6 b2 ba a0 a7 03 ba
       6e-45 -0.0009179453 -0.0013648993 -0.00050222315
000300 55 91 7a ba 25 fd 2b ba c8 5f 0e b9 04 00 00 00
       -0.00095583993 -0.0006560854 -0.00013577857 6e-45
000310 04 00 00 00 04 00 00 80 04 00 00 80 04 00 00 80
       6e-45 -6e-45 -6e-45 -6e-45
000320 04 00 00 80 04 00 00 80 04 00 00 00 d2 ca 27 3a
       -6e-45 -6e-45 6e-45 0.0006400767
000330 2e e3 bd 3a 44 a7 41 3a bd a7 17 3b e8 99 67 3a
       0.001448726 0.000738729 0.0023140751 0.00088348845
000340 9d f7 b4 39 85 df 9b ba 04 00 00 00 04 00 00 80
       0.00034516762 -0.0011892176 6e-45 -6e-45
000350 04 00 00 00 04 00 00 00 04 00 00 00 04 00 00 00
       6e-45 6e-45 6e-45 6e-45
000360 00 00 00 00 52 3e 77 3b 99 80 27 bb 67 a0 0f 3b
       0.0 0.0037726355 -0.0025558828 0.0021915676
000370 a0 6f 19 b8 e3 44 a3 3a 86 56 25 3a 04 00 00 00
       -3.6582e-05 0.0012456443 0.00063071435 6e-45
000380 35 29 b3 b9 a6 87 9e ba fb 8c 67 ba 03 c3 b6 ba
       -0.00034172242 -0.001209487 -0.00088329584 -0.0013943616
000390 bb 0f 37 ba 1f 54 90 b9 04 00 00 00 2a e2 da 3a
       -0.000698324 -0.00027528495 6e-45 0.0016699482
0003a0 cd 58 9f 3a 30 5d f6 39 a1 b8 4e 3b ab 01 78 b9
       0.0012157202 0.00046990206 0.0031543153 -0.00023651744
0003b0 14 3c 24 b9 04 00 00 00 6b 59 16 3b a9 73 c2 ba
       -0.0001566264 6e-45 0.002294148 -0.0014835495
0003c0 09 0b 97 3a fd 72 3c 3a 04 06 04 3a 67 d6 ac 39
       0.0011523674 0.00071887654 0.0005036297 0.0003296614
0003d0 04 00 00 00 00 00 00 00 00 00 00 00 00 00 00 00
       6e-45 0.0 0.0 0.0
0003e0 00 00 00 00 00 00 00 00 00 00 00 00 00 00 00 00
       0.0 0.0 0.0 0.0
0003f0 04 00 00 00 04 00 00 80 04 00 00 80 04 00 00 80
       6e-45 -6e-45 -6e-45 -6e-45
