Multi-UAVs path planning/path planning/Path_SAC_actor1.pth (torch, 833053 bytes, 24 tensors)

in_to_y1.weight f4 [256, 7]
000000 f6 f7 21 bf 72 f7 79 c0 61 32 50 3d 81 e3 f9 3e
       -0.63268983 -3.9057279 0.050829295 0.48806384
000010 72 2b 7c 3d 3c 50 0e 3e 4f 4b c6 3e df cb a0 bd
       0.06156487 0.13897794 0.3872933 -0.07851385
000020 1b cb c5 3d ad d6 45 be c9 7c 3e 3e 6f f7 29 3d
       0.0965788 -0.19320174 0.1860229 0.041495737
000030 b5 5d c6 3d 83 2c b6 bd 4f f6 25 be 5b b9 d6 bd
       0.09685842 -0.08895209 -0.1620724 -0.104845725
000040 c2 e1 18 be 23 04 36 3e a2 10 63 bd c0 0f f0 3d
       -0.1492987 0.17775016 -0.055435784 0.11721754
000050 53 c9 4b 3d 5d f8 2c c0 50 25 90 bf 5a 42 c4 3d
       0.049752545 -2.702659 -1.1261387 0.09582968
000060 d7 45 36 3e c3 32 96 bd 8b 51 8c 3f 43 88 9c 3d
       0.1780008 -0.07333901 1.0962385 0.07643177
000070 a5 16 e5 ba 34 33 8e 3d fd f3 5b bd 84 ca b0 bd
       -0.0017478062 0.0694336 -0.053699482 -0.08632377
000080 e8 16 22 bd 42 e6 be 3d 9d 35 51 3e d0 b4 58 3e
       -0.039572626 0.09321262 0.20430608 0.21162724
000090 b1 74 94 3c 10 28 63 bd 6f e0 94 bd e3 93 e5 bd
       0.018122049 -0.05545813 -0.0726937 -0.11209848
0000a0 5a db d7 3c 03 ac 36 3d e3 81 78 3d 1a a6 16 3e
       0.026349712 0.044597637 0.060670745 0.147118
0000b0 fa 4b 26 be bc 28 83 3d eb 96 d7 3c 85 e4 f5 bc
       -0.1623992 0.06404254 0.02631708 -0.030016193
0000c0 0b 55 1a be 10 15 83 bf 8e 8c 0f 3e 5e 41 b0 bd
       -0.15071504 -1.0240803 0.14018461 -0.08606218
0000d0 dd 76 0b be d3 5b 26 3c 47 37 09 bd da d7 54 be
       -0.13619561 0.010153729 -0.033499982 -0.20785466
0000e0 1b 5d 45 bd 7d e0 7f bd db 95 9c be 53 b7 a7 3d
       -0.048184495 -0.062469948 -0.3058308 0.08189263
0000f0 82 81 27 3e 35 a4 a5 3d c7 d0 f9 3c 40 60 fc bc
       0.16357997 0.08087961 0.03049506 -0.030807614
000100 48 e5 2e bd 0a db 50 3c 4a cf 40 3d 58 9b 47 3d
       -0.04269913 0.0127475355 0.047072686 0.04873213
000110 7b bb aa 3d d3 6e 58 3d 33 b9 c5 bd 3e 46 ba bd
       0.0833654 0.052840065 -0.096544646 -0.09095429
000120 b8 de eb bd 2f a1 5f be e5 bf e4 bd b7 1e 8d 3b
       -0.115170896 -0.2183883 -0.111694135 0.00430664
000130 e3 ac ea 3d 5f 1b f6 bd dc 64 ca bd 85 87 d9 bd
       0.11458757 -0.12016939 -0.09882519 -0.106215514
000140 54 b6 4f bc d3 c7 cd 3c c1 50 c8 bd 4f 99 02 3d
       -0.012677748 0.025119698 -0.097810276 0.031884488
000150 90 9d 9e 3f 4b e3 97 bf 88 02 d1 ba 60 d6 fc 3e
       1.2391834 -1.1866239 -0.0015946189 0.49382305
000160 b9 5a 1d 3e 69 28 7f bf fa 5c 6c 3d d6 00 b1 3f
       0.15366639 -0.99671036 0.057705857 1.382838
000170 4c b1 29 3d 91 e0 f7 bc 72 63 1e 3f 2b 60 e8 3c
       0.04142885 -0.030258449 0.6187049 0.028366169
000180 ad 39 5a bf de 14 e5 3d 19 28 2d 3f 86 db 93 bf
       -0.85244256 0.11185621 0.6763931 -1.1551368
000190 13 ab 75 3d 8b 44 1c 3f a6 69 09 3d 03 b6 16 bf
       0.059977602 0.6104209 0.03354802 -0.5887148
0001a0 81 39 72 bd f6 8e a9 bd 48 dc 65 bd 03 b6 12 be
       -0.05913687 -0.08279221 -0.05611828 -0.14327244
0001b0 ca d8 ef 3d 0d 59 0e 3e 8f 0e 90 bd 3d 0c d2 3c
       0.11711271 0.13901158 -0.07034027 0.025640601
0001c0 c1 e7 7f bc 95 3e 55 3e 37 c0 85 bc a7 a2 d7 3b
       -0.015619219 0.20824654 -0.016327007 0.006580669
0001d0 0f 71 04 be dc de a3 bd 6b 3f af bc ae b4 ab bc
       -0.12933753 -0.080014914 -0.021392545 -0.020960178
0001e0 30 03 56 bd be af 8c bc ba f6 f2 3b de ae 2a bc
       -0.052249134 -0.017173644 0.007414666 -0.010417668
0001f0 50 8a 16 be 87 c7 a6 bc a0 b4 68 bf 5e 93 43 bf
       -0.147012 -0.020358814 -0.9090061 -0.7639674
000200 fc 32 83 3c 9e 34 b0 bc 3f 70 3a bd c0 d3 4f 3f
       0.016015522 -0.021509465 -0.045517202 0.8118248
000210 65 08 a5 3e 8b ec a6 bd 88 3b f7 3c fc 01 cc bc
       0.32232967 -0.08150586 0.030179754 -0.02490329
000220 32 e6 b1 3d 10 89 6a bd 5b f4 29 3c a9 81 bc bd
       0.086864844 -0.05725962 0.0103732 -0.09204418
000230 81 5c ce bf 59 7b 0e bf 4f e5 c3 bd da 15 d6 be
       -1.612198 -0.55656964 -0.095652215 -0.41813546
000240 db 33 15 be 66 ab b9 be fe 7c 4d be 16 64 52 3f
       -0.14570563 -0.3626358 -0.20067212 0.8218397
000250 21 1f 11 c0 67 ea 61 3d cd 08 64 3e eb aa 71 bc
       -2.267525 0.055155184 0.22268982 -0.014750223
000260 f0 9a 53 bf 2a 06 7b 3e d7 dc 4b bf d8 e1 f0 3e
       -0.8265829 0.2451407 -0.7963385 0.47047305
000270 6a 29 87 bd 4a c8 76 bf 2c 54 3e bb 3e af fd bd
       -0.06599696 -0.96399367 -0.002904187 -0.123869404
000280 59 b8 99 3e 5d 45 36 3c f8 cc 6d be 51 bb 10 bc
       0.3002346 0.011124936 -0.2322272 -0.008833722
000290 67 dd 60 3d de 81 95 bd e6 e9 27 bc 7f 86 90 bd
       0.054898646 -0.07300161 -0.010248637 -0.07056903
0002a0 33 01 82 3d 87 b5 20 3d 99 7c 9c be 0d a0 fb bd
       0.06347885 0.039235618 -0.3056381 -0.12286387
0002b0 9f 46 56 ba c2 f8 54 be a3 18 91 3c 8b 0f 8f 3c
       -0.00081739755 -0.20798019 0.017711943 0.017463466
0002c0 4b 5c 8e 3c 0b 7e da bd f3 b4 b1 3b 06 a2 17 3e
       0.017377993 -0.10668572 0.005423182 0.14807901
0002d0 a7 eb c7 3c d5 5a c3 3c 5d 2b 00 3c 03 23 28 bc
       0.02440436 0.023847023 0.007822839 -0.010262254
0002e0 12 5d 66 bc a4 80 02 bd bd 9a 0e bd 92 09 de 3d
       -0.014060276 -0.031860963 -0.03481554 0.10841669
0002f0 5f 2e fc 3d 74 5d d8 3c 8a f5 16 bf b7 8f 0e bd
       0.12313532 0.02641175 -0.5896841 -0.034805026
000300 6b 7c 22 bf 04 74 17 bc 91 7e af 3e b8 f5 ae 3f
       -0.63471097 -0.009243969 0.3427625 1.3668737
000310 1a 12 9b bd 46 76 f7 bd 46 51 a8 bd e0 7e 08 be
       -0.07571812 -0.12083106 -0.08218627 -0.13329649
000320 71 3f 29 3c f5 e5 e3 bd 0d 12 84 bd 9e 0b 1b 3f
       0.010330067 -0.11127845 -0.064487554 0.605646
000330 e6 81 5c c0 06 d7 23 ba c0 06 e4 bd ee 46 47 be
       -3.4454284 -0.00062499975 -0.111341 -0.19460651
000340 6a c7 ef be b2 56 d3 3e 32 ea c5 bc 94 f8 57 be
       -0.46831828 0.4127708 -0.024159525 -0.21090919
000350 7f 11 d0 bc 0b d7 95 bd b3 9a 0a bd d6 80 3d be
       -0.025398968 -0.07316407 -0.03383894 -0.18506178
000360 dc 6f d3 be 31 97 a7 bd 5b c3 46 3d 88 8b 5a bd
       -0.4129628 -0.08183134 0.04852615 -0.053355724
000370 61 a2 1b bb 7b b8 03 3d 52 f3 41 bd 8f f4 05 be
       -0.0023747908 0.032158356 -0.04735119 -0.13081573
000380 e1 a1 91 3f cb 20 84 3f 24 cd 0c bd 3f fc 04 be
       1.1377527 1.0322508 -0.034375325 -0.12986849
000390 32 af 9b 3d 08 ed 3e bf ee 5c 23 bf 6f 5c 3a bf
       0.07601775 -0.7458043 -0.63813674 -0.7279729
0003a0 a6 3c fd be 3c 8b 07 3e 7e 6c ca be 48 1b ed bd
       -0.49460334 0.13236707 -0.39535898 -0.11577469
0003b0 bf fe c6 3e 35 c0 4f bf db 8c 96 bd 29 3e 77 be
       0.3886623 -0.8115266 -0.07351085 -0.24144806
0003c0 0e d8 cb bd d9 13 8e bc 1d 82 68 bd f3 1b ff 3b
       -0.099533185 -0.017343448 -0.05676471 0.007785314
0003d0 cd 47 28 be 40 5a 08 be 6a 5d a5 bc 28 a0 6a be
       -0.1643364 -0.13315678 -0.020186145 -0.22912657
0003e0 1f 33 df 3b 6d 69 3c 3d fa f1 4a 3d 09 d7 1b be
       0.006811514 0.04599898 0.049547173 -0.15218748
0003f0 6e 32 e2 bc c1 f4 79 bb 6d 47 1d bd f9 10 fa bd
       -0.027611937 -0.003814027 -0.038398195 -0.122102685

in_to_y1.bias f4 [256]
000000 6e fd 51 3d d0 83 80 3c 80 a8 1d bd 55 34 cc be
       0.05126708 0.015687853 -0.038490772 -0.39883676
000010 8c ec ce bd 92 17 93 be a8 42 09 3d cc ed 5d 3e
       -0.101037115 -0.2872892 0.033510834 0.21672744
000020 ff e2 a2 be d0 3d 92 be 4d bb 1f be 9b 49 80 3c
       -0.3181381 -0.28562784 -0.15598793 0.015660098
000030 b3 e4 f2 3d 7f ce 60 3d b9 64 84 be 12 16 3d 3e
       0.11860027 0.05488443 -0.25858095 0.1846545
000040 79 e4 d7 be 0c f6 99 be c3 ff 42 3d 49 ec 82 be
       -0.42166498 -0.3007053 0.047607195 -0.25570896
000050 a3 7d e2 3d 80 60 f7 3d 98 ec 81 3d e4 f1 af be
       0.110591196 0.12078953 0.06343955 -0.34364235
000060 26 19 1b 3e 4a 77 13 3e f6 d0 bb be 83 f5 ed 3e
       0.15146312 0.14400974 -0.36682862 0.46476373
000070 ee e7 b1 3d dc 7e e4 3c 3f f1 a6 3b fc 2f c0 bd
       0.08686815 0.027892523 0.0050946767 -0.09384152
000080 3b 24 2e 3e f5 64 1c bf ba 7c a5 3e 43 63 b6 be
       0.17006008 -0.6109155 0.3232172 -0.35622606
000090 77 6a 76 3d 9e ec 52 3e 85 55 a3 3e 8c ee 24 3e
       0.060160127 0.20598075 0.31901184 0.16106623
0000a0 0a 27 76 be 7f 63 19 bf d8 75 bf be 57 9f a0 3e
       -0.2403833 -0.59917444 -0.37394595 0.31371567
0000b0 dc 6f 9d 3d a8 1d a8 3e 98 5f 8e be 70 fe cd bc
       0.07687351 0.32835126 -0.27807307 -0.02514574
0000c0 af 76 02 bc 4c 99 86 bd 93 4d 1e 3e dd 56 54 be
       -0.007962867 -0.06572208 0.1545928 -0.2073626
0000d0 d5 58 3a 3e 29 56 54 3e 55 be 92 3d 00 22 d1 3e
       0.18197949 0.20735992 0.07165209 0.40846252
0000e0 5a 5f 11 3d 3c e2 4c be d8 d0 31 be 92 f3 c7 3a
       0.035491325 -0.20008177 -0.17364824 0.0015255085
0000f0 f3 8a 2e be 23 44 8b bd 23 7c 5c 3d 7c 88 98 be
       -0.17045192 -0.068001054 0.053829324 -0.2979163
000100 4a 7b 1a 3e 71 13 6c bf 1b 04 bc 3e 03 af 61 3c
       0.15086094 -0.92217165 0.36721882 0.013774636
000110 70 42 41 bf 1d a0 16 bf ac 30 87 be ed 38 08 3e
       -0.75492 -0.58838063 -0.2640432 0.13302965
000120 3b d3 32 3e 22 89 05 3f de 34 45 bd e9 c4 44 be
       0.1746339 0.52162373 -0.04814612 -0.1921574
000130 9a c3 8e 3e 44 c0 16 be 10 1b 95 3e e0 68 70 be
       0.27883607 -0.14721781 0.2912221 -0.23477507
000140 f0 8a 98 bc e9 23 b4 be 45 a7 1d 3f e1 7d 9a be
       -0.018620938 -0.35183647 0.6158336 -0.30174163
000150 03 df ad 3e 5a 5d 07 3c 89 a1 85 3e 89 07 00 bf
       0.33959207 0.008262003 0.26099804 -0.500115
000160 a7 73 6a 3d b0 f8 a8 3e bf a9 28 3d 5a 08 79 be
       0.0572392 0.33002234 0.041177507 -0.24319592
000170 c2 91 c9 3e 92 52 1c 3e d0 d3 30 be 08 d5 95 be
       0.39369017 0.15265873 -0.172683 -0.29264092
000180 60 96 cb 3c ee 10 86 be 65 2a 36 bf cc 1d 8b be
       0.024851978 -0.2618479 -0.7115844 -0.2717117
000190 0a 42 52 3e 42 19 c6 bd a9 7f ee 3d 74 df 57 3e
       0.20533004 -0.09672786 0.11645443 0.21081334
0001a0 82 09 a2 3e 18 65 a8 3d fc 6b 42 3e c4 c5 f6 3e
       0.3164788 0.08222407 0.18986505 0.48197758
0001b0 77 c6 30 be 9e 2d 80 3e 00 e8 0b 3d 49 45 88 3e
       -0.17263208 0.25034803 0.0341568 0.2661536
0001c0 cf 33 35 bf 53 a5 a3 be ad d2 96 be 14 4c a0 3e
       -0.7078218 -0.3196207 -0.29457608 0.31308043
0001d0 2d 4f b8 3d a4 eb e8 3e b1 f6 9e be b9 e4 92 3e
       0.089994766 0.4549228 -0.31047586 0.28690127
0001e0 f1 bd 5c 3e 06 8c 40 be e9 39 91 be 46 2a 28 bf
       0.21556832 -0.18803415 -0.28364494 -0.65689504
0001f0 25 d4 a0 3d ec 55 61 3e c8 82 8e be ab 4c eb 3d
       0.07852963 0.22005433 -0.27834153 0.11489233
000200 25 8c 2e be 7f 71 50 be fc 1d 15 be 27 99 ae 3e
       -0.17045648 -0.20355795 -0.1456222 0.3410122
000210 cd 89 aa 3e f6 bb 0b 3e 23 21 b4 3e ec aa 9d 3d
       0.3330826 0.1364592 0.3518153 0.076986164
000220 7f 1f 8c be 30 2b 99 bd 9b 72 16 3e 95 4d 8c 3e
       -0.2736778 -0.074789405 0.14692156 0.2740294
000230 80 f7 18 3b 96 a0 c6 be 16 5a 33 3e bc 30 b4 3e
       0.002334088 -0.38794392 0.17514834 0.3519343
000240 71 74 0e 3e a0 82 09 bd 31 91 5b be 7a 92 ad 3d
       0.13911606 -0.03357184 -0.21442105 0.08475204
000250 92 84 1c 3e ba cc 95 3e f0 6a b3 be f8 a1 a9 be
       0.15284947 0.29257756 -0.35042524 -0.33131385
000260 6f 5b b5 be 81 5a 84 be b7 25 2a be b1 19 9d bd
       -0.3542132 -0.258503 -0.1661595 -0.07670916
000270 48 68 29 bd 91 6d 47 be 5c 1d a7 be 35 42 e4 bd
       -0.041359216 -0.1947539 -0.32639587 -0.111454405
000280 fb 70 09 bf 90 ee 5b 3e 3a 8c 8f be 00 be 29 bc
       -0.5368802 0.21477723 -0.28036672 -0.010360241
000290 9c 82 a0 be 44 42 1a be f8 99 66 3e a0 87 57 bd
       -0.31349647 -0.15064341 0.22519672 -0.052619576
0002a0 fc eb a6 be fb d7 44 bf fa c7 3f 3e 5f 5e ac 3e
       -0.32601917 -0.7689206 0.18728629 0.3366575
0002b0 e8 de 4e 3e 7d 71 77 3e ac 72 1d bf ed 96 63 be
       0.2020222 0.24164386 -0.615031 -0.22225542
0002c0 54 4e 58 3c e1 2e cb be 5d 4d 68 3e 8e 9d ba be
       0.013202269 -0.39684203 0.22685762 -0.3644833
0002d0 b5 13 38 be 45 98 a4 3e 68 b9 d3 ba cf 98 93 3e
       -0.17976268 0.32147422 -0.0016153278 0.2882752
0002e0 f1 38 29 be 82 47 0d 3e 3a 11 a6 be 8a 49 a3 3d
       -0.16525628 0.1379681 -0.32435018 0.07973011
0002f0 72 ae 92 be 56 d7 ab be 22 01 bf be 96 0b a8 3e
       -0.28648716 -0.33562726 -0.37305552 0.3282134
000300 42 90 19 bf 98 b5 9b 3e 5e 84 14 be 50 e1 4f be
       -0.59985745 0.30411983 -0.14503619 -0.20300794
000310 b3 a0 31 3d 6e 4d 02 be 21 6d 63 3d fc f6 b0 3d
       0.043366145 -0.1272485 0.055523995 0.086408585
000320 6e 0b 98 be 14 a9 81 3e 9f 1e 2f bc 1d 22 99 be
       -0.2969622 0.2532431 -0.010688453 -0.2990884
000330 3c c4 bb 3d 8e a9 08 3e 55 c9 3c 3e 67 d4 e6 bd
       0.09168288 0.1334593 0.18436177 -0.11270981
000340 16 70 5b be 52 a6 b1 be 76 b0 4c 3e 0c cb 74 be
       -0.21429476 -0.34697205 0.1998919 -0.23905581
000350 83 ce af 3e 7c c2 ff 3d d8 fe c7 3e 0d 55 92 3e
       0.34337243 0.12488267 0.39061618 0.28580514
000360 ee e3 57 3e e6 04 54 3e 6c 97 a9 be 2e 1b ba 3e
       0.21083042 0.20704994 -0.33123338 0.3634886
000370 7c 47 7b bc f7 97 1c 3f 7c 07 91 be 98 cc 65 be
       -0.015336867 0.6116938 -0.28326023 -0.22441328
000380 36 27 d6 3e e6 0d d7 bd 75 9d 93 3e 38 aa 47 bf
       0.4182679 -0.10500698 0.28831068 -0.7799411
000390 4c 38 75 3e c3 b4 9a be da 58 63 3e 91 87 c1 3e
       0.23947257 -0.30216035 0.22201863 0.3779874
0003a0 32 9a 02 3e bc 93 5c be 9b 47 ae 3d 55 72 15 3e
       0.12754133 -0.21540731 0.085097514 0.14594395
0003b0 d3 49 5a be 0d e7 aa 3e db 9f 78 bd e0 5f 06 bf
       -0.21317224 0.33379403 -0.060699325 -0.52490044
0003c0 bb 2b b8 3e ea f9 9e 3d 18 37 b0 3e fa f3 b4 3e
       0.35970864 0.07762511 0.34417033 0.3534239
0003d0 64 fe f2 3d 0a 80 af be 04 80 a3 3e a7 9b ac be
       0.118649274 -0.34277374 0.31933606 -0.33712503
0003e0 b3 34 33 be 80 fa a5 3c 9d f0 a3 be 1b f1 96 3e
       -0.17500572 0.02026105 -0.3201951 0.29480824
0003f0 10 c2 ff be 9a ca 0d 3d f1 36 92 3e ea 1d be be
       -0.49952745 0.034617044 0.28557542 -0.37132198

y1_to_y2.weight f4 [256, 256]
000000 96 b0 d1 3d d2 78 a2 3d fe ee 49 3d 26 60 a4 be
       0.10238759 0.07933201 0.049300186 -0.32104605
000010 97 0d b0 3d cb e4 7e be ee cd 82 be 7e 17 95 be
       0.08596342 -0.24891965 -0.25547737 -0.29119486
000020 47 c8 1d be 20 9d 22 bd 8f 2b af 3d 97 09 5b 3e
       -0.15408431 -0.039700627 0.0855323 0.21390377
000030 69 89 80 3c 6a 1e 75 3c 4c e0 1f 3e 12 2d c8 bd
       0.015690522 0.014960865 0.15612906 -0.097742215
000040 71 5e 47 3e bd 08 58 bd 39 4c f1 3d 28 90 99 bd
       0.1946962 -0.05274271 0.117821164 -0.07498199
000050 2c 9b 76 bf 0f d9 81 bf ec b8 00 bf 7c 7c 89 3c
       -0.96330523 -1.0144366 -0.5028217 0.016782992
000060 ad ec d1 3b 5d aa 98 bc cb 1b 87 bb 5e 22 a4 bf
       0.006406388 -0.018635923 -0.004123186 -1.2822988
000070 ef 00 ce bc 38 fc f9 bd f3 c9 46 3d 6c bb 12 3d
       -0.02514693 -0.1220631 0.048532438 0.03582327
000080 56 29 0a bf db 50 1c be 1e 0c 9b bd 39 d4 9c bd
       -0.53969324 -0.15265219 -0.075706705 -0.07657666
000090 fc 70 9c 3d 58 a2 f5 bd 89 6c 65 be 0d 72 28 be
       0.076387376 -0.11993855 -0.22404684 -0.16449757
0000a0 41 6c 80 be b9 d9 95 be 6e 24 2a 3d 43 36 74 ba
       -0.2508259 -0.29267672 0.04153865 -0.0009315947
0000b0 02 38 3f 3f 62 13 f8 3e ec 02 8f 3d 18 44 f5 bd
       0.74694836 0.48452288 0.06982979 -0.119758785
0000c0 04 48 87 3e 7a 5b 8e 3e 05 8b 1a 3d 45 29 3e 3c
       0.2642213 0.27804166 0.037730236 0.011606519
0000d0 80 d9 71 bd 51 06 7a bf aa 69 11 be b7 4f af be
       -0.059045315 -0.9766589 -0.14200464 -0.34240505
0000e0 49 2f 75 be 88 2e c8 bd 20 00 db be 0e ee 05 3e
       -0.23943819 -0.097745 -0.42773533 0.13079092
0000f0 b5 00 e2 bd db 8a 68 bd 0a e1 fd bc fa 4f d8 3d
       -0.11035291 -0.056773048 -0.030991096 0.10562129
000100 d0 6c 8d 3d be 11 79 be 40 7e 2e bf 4d c2 d7 be
       0.0690552 -0.24323174 -0.6816139 -0.42140427
000110 6b 77 2c be 0f eb ae 3e 5b f1 9c be 33 eb 9a 3d
       -0.1684243 0.3416371 -0.3065289 0.07564392
000120 d9 d8 25 bf 75 22 b8 bf b4 8e 92 bc 9e 45 e6 be
       -0.6478401 -1.4385515 -0.017890312 -0.4497499
000130 67 35 df 3c 2d ac b7 bd 4c 22 43 3c 64 fc 03 bf
       0.027247144 -0.08968387 0.0119100325 -0.5155699
000140 98 fe df bd ee 96 86 bc e9 46 8e bf bd dd b4 3c
       -0.10937232 -0.01642939 -1.111539 0.02207839
000150 22 df 31 bc a7 8d c8 bc 3f 49 8c bd ac 19 58 3d
       -0.010856422 -0.024481608 -0.06849908 0.052758858
000160 37 1b 53 3e a6 db df bc 2d 8c 30 be 69 68 82 bd
       0.2061585 -0.027326416 -0.17240973 -0.06367571
000170 f4 ad 07 3d a3 41 a8 3d 25 ff cf bc 63 7b 8d bc
       0.03312488 0.08215644 -0.025390217 -0.01727075
000180 88 ac 1a bd ca a1 7a 3d 22 47 d9 be 3d 76 cd bd
       -0.037762195 0.06118945 -0.42437083 -0.10032318
000190 68 7c 3b bf 4b 4f 11 bf 3b 85 2c 3e ce ca cb bc
       -0.73236704 -0.56761616 0.16847698 -0.024876978
0001a0 5f 16 0b bf ad d1 c0 3b af aa 6f be fa e3 86 bf
       -0.5433101 0.0058843703 -0.23404954 -1.0538323
0001b0 a5 fa db 3d 90 3b 59 be 51 3d 47 bf cf d2 57 be
       0.10741166 -0.21214128 -0.77827936 -0.21076511
0001c0 d0 f0 36 3e 91 7a ea 3d 78 c2 53 bd a6 69 ad be
       0.178653 0.11449159 -0.05169913 -0.33869666
0001d0 d4 38 46 bc 7a d5 e9 bd 55 5a 93 be 07 75 39 bc
       -0.01209851 -0.114176705 -0.28779855 -0.011319405
0001e0 d2 34 cc 3d 18 5e 98 be 87 6b c5 3d 06 ef d3 be
       0.09971012 -0.29759288 0.0963965 -0.41393298
0001f0 21 9e 63 3d b7 3a a6 3e d6 14 17 3f 33 01 0c bf
       0.055570725 0.3246667 0.5901617 -0.5468933
000200 cd b0 63 bd 03 67 bf 3d 18 04 e2 bd 50 4c 57 bf
       -0.055588532 0.0934582 -0.11035937 -0.8410082
000210 30 ea df bc ef 38 af 3e f7 89 cd bc bf 67 d3 bc
       -0.027333349 0.34223124 -0.0250902 -0.025806306
000220 e7 fd 42 3d c4 a8 16 3f 15 94 8c bf dd 65 8d bd
       0.04760542 0.58851266 -1.0982691 -0.069041945
000230 0b ab 5f be 33 90 8c 3d bc 6d 2f 3d 6c 6c 55 3e
       -0.21842591 0.06863441 0.04282926 0.20842141
000240 ce 13 3f bf c2 e6 95 bb 18 d0 a1 3e a7 84 e5 3c
       -0.74639595 -0.0045746276 0.31604075 0.028017355
000250 ac 8e bb 3d 77 16 b1 3d 1d 14 24 3e 9e bb aa 3d
       0.09158072 0.08646863 0.16023298 0.083365664
000260 c6 76 14 3c 05 a7 98 3e 4d 20 16 3e c1 18 2d 3e
       0.009061521 0.29814926 0.1466076 0.16903974
000270 ab 3b 91 3d bd 86 c0 3c d9 04 23 be b3 e4 00 3e
       0.07091459 0.023501748 -0.15919818 0.12587242
000280 be e6 6b 3c 26 f2 82 be ab 20 e9 3d 80 10 df bb
       0.014398275 -0.2557537 0.11383184 -0.006807387
000290 d3 f8 36 be 7b 4a 5d be 7b 4c 75 bd 51 fd c2 bc
       -0.17868356 -0.21610443 -0.05988739 -0.023802431
0002a0 c0 f2 ee 3c a7 0c 3f 3f d1 96 27 be 25 13 70 be
       0.029168487 0.7462868 -0.16366126 -0.23444803
0002b0 6b 69 28 be ca 48 a6 bb 1d b7 a4 be ab 97 d4 be
       -0.16446464 -0.005074595 -0.32170954 -0.41521963
0002c0 53 7a a8 be c4 c3 09 be b0 ef a1 bd 1c 17 28 3e
       -0.32905826 -0.13453585 -0.07907045 0.16415066
0002d0 90 78 98 3b 53 b8 9c 3d d2 09 27 be 6c a6 80 3c
       0.004653044 0.076523446 -0.1631234 0.015704356
0002e0 93 2c 0d be 5c ab 8d bd ab 67 43 be bf 4a 07 bf
       -0.13786535 -0.0691745 -0.19082515 -0.5284843
0002f0 97 89 1c bd 37 20 2c 3e 56 0a 2e bb 09 db be bc
       -0.038217153 0.16809164 -0.0026556454 -0.023297803
000300 8e 2b 44 3f d8 e7 80 3e fb 81 52 bc 57 20 3d be
       0.7662896 0.25176883 -0.012848373 -0.18469368
000310 9f d5 11 3e 9d 37 69 3d c6 2f 20 3d 63 9d 39 3b
       0.14241646 0.056937803 0.03910806 0.002832257
000320 45 f7 4f be 22 a5 27 bd 0e b5 b6 3a d2 6d 01 3e
       -0.2030917 -0.040928967 0.0013939457 0.1263955
000330 a3 09 22 3e 9a 3f ac 3b 47 c4 79 be dd 4a 21 3d
       0.15823989 0.0052566053 -0.2439128 0.039378036
000340 5c 0d 33 be ff b9 fd bc 3d 69 f4 bd 8c c4 83 3d
       -0.17485565 -0.030972479 -0.11934135 0.06433973
000350 5f 87 0e 3e a4 74 88 3d 07 f5 cc bf 5e 72 66 bf
       0.13918827 0.066628724 -1.6012276 -0.9001826
000360 e2 ba 4d bf 9c 15 b3 be d8 62 19 3e 9f 45 0f bf
       -0.80363286 -0.34977424 0.14979112 -0.5596561
000370 f0 28 28 3e 7d 9b f5 be e6 23 cf 3e 9e d7 b5 bd
       0.16421866 -0.4797019 0.40457076 -0.08879016
000380 4f 8f 1d be 4b 63 56 3e 59 0c 44 bc 21 6f af 3d
       -0.15386699 0.20936315 -0.011965835 0.08566118
000390 93 7a 79 bf e4 30 cb 3e 30 37 a7 3e b5 4d b8 bd
       -0.9745266 0.39685738 0.32659292 -0.089991964
0003a0 c1 20 9d bd 77 0c 74 3c 1e a8 a0 3d 7b 8c e5 3d
       -0.07672263 0.01489555 0.07844566 0.11208435
0003b0 99 9d e0 bd 7c a1 80 be 36 25 9a 3e a0 84 3b be
       -0.10967559 -0.25123203 0.30106515 -0.18312311
0003c0 1c 91 a2 3d d9 45 ee be 2a a3 a2 be e6 3d 17 3e
       0.07937834 -0.46537665 -0.3176511 0.14769706
0003d0 05 a5 95 3d 87 a9 9c bd 60 3f 3a bf 9c 26 92 be
       0.073068656 -0.07649522 -0.7275295 -0.28545082
0003e0 8c a2 32 3d 6c 74 a6 bf 2f eb 76 be 42 87 90 3d
       0.043612048 -1.3004279 -0.24113153 0.070570484
0003f0 af e8 93 bf 36 7a 39 bc 36 89 4a 3e 35 90 6d 3e
       -1.1555384 -0.011320641 0.19778904 0.23199542

y1_to_y2.bias f4 [256]
000000 70 67 ca bd 51 64 20 3d 55 7a 98 bd d2 f4 4f bd
       -0.098830104 0.03915817 -0.07445208 -0.05077059
000010 11 9a 5d 3e 39 73 45 3d 5e 22 4a bd 4f 7c b4 be
       0.21640803 0.048205588 -0.04934918 -0.3525109
000020 e0 94 b7 bd 67 68 00 be 4a 57 5f be 76 7d 66 3e
       -0.089639425 -0.12539826 -0.21810642 0.22508797
000030 4c e1 8c 3e df 7c bd 3e 90 0f 49 3e 9d 81 00 be
       0.27515638 0.37009332 0.19634843 -0.12549444
000040 01 3d 12 be 9f 67 d5 3e 0b 1d 0c be 3e 31 9b 3e
       -0.14281084 0.4168062 -0.13682954 0.30311006
000050 04 35 bc bd e5 11 8b bd e7 e8 89 bd 7d 52 a4 bc
       -0.091897994 -0.067905225 -0.06733876 -0.020058865
000060 b8 62 72 3e cd 58 54 bc e6 65 31 3e 55 44 02 3e
       0.2367047 -0.012960625 0.17324027 0.12721379
000070 e7 7d a0 bd 8d 93 a1 3e b1 e1 e6 3d c8 ca cb be
       -0.07836514 0.31557885 0.11273516 -0.39803147
000080 9b 71 07 be e7 87 5e 3e 47 92 cc bd e8 dd 4d 3e
       -0.13226931 0.2173153 -0.09988838 0.20104182
000090 84 e8 97 bd 06 32 7c bb 33 da a1 be 88 77 44 3d
       -0.07417396 -0.0038481965 -0.31611785 0.047965556
0000a0 7a 85 78 3e f6 80 63 3e b4 2e 8d bb b1 6f de bd
       0.24269667 0.22217163 -0.004308546 -0.10861147
0000b0 3d ed 25 3e 56 a4 10 bd 41 49 c0 bd f8 ea 09 3d
       0.1620378 -0.035312973 -0.09388972 0.03367135
0000c0 6c 1d 1e 3c ba 51 6a bc 84 14 8e 3a a7 64 89 3d
       0.009650569 -0.014301712 0.0010839854 0.06708651
0000d0 e8 4e ce bd af d2 d8 bd bc c4 0e 3e 4b 54 00 bd
       -0.10073644 -0.1058706 0.13942236 -0.031330388
0000e0 03 4d 6e 3e 3e 31 88 be 28 6d 81 3d dc c5 e3 bd
       0.23271565 -0.2660007 0.06319648 -0.11121723
0000f0 39 ac da 3d 90 93 e3 bd 60 a3 64 bd ef cb 74 3e
       0.1067738 -0.1111213 -0.05581987 0.2390592
000100 34 ce bc bd 6d 91 29 bd bc ff 96 bd 58 22 f6 3d
       -0.092190176 -0.041398454 -0.07372996 0.12018269
000110 a8 ce 44 be 43 ee 25 3f 13 48 ff bd 62 ea a5 3e
       -0.19219458 0.64816684 -0.12464919 0.32405382
000120 21 0d d1 bd 7f e3 4e 3c 10 1e 3c bd 2a b9 42 3e
       -0.10207582 0.0126274815 -0.045927107 0.19015947
000130 29 9b a6 3b 87 f5 0b bd f2 49 57 be dc cb 4f 3e
       0.0050844145 -0.0341697 -0.21024302 0.2029261
000140 be f8 6a be d0 5d 57 3d 26 6c a3 bd b8 85 e6 bd
       -0.2294645 0.0525797 -0.07979612 -0.112559736
000150 3a 2d 65 bd d8 c8 7b 3e 8f d1 86 bd 92 5d 9d bd
       -0.055951335 0.24588335 -0.06582939 -0.07683863
000160 4f 3d 29 3e 56 3b 88 3e 96 ed 87 bd e4 a1 00 3c
       0.16527294 0.2660777 -0.06637113 0.007851098
000170 86 d4 4e 3d 61 f9 9f bd e7 ac b2 3e f5 85 8b 3d
       0.050495647 -0.07811237 0.3489754 0.0681266
000180 c9 8a 27 3e 96 f2 d3 bd d9 b7 c3 3d 6f 66 c5 bd
       0.16361536 -0.10349004 0.095565505 -0.09638678
000190 d0 76 ae 3d 1a b9 66 bd 3c 90 63 3d d3 d4 b3 bd
       0.085187554 -0.05632887 0.055557474 -0.087808274
0001a0 8b 98 9e 3e e0 c9 86 bd 54 00 24 3e 41 4e ad bd
       0.30975756 -0.06581473 0.1601575 -0.084621914
0001b0 98 0c 88 bd 63 b0 45 3e cc 69 a5 3e 64 9e 13 be
       -0.06643027 0.19305567 0.3230728 -0.1441589
0001c0 18 44 17 be d8 4d dc bd 09 8a ca bd 4d a6 05 bc
       -0.1477207 -0.10757035 -0.09889609 -0.008157325
0001d0 34 aa 17 be 95 a8 73 bd 8f ac e5 bd 56 88 73 3d
       -0.14811021 -0.059486944 -0.112145536 0.059456192
0001e0 9d 19 f3 bd 69 83 0e be c4 fb 15 be 78 1c 10 bc
       -0.1187012 -0.13917316 -0.14646822 -0.00879585
0001f0 1a 39 06 3f ba cb 29 bd c3 63 75 bd b1 7e 1c be
       0.5243088 -0.041454054 -0.059909593 -0.15282704
000200 cb dc b4 bd 9e 0e 9a bd 2e 35 b6 3e c8 fe a0 3e
       -0.088311754 -0.07522319 0.35587448 0.31444383
000210 1b 3a 1e 3e 04 b9 59 3d 93 1e af bd 78 9c 0a be
       0.15451853 0.05315496 -0.085507534 -0.1353625
000220 03 59 17 be 5a 6a 93 3c 68 71 4b be 64 d1 92 bd
       -0.14780049 0.017995048 -0.1986748 -0.07168844
000230 d2 27 b6 bd be 8c e7 bd a0 79 e6 bd b8 18 1c bd
       -0.08894314 -0.11306141 -0.11253667 -0.03810951
000240 8c 64 97 3e 6c ce 3c 3e e8 48 c5 bd a9 e3 e0 be
       0.295689 0.18438119 -0.096330464 -0.4392369
000250 94 78 01 3e 4d 5d 9a bd 75 e9 a0 be dd 0f 10 bd
       0.12643653 -0.07537327 -0.31428114 -0.03517138
000260 61 8c 3d 3e e0 61 69 3c 2c 30 79 bd ab 20 4a bd
       0.18510582 0.014244527 -0.060836956 -0.04934756
000270 dd b2 e8 3e d1 40 5a be c8 62 d3 bd 12 c6 6f bd
       0.45448962 -0.21313788 -0.103215754 -0.058538504
000280 d1 6e e1 bd 2f e2 ad 3e 59 60 f7 3d e9 74 96 3e
       -0.11007465 0.33961627 0.12078924 0.2938607
000290 e7 22 42 3e bc d9 98 3e fb 0f 28 be c5 5e d2 bd
       0.18958627 0.29853618 -0.16412346 -0.10271982
0002a0 80 d5 47 bd 1c 3d f3 bd 67 8f 83 3e f9 6f c0 bd
       -0.048787594 -0.1187689 0.25695345 -0.09396357
0002b0 9b b0 75 bd d0 c5 00 be 0d f4 f5 bd b1 44 a2 bd
       -0.059982877 -0.1257546 -0.120094396 -0.07923258
0002c0 16 dd e3 bd a7 b5 1a be 3f 73 5a bd b9 27 f9 bd
       -0.11126153 -0.15108357 -0.053332563 -0.121657796
0002d0 4c f4 97 3c 13 c5 c4 bd e6 ac 41 3d c0 54 35 be
       0.018549107 -0.096079014 0.04728403 -0.17708111
0002e0 af 70 5f 3b 8c 05 c5 bc 5e ff d8 3d 58 c4 72 bd
       0.0034094264 -0.024050497 0.105955824 -0.05926928
0002f0 38 e0 b0 3d 1f fa 42 bd e2 e2 a7 bd 92 a3 48 3e
       0.08636516 -0.047601815 -0.08197571 0.19593647
000300 36 d0 dc bd 76 f2 6b bd cb 23 26 be 50 8c 02 3e
       -0.107819006 -0.057604276 -0.16224591 0.12748837
000310 81 7a 39 bd 25 0b 06 be 66 33 eb 3d f2 c7 cb bd
       -0.045282844 -0.13090189 0.11484413 -0.09950246
000320 81 e6 1f 3d f7 c9 1d be 02 59 97 3c 75 2a 19 3e
       0.039038185 -0.15409075 0.01847506 0.14957602
000330 0d e6 9c be 78 2d 60 bd 61 30 b4 bd d4 47 89 bb
       -0.30644265 -0.054730862 -0.0879829 -0.004189471
000340 2b 5e 91 bc 21 ef 95 3e 7b ba a3 bd 0e 59 fe 3e
       -0.017745098 0.29284003 -0.07994553 0.49677318
000350 b2 53 e7 bd b6 0e 1d be 38 ae 78 be 17 4a 40 3d
       -0.112952605 -0.15337643 -0.24285209 0.046945658
000360 0e 53 82 bd 82 ff a2 3e ba 77 14 be da 03 78 3b
       -0.06363498 0.31835562 -0.14498797 0.0037844093
000370 a7 8d c0 3d 1f 75 16 3e 31 d4 c8 bd 43 91 da bd
       0.09402018 0.14693116 -0.09806097 -0.10672238
000380 1a 5e 06 3f 2a 76 88 3e 42 bb b1 bd b1 49 9e bc
       0.5248734 0.26652652 -0.08678295 -0.019322248
000390 60 16 47 3e af 4e a1 be 44 a3 fb 3e d0 5b 28 be
       0.19442129 -0.31505343 0.49148 -0.16441274
0003a0 9e 5f d0 3b a6 29 0b be 4e cf ce 3e 4c fa 6f bd
       0.0063590547 -0.13590106 0.40392536 -0.05858831
0003b0 ec c9 8d bd 74 9e 8d bd 6e 38 d8 bd 71 1e 29 bd
       -0.06923279 -0.06914988 -0.10557638 -0.041288797
0003c0 9b 82 1a be 32 8b 82 bd 16 03 5a 3d 97 97 2a bd
       -0.15088885 -0.06374206 0.0532256 -0.041648474
0003d0 9d c1 e2 3e b2 14 1f 3f 2e 2f 1e be 81 22 23 3e
       0.4428834 0.62140954 -0.15447685 0.15931131
0003e0 17 d5 0d 3f d1 77 45 3e 85 f8 6a 3e 92 64 62 3e
       0.55403274 0.19283988 0.22946365 0.22108677
0003f0 49 f3 36 bd 83 01 da 3e a3 09 16 bd 25 05 8b 3f
       -0.04466561 0.42579278 -0.036630284 1.0860945

out.weight f4 [2, 256]
000000 1d 89 38 3f 31 16 4c bf c6 15 c6 bc b2 48 ad 3f
       0.7208422 -0.7972136 -0.024180304 1.353781
000010 36 c1 11 bf 62 73 24 3b f1 c0 95 bd 74 9f 96 bd
       -0.5693544 0.0025093188 -0.07312191 -0.07354632
000020 79 71 27 be 22 be 33 be 3e 8f 7f 3c 0e 75 aa bf
       -0.1635188 -0.17552999 0.015598116 -1.3316972
000030 f6 13 8f be 0b 6e 14 3f 7e db a1 be bd 6e bb 3d
       -0.27944916 0.5798041 -0.31612772 0.09151981
000040 89 e7 3b be 50 02 54 3f 5d e5 95 bc ec 43 c7 bf
       -0.18350042 0.8281603 -0.018297845 -1.5567603
000050 61 8f 1a bd c7 9f 16 be e3 62 6b 3c d7 81 29 3e
       -0.037734393 -0.14709388 0.014366838 0.16553436
000060 e3 6d 9d bd af 77 f4 3e d4 f8 06 bf b1 c7 c7 be
       -0.07686975 0.4774756 -0.5272343 -0.3901954
000070 45 bf ea be c5 89 67 3f 91 48 aa 3d a0 95 8e be
       -0.45849052 0.90444595 0.08314622 -0.2784853
000080 bb c4 da 3d e4 69 16 3f e2 53 92 3f 04 df 45 bd
       0.106820546 0.58755326 1.1431849 -0.048308387
000090 19 19 4a bc 3b 1e 3e 3e b3 2a 4c 3e 71 d9 0b 40
       -0.012335085 0.1856622 0.19938163 2.1851466
0000a0 65 80 c9 3f f3 8a d8 3e 47 48 80 3d 34 d6 47 3e
       1.5742308 0.4229351 0.06263786 0.19515306
0000b0 13 98 8d bf 41 0b c5 bd 32 36 6b bd 4b 47 25 3f
       -1.1062034 -0.09621287 -0.05742473 0.6456191
0000c0 59 08 7f 3d df b0 dc bf e4 ba 96 3e 5a 2c 13 bf
       0.06226382 -1.7241477 0.2943946 -0.5748955
0000d0 9f b3 86 bd 93 c9 9f be 70 a2 10 be 62 4d be be
       -0.06577229 -0.31208476 -0.14124465 -0.37168413
0000e0 64 53 99 bf 52 ff f0 bc e4 c9 5d bf 04 2a f5 3b
       -1.1978574 -0.029418621 -0.86636186 0.0074818153
0000f0 42 81 81 3f e5 06 9c 3d 16 3e 0f 3d 38 22 13 3f
       1.0117571 0.076185025 0.03497132 0.5747409
000100 23 74 9b 3b 99 a8 14 3e 8c f6 bb bd 50 c4 44 bf
       0.004744069 0.1451744 -0.091778845 -0.7686205
000110 97 6f 8c bb 96 88 bd be 8b 8f fe 3d 66 aa 14 3f
       -0.0042857635 -0.3701827 0.124297224 0.5807251
000120 fc 95 82 3d 04 4d b9 be 44 9f 04 3f 66 77 9b bd
       0.063762635 -0.3619157 0.5180552 -0.07591133
000130 15 c0 87 bf 72 d1 c8 bf 36 00 4c 3d 5b ab a8 be
       -1.0605494 -1.5688918 0.04980489 -0.32943234
000140 bf 99 05 be a6 7b 83 be 11 13 35 bd 6e 47 64 3d
       -0.1304693 -0.25680274 -0.044207636 0.055732183
000150 ec 67 17 3e c9 eb 29 3f 3f 1b ff 3f 7c 89 14 3c
       0.14785737 0.66375405 1.993019 0.009065982
000160 64 34 2a 3f c9 8a 00 bd 9f e9 9b 3c 28 06 ab 3c
       0.6648619 -0.031382356 0.019032298 0.020876959
000170 ce f7 f9 3d ad e7 09 3e d6 05 7a be 27 29 40 3f
       0.12205468 0.13467284 -0.24416289 0.75062793
000180 be 4a b7 3f 15 89 32 3d 77 c5 79 3e 03 7e a5 bd
       1.4319685 0.043587763 0.24391733 -0.080806755
000190 b4 88 e2 3d a7 35 32 be b7 cd fe 3d 7c 7e ae bd
       0.1106123 -0.17403279 0.12441581 -0.08520219
0001a0 88 f9 3e 3f 54 56 32 3e 50 88 1f 3e 75 e5 73 bf
       0.74599504 0.17415744 0.15579343 -0.95272
0001b0 75 e9 d2 bd e6 46 ab bf c4 92 d6 bf b1 89 44 3d
       -0.10298435 -1.3381011 -1.6763539 0.047982875
0001c0 60 e2 4c bd e7 d3 90 bd 14 a9 b4 3b 57 e6 a0 3d
       -0.050020576 -0.07071667 0.0055133197 0.07856434
0001d0 68 71 1d bd ba 12 0f 3e 3e 1c a3 3c 83 fb 79 be
       -0.03843823 0.13971987 0.019910928 -0.2441235
0001e0 85 66 c5 3f d9 c5 10 3a 27 9c 15 3e 23 c5 1e 3f
       1.5421911 0.00055226457 0.14610349 0.62019557
0001f0 7d b0 8e 3f ab f7 fe 3d 99 69 27 be a5 35 27 3e
       1.114761 0.12449583 -0.16348876 0.16329058
000200 ae 6e 1e 3b 5b e4 10 3e 00 da a9 3f c6 44 f6 3d
       0.0024174857 0.1414961 1.3269653 0.12024836
000210 e7 e0 be 3e a2 07 07 3e 00 b8 07 3d 4a db 04 3e
       0.37280962 0.13186505 0.03313446 0.12974277
000220 1f 14 d4 3b 1d a3 26 3f a9 29 81 be ba 10 8d 3c
       0.006472125 0.6509264 -0.25227097 0.01721989
000230 96 a4 50 3e d1 18 a5 bd 20 a2 22 be 7e 2e 87 bd
       0.20375285 -0.08061374 -0.15882158 -0.066006646
000240 6b 5f 90 bf ec fa a5 bf 80 d4 9f 3c 19 5c fd bd
       -1.1279119 -1.29672 0.019510508 -0.12371082
000250 9f da 20 bb fa 5d 6d 3e 63 ec 1e 3f 49 ef c2 3d
       -0.002454437 0.2318038 0.6207945 0.09518296
000260 be 96 77 3f d6 b2 d8 bd c1 6d 4b 3e 81 72 9b bd
       0.9671439 -0.10580985 0.19866087 -0.07590199
000270 b3 83 b2 3e 17 29 ea 3e 71 2a 5d 3d 88 b7 85 bf
       0.34866104 0.45734474 0.053995553 -1.0446634
000280 29 c3 16 be ab 8f 38 bf de e8 23 bf 77 1d b9 be
       -0.14722885 -0.7209422 -0.640272 -0.36155292
000290 e2 11 75 bf 4d 3b 85 3f d8 4c 59 bf bd 0c 4a be
       -0.9573041 1.0408722 -0.8488288 -0.19731422
0002a0 e2 78 33 3e b5 4f 12 bd 68 f1 bb 3e 11 70 ce bc
       0.17526582 -0.035720546 0.36707616 -0.025199922
0002b0 86 9f 1f be dc 7b 30 3d bb 80 b1 3c 60 44 16 3e
       -0.15588197 0.04308687 0.021667829 0.1467452
0002c0 f1 9f 59 3e 3c c5 38 3f 88 70 44 3c 73 8f c3 bc
       0.21252419 0.72175956 0.01198972 -0.023872113
0002d0 34 9e 7d bf 0e d3 93 3d 5b 7b eb 3e e6 5a b2 bc
       -0.99069524 0.0721799 0.4599255 -0.02177186
0002e0 f3 bb 96 bd 1c 28 27 bd d5 c7 94 be dc 63 96 3d
       -0.07360067 -0.040809736 -0.2905871 0.073432654
0002f0 b5 bc 0c 3f 7c e2 6e 3d 5f 9f 91 bc 50 3e 8e bf
       0.54975444 0.05832146 -0.01777619 -1.1112766
000300 4c 4c 4e bf f0 d6 83 bb df e6 04 3e 98 af 8a be
       -0.8058517 -0.0040234253 0.12978695 -0.27087092
000310 ea 03 0c 3b 0f e2 6f 3f 53 66 e6 3e 41 71 e3 bd
       0.0021364638 0.93704313 0.44999942 -0.11105586
000320 50 08 ab 3f 11 aa 20 3d 85 47 8d be 21 b2 0e bf
       1.3361912 0.039224688 -0.27593628 -0.55740553
000330 e5 f8 e9 3d 5e 70 c9 3d 6e ed ad bc e0 a2 32 be
       0.11424426 0.098358855 -0.02123138 -0.17444944
000340 58 b7 ac 3e bf f5 8f 3f 9a bc 42 bd 46 da 81 be
       0.3373363 1.1246871 -0.047543146 -0.25361842
000350 e7 bd 8c bd 10 94 21 3d ce 69 8f 3e bd b3 c5 bd
       -0.068721585 0.039447844 0.2801041 -0.09653423
000360 f2 fc d4 bd dc 7d 0f 3f f2 ea 64 bc ba 0e 5c 3c
       -0.10399808 0.5605142 -0.013972031 0.013431245
000370 c6 af 5a 3e 9c 9d 8b bf 4f 27 d1 bd a9 85 cb bc
       0.21356115 -1.0907474 -0.10212576 -0.024844008
000380 67 69 96 3e f7 a0 a2 3f a1 ee d0 bb d0 7d ea bf
       0.2937729 1.2705373 -0.006376103 -1.8319645
000390 e9 d3 21 bf 08 1a 33 3e 58 74 55 3f 3e 74 83 bf
       -0.63213974 0.17490399 0.8338065 -1.0269849
0003a0 79 f8 c7 bf 78 0d 1c be 09 50 a3 3e ff d1 0b 3e
       -1.5622703 -0.15239513 0.31897 0.13654326
0003b0 dd 29 05 be ca 39 1c be c2 5b 35 be e0 b7 f1 bd
       -0.13004251 -0.1525642 -0.17710784 -0.118026495
0003c0 59 db 06 be 77 d8 1e bd 32 20 3b c0 ce 06 0b 3e
       -0.13169612 -0.038780656 -2.92384 0.13576815
0003d0 73 71 70 3f 3a 62 bf be d5 2a ef be 01 10 11 3e
       0.9392311 -0.37379628 -0.46712366 0.14166261
0003e0 c8 35 8d 3f f3 a4 02 bd 8b 4e 96 bf 38 35 b5 bf
       1.1032038 -0.03189559 -1.174272 -1.4156866
0003f0 53 40 76 be 47 ad f0 3e c7 5f 62 bd d9 54 23 3e
       -0.24047975 0.470072 -0.05526712 0.15950336

out.bias f4 [2]
000000 ae a9 69 be 31 84 c0 3c
       -0.22818634 0.023500534

std_out.weight f4 [2, 256]
000000 4a fd f7 bd 4b 3f 32 3c b3 52 92 3d ac 6c 03 3e
       -0.12108858 0.010879348 0.0714468 0.12834424
000010 a9 37 26 3e 4c 18 51 bd 30 1e 21 3d bd f1 b7 bc
       0.1623217 -0.051048562 0.03933543 -0.022454137
000020 1b 8f 88 3e 27 d9 75 bd 68 94 07 bd 18 76 46 bd
       0.2667168 -0.060021546 -0.033100516 -0.048452467
000030 8a b7 9e bd 50 74 1a bc 64 ed 45 3d 1d fb 9f 3e
       -0.07749851 -0.009427145 0.048322096 0.31246272
000040 53 b0 f7 bb 9d 2d d8 3c a6 09 fa bc 6d ba 1b 3e
       -0.0075588613 0.026388938 -0.030522179 0.15207835
000050 a7 7c ec bc 5f ee 1a bd fa 8b 3f be 76 ef b9 3d
       -0.028868033 -0.037824985 -0.1870574 0.09078877
000060 66 4e a5 bd 3a 27 39 be 21 84 12 bd 41 1b 3d 3d
       -0.08071594 -0.1808137 -0.03577054 0.04616857
000070 27 2e d1 3d 50 b7 8c 3d 02 a2 13 bd 86 71 04 bd
       0.10213881 0.068709016 -0.036043175 -0.032334827
000080 b6 5a bd 3d 82 ec c8 3c 17 17 59 bd c4 ff 94 be
       0.09245817 0.024526838 -0.053000536 -0.29101384
000090 06 76 de bc 5e 4d 60 3e ff c8 f9 bd fc b3 83 3c
       -0.027155887 0.21904513 -0.1219654 0.016077034
0000a0 9e c7 96 bd 49 fc 8f bd 62 2c 22 3e 0e 03 3c 3e
       -0.07362293 -0.070305414 0.15837243 0.1836054
0000b0 46 4c ad 3e 7c 39 e8 3d 10 06 0b 3d 5a 26 e9 3e
       0.33847255 0.11339089 0.03394133 0.45537072
0000c0 ae a4 fa 3c cd 14 cf 3d a8 4c 7d 3d 52 94 e3 3d
       0.030596104 0.10111389 0.061840683 0.11112274
0000d0 2d 3f f9 3c 5f 29 94 bc 8a 51 ad be ab f5 ae bc
       0.030425632 -0.018086134 -0.33851272 -0.021357378
0000e0 ca 57 0b be ec f2 3e bc cc 7f a3 bb 3a de 40 3c
       -0.13607708 -0.011654597 -0.0049896 0.011771733
0000f0 7c d0 da 3e e4 f8 e4 bd af 15 79 bd 1b 0a b5 bc
       0.42737186 -0.111802846 -0.060811695 -0.022099545
000100 d2 4f 75 3e 6f cb ad bb 2a 52 7c 3b 9a 6d 5a 3e
       0.2395623 -0.005303792 0.0038501122 0.21330872
000110 ef 7c d4 bc 68 f8 2d be df b2 82 be b5 65 bb be
       -0.02593848 -0.1698929 -0.25527093 -0.36601034
000120 eb 9f 2f bc 15 91 b9 3d a9 86 c2 bc a7 ba 02 3e
       -0.01071928 0.09060875 -0.023745852 0.12766515
000130 66 c4 4c ba 97 23 dd 3c ef fe 90 3a 7a 14 c3 bd
       -0.0007811248 0.02699451 0.0011062304 -0.0952539
000140 7c 7e 26 3e 2a 26 09 be 8e 4f 82 3c 4f c9 36 3e
       0.16259187 -0.13393465 0.015907075 0.1785023
000150 e8 5a cf 3d 5a f9 ed 3d da 3d 02 be 0d 75 93 bc
       0.10124761 0.11619826 -0.12718907 -0.01800015
000160 41 86 5e 3d 6e 08 fe 3d c6 92 a7 3d ea fc 1c bd
       0.054327253 0.124039516 0.08182292 -0.038327135
000170 fb b9 cd bc 35 43 88 3c 1d 36 0e 3e e9 0a 20 3b
       -0.025113096 0.01663361 0.1388783 0.0024420565
000180 87 81 45 3e 84 81 36 be 3d ed 89 3d 20 ba 41 bd
       0.19287692 -0.17822844 0.06734703 -0.047296643
000190 93 6b e0 bd b6 81 40 3e bb e3 e0 3c 6d 22 d9 bd
       -0.10958018 0.18799481 0.02745234 -0.10602269
0001a0 fa 38 92 bc fd 27 3f bc de cd 6e 3d cd 6d 77 3e
       -0.017849434 -0.011667249 0.0583018 0.2416298
0001b0 29 81 ce bd 5f 26 84 3e 85 c6 1a be 7b 13 65 3e
       -0.10083229 0.25810525 -0.15114792 0.22370712
0001c0 a9 a4 b7 bd d8 16 34 bc 74 5e 66 bd b0 11 8d 3d
       -0.08966953 -0.0109917745 -0.05624242 0.06888139
0001d0 ab 52 0a 3d 77 41 55 3e e9 2e 46 3c 1c 3e a0 bd
       0.033770245 0.20825754 0.012096145 -0.078243464
0001e0 c7 23 e4 bc 73 44 bd bd d5 78 06 3e d5 c0 8a bd
       -0.027849091 -0.09241571 0.13132031 -0.06775061
0001f0 df 8f e4 3d 07 3a 26 bd d7 7c 30 bd b0 4b 23 3e
       0.11160254 -0.040582683 -0.043087807 0.15946841
000200 71 59 22 bd 4c e4 da 3d 13 d7 23 be 29 d5 30 3e
       -0.03963608 0.106880754 -0.16000013 0.17268814
000210 e4 1d c4 3d 96 0e 23 3e 23 25 f2 bd 62 5d 42 be
       0.09576014 0.15923533 -0.118234895 -0.18980935
000220 82 cc dd 3d f6 bb bd bd ca d5 d1 3d 06 e4 db 3c
       0.108300224 -0.09264366 0.10245855 0.026842128
000230 6c c0 7b 3a aa fe 84 3b 0b 6f f0 3d 7c 31 f3 3d
       0.0009603563 0.0040586786 0.1173993 0.11874673
000240 fb 2d af 3d 9b b1 2a 3e 81 72 08 bd 9e 9f b4 3d
       0.08553692 0.16669314 -0.033312324 0.08819507
000250 2e 83 cc bd 09 9e d8 bd 1d 94 6d 3e cc 43 16 ba
       -0.09985958 -0.10577018 0.23201032 -0.00057321484
000260 9c 70 3d be b6 b7 79 bc d5 ab 0b 3d 9a 95 e5 bd
       -0.18499988 -0.015241554 0.03409942 -0.11210175
000270 ac 29 f7 be dd 24 3b 3d 60 08 1c 3e 8a 8c 17 3f
       -0.4827398 0.045689452 0.1523757 0.5919882
000280 c0 fd 2b 3e 55 5b 80 bb b8 37 c9 3d da ba 54 3e
       0.16796017 -0.0039171376 0.09825081 0.20774403
000290 27 8c d6 3c f2 29 9c be 83 6d 0f be c8 b6 1f 3d
       0.026189877 -0.30500752 -0.14006619 0.038992673
0002a0 91 87 df bd 38 ed 84 bd 23 ff 97 bd 14 90 f4 3d
       -0.10914529 -0.064905584 -0.0742171 0.11941543
0002b0 39 c9 a4 bd c4 e3 0b bd 0d 9e 8b 38 85 fa 7e bc
       -0.08046193 -0.03415276 6.657476e-05 -0.015562658
0002c0 ad 1d b6 3c e0 bf 0f 3d 5e 44 1d bd 92 77 ff 3d
       0.022230947 0.035095096 -0.03839528 0.12473978
0002d0 eb 01 9e 3c 30 cc e1 3d 5e c8 7c bd b9 93 70 3e
       0.019288024 0.11025274 -0.061714523 0.23493852
0002e0 23 d6 6d 3c b7 19 e7 bd ed 80 79 be 16 34 b4 3d
       0.014516386 -0.112842016 -0.24365588 0.08798997
0002f0 0f 71 91 3d 78 02 08 3b 99 cb f7 bc 68 a3 6e 3f
       0.07101642 0.0020753425 -0.03024845 0.9321809
000300 42 74 29 be db 0e 51 3d 80 7f 8f 3c 13 d1 23 be
       -0.16548255 0.051039558 0.017516851 -0.15997724
000310 19 3e 83 3d 11 df 25 3d f5 15 36 3d 1c c0 fe bd
       0.064083286 0.040495936 0.044454534 -0.12438986
000320 c5 55 9e bd 88 b4 2f bd d5 50 4e 3d 06 28 5b be
       -0.07731203 -0.042896777 0.050370056 -0.21401986
000330 06 9e a6 bd 85 10 ee 3d 2f 4f 13 bd 77 e9 a8 ba
       -0.08135609 0.116242446 -0.035964187 -0.0012886961
000340 25 79 55 bc dc 56 2b 3e b4 4d 8e 3c 60 5e c8 be
       -0.013029371 0.16732353 0.017371036 -0.39134502
000350 e5 55 84 3d 0e 49 d7 bd eb 66 a6 bd 23 32 42 3d
       0.064616956 -0.10511981 -0.08125099 0.047411095
000360 df f7 a2 3a ce cf 97 be 7a a6 8a bc 18 f8 77 bd
       0.001243349 -0.2965073 -0.016925085 -0.060539335
000370 34 ce b4 bc e3 7d 76 be 0e 60 5d bd fb db d3 bd
       -0.022070982 -0.2407146 -0.054046683 -0.10344692
000380 30 12 ae be 6f 18 65 3d d0 6a 88 3d 06 11 04 3c
       -0.3399825 0.055931505 0.06660998 0.008060699
000390 6f 3e 29 3b 7e 0d 36 bd 72 fe 81 3e 23 74 0a 3e
       0.0025824567 -0.04444646 0.2538944 0.13520865
0003a0 4f 46 0a 3e 3f c9 77 bd 38 27 ba be 40 58 96 3d
       0.13503383 -0.060494658 -0.36358047 0.07341051
0003b0 04 5d b7 3d 18 22 81 3d e7 36 8f 3c 04 03 b6 39
       0.08953288 0.06305331 0.017482234 0.00034715992
0003c0 89 5f 52 bd 30 6f ba bc 18 0b af 3d 0b 53 fb 3d
       -0.05136064 -0.022758096 0.08547038 0.122716986
0003d0 03 4a 9d 3d 24 aa 3a be ea 21 18 3d 14 c6 3f 3e
       0.07680132 -0.18228966 0.037141718 0.18727905
0003e0 fc 77 af bc 27 b8 da bc d0 bd 57 3e 1d 6a cd 3d
       -0.021419518 -0.026699139 0.21068501 0.10030005
0003f0 d3 f8 fa bc 51 a0 24 3e 61 9a e2 bd 8d df 4a bf
       -0.030636227 0.16076781 -0.11064602 -0.7924736

std_out.bias f4 [2]
000000 b1 2d 32 bf b1 15 44 bf
       -0.6960097 -0.765956

exp_avg f4 [256, 7]
000000 13 6e a8 3c 86 a9 36 3b 0a 22 2b be dd 01 34 3d
       0.0205603 0.002787204 -0.16712204 0.04394709
000010 00 00 00 00 10 e0 fb 3a 5c 9b c6 bb 00 00 00 00
       0.0 0.0019216556 -0.0060610007 0.0
000020 00 00 00 00 00 00 00 00 00 00 00 00 00 00 00 00
       0.0 0.0 0.0 0.0
000030 00 00 00 00 00 00 00 00 00 00 00 00 00 00 00 00
       0.0 0.0 0.0 0.0
000040 00 00 00 00 00 00 00 00 00 00 00 00 00 00 00 00
       0.0 0.0 0.0 0.0
000050 00 00 00 00 29 8a a4 3b 7d a8 03 3c 25 3f 92 3e
       0.0 0.005021353 0.008035776 0.285638
000060 00 4d 11 b8 00 00 00 00 58 2d b9 ba 14 cf 10 bb
       -3.4642406e-05 0.0 -0.0014127893 -0.0022096084
000070 00 00 00 00 00 00 00 00 00 00 00 00 00 00 00 00
       0.0 0.0 0.0 0.0
000080 00 00 00 00 00 00 00 00 00 00 00 00 00 00 00 00
       0.0 0.0 0.0 0.0
000090 00 00 00 00 00 00 00 00 00 00 00 00 00 00 00 00
       0.0 0.0 0.0 0.0
0000a0 00 00 00 00 00 00 00 00 00 00 00 00 00 00 00 00
       0.0 0.0 0.0 0.0
0000b0 00 00 00 00 00 00 00 00 00 00 00 00 00 00 00 00
       0.0 0.0 0.0 0.0
0000c0 00 00 00 00 04 00 00 80 04 00 00 00 04 00 00 00
       0.0 -6e-45 6e-45 6e-45
0000d0 04 00 00 00 00 00 00 00 04 00 00 00 04 00 00 00
       6e-45 0.0 6e-45 6e-45
0000e0 00 00 00 00 00 00 00 00 00 00 00 00 00 00 00 00
       0.0 0.0 0.0 0.0
0000f0 00 00 00 00 00 00 00 00 00 00 00 00 00 00 00 00
       0.0 0.0 0.0 0.0
000100 00 00 00 00 00 00 00 00 00 00 00 00 00 00 00 00
       0.0 0.0 0.0 0.0
000110 00 00 00 00 00 00 00 00 00 00 00 00 00 00 00 00
       0.0 0.0 0.0 0.0
000120 00 00 00 00 00 00 00 00 00 00 00 00 00 00 00 00
       0.0 0.0 0.0 0.0
000130 00 00 00 00 04 00 00 80 04 00 00 00 04 00 00 00
       0.0 -6e-45 6e-45 6e-45
000140 04 00 00 00 00 00 00 00 04 00 00 00 04 00 00 00
       6e-45 0.0 6e-45 6e-45
000150 cb 43 f2 bc 78 ac 9d 3a 80 96 dc 3f ff 20 ae 3d
       -0.029573342 0.0012029549 1.7233429 0.08502387
000160 00 00 00 00 a8 ab 71 3c 7e 04 1b 3d b8 19 1d be
       0.0 0.014750399 0.03784608 -0.15341842
000170 d8 ab 41 bc 40 a4 b8 bd 28 92 5a bd 00 00 00 00
       -0.011820756 -0.09015703 -0.05336204 0.0
000180 7b ec e0 bd bc 55 94 bc 37 ca e3 bd 48 6c 0c bd
       -0.10982605 -0.018107288 -0.11122554 -0.034282953
000190 f8 98 ef 3d 13 b5 0a bd 00 00 00 00 67 09 bc bd
       0.11699098 -0.033864092 0.0 -0.09181481
0001a0 38 7d 2b bb 00 00 00 00 00 00 00 00 00 00 00 00
       -0.0026167165 0.0 0.0 0.0
0001b0 00 00 00 00 00 00 00 00 00 00 00 00 00 00 00 00
       0.0 0.0 0.0 0.0
0001c0 04 00 00 00 04 00 00 00 04 00 00 00 04 00 00 00
       6e-45 6e-45 6e-45 6e-45
0001d0 00 00 00 00 04 00 00 00 04 00 00 00 04 00 00 00
       0.0 6e-45 6e-45 6e-45
0001e0 04 00 00 80 04 00 00 00 04 00 00 00 00 00 00 00
       -6e-45 6e-45 6e-45 0.0
0001f0 04 00 00 00 04 00 00 00 da 3f e6 3c 9e a7 8b 3b
       6e-45 6e-45 0.028106619 0.004261925
000200 b8 18 88 bd e8 60 ea bb 00 00 00 00 9b 69 a3 3c
       -0.0664534 -0.0071526654 0.0 0.019947818
000210 d4 49 3b bb 04 00 00 80 04 00 00 00 04 00 00 00
       -0.002857794 -6e-45 6e-45 6e-45
000220 04 00 00 00 00 00 00 00 04 00 00 00 04 00 00 00
       6e-45 0.0 6e-45 6e-45
000230 04 00 00 80 04 00 00 00 04 00 00 00 04 00 00 00
       -6e-45 6e-45 6e-45 6e-45
000240 00 00 00 00 04 00 00 00 04 00 00 00 ee 37 17 3e
       0.0 6e-45 6e-45 0.14767429
000250 df b3 3d 3e 51 6f cc 40 d0 a5 92 3e 00 00 00 00
       0.18525647 6.3885884 0.2864213 0.0
000260 15 28 0c 3e 67 e1 23 3e 04 00 00 00 04 00 00 00
       0.13687165 0.16003953 6e-45 6e-45
000270 04 00 00 00 04 00 00 00 00 00 00 00 04 00 00 00
       6e-45 6e-45 0.0 6e-45
000280 04 00 00 00 00 00 00 00 00 00 00 00 00 00 00 00
       6e-45 0.0 0.0 0.0
000290 00 00 00 00 00 00 00 00 00 00 00 00 00 00 00 00
       0.0 0.0 0.0 0.0
0002a0 00 00 00 00 00 00 00 00 00 00 00 00 00 00 00 00
       0.0 0.0 0.0 0.0
0002b0 00 00 00 00 00 00 00 00 00 00 00 00 00 00 00 00
       0.0 0.0 0.0 0.0
0002c0 00 00 00 00 00 00 00 00 00 00 00 00 00 00 00 00
       0.0 0.0 0.0 0.0
0002d0 00 00 00 00 00 00 00 00 00 00 00 00 00 00 00 00
       0.0 0.0 0.0 0.0
0002e0 00 00 00 00 00 00 00 00 00 00 00 00 00 00 00 00
       0.0 0.0 0.0 0.0
0002f0 00 00 00 00 ec 2e 92 3d 9e 07 86 3c b0 20 e5 3f
       0.0 0.07137856 0.016361054 1.79006
000300 a6 c5 08 3e 00 00 00 00 5b 63 9f 3d f5 2f 0e 3d
       0.13356647 0.0 0.077826224 0.034713704
000310 04 00 00 80 04 00 00 00 04 00 00 00 04 00 00 00
       -6e-45 6e-45 6e-45 6e-45
000320 00 00 00 00 04 00 00 00 04 00 00 00 b6 8f ef 3c
       0.0 6e-45 6e-45 0.029243331
000330 9e f5 65 3b 42 99 00 3f 80 21 36 3d 00 00 00 00
       0.0035089026 0.5023385 0.04446554 0.0
000340 2c 0b bc 3c 2a 1c 15 3c 04 00 00 00 04 00 00 80
       0.022954546 0.009100953 6e-45 -6e-45
000350 04 00 00 00 04 00 00 00 00 00 00 00 04 00 00 00
       6e-45 6e-45 0.0 6e-45
000360 04 00 00 00 00 00 00 00 00 00 00 00 00 00 00 00
       6e-45 0.0 0.0 0.0
000370 00 00 00 00 00 00 00 00 00 00 00 00 00 00 00 00
       0.0 0.0 0.0 0.0
000380 e1 87 99 3d 67 dc cd 3d 01 36 3a 40 63 72 d5 3d
       0.0749662 0.10051804 2.9095461 0.10422208
000390 00 00 00 00 dc c5 93 3d a9 3d a4 3d 80 2f 06 bd
       0.0 0.07215473 0.08019573 -0.032760143
0003a0 23 04 12 bd ce 6a 94 bf b1 6a 24 bd 00 00 00 00
       -0.035648476 -1.1595094 -0.04014081 0.0
0003b0 76 7e 0d bd 3d 3f ae bc 04 00 00 00 04 00 00 80
       -0.03454443 -0.021270389 6e-45 -6e-45
0003c0 04 00 00 00 04 00 00 00 00 00 00 00 04 00 00 00
       6e-45 6e-45 0.0 6e-45
0003d0 04 00 00 00 00 00 00 00 00 00 00 00 00 00 00 00
       6e-45 0.0 0.0 0.0
0003e0 00 00 00 00 00 00 00 00 00 00 00 00 00 00 00 00
       0.0 0.0 0.0 0.0
0003f0 04 00 00 00 04 00 00 80 04 00 00 00 04 00 00 00
       6e-45 -6e-45 6e-45 6e-45
