Multi-UAVs path planning/path planning/Path_SAC_actor_F.pth (torch, 833053 bytes, 24 tensors)

in_to_y1.weight f4 [256, 7]
0.83623654 -0.9029549 1.0032147 -0.14426166 -0.39084247 0.66151994 -0.162003 -0.0202831
-0.0082803415 -0.118060604 0.0688886 0.056204878 0.00051623647 -0.06762105 -0.07421428 -0.60642815
-0.23704249 -0.87532544 -0.064612396 -0.32637376 -0.37996125 0.3659348 0.57406735 0.22435589
-0.8823897 0.5653374 -1.1380125 0.058215626 -0.35333693 -0.06283936 -0.14067747 -0.387236
0.377298 0.07731862 -0.118800625 -0.65732795 -1.2171319 -0.15357973 0.06410416 0.78566575
-1.141777 0.80945545 -0.009042486 -0.40712392 -0.5115697 -0.022771928 -0.14599563 -0.11682446
-0.23345463 -1.0503705 -0.12773684 0.040286276 -0.8656222 1.2479202 0.22203451 0.13531248
0.42457682 -0.64941907 -0.09177372 1.1242634 0.015406678 -0.21748498 0.049179297 0.92448676
0.61877126 0.27495772 0.7406409 -1.2672212 -0.48349994 -0.22315131 0.07343624 -0.12857862
-0.7682228 0.6780704 -0.28732467 0.76228964 -0.2588074 0.635904 0.49320272 -0.03746685
-0.5137914 -1.0368469 -1.0420268 0.25374484 0.34691393 -0.85155207 -0.2326454 0.38798395
-0.048156675 -0.03760101 -0.34183136 0.06936561 -0.16820587 -0.14056642 -0.15737529 -0.11012115
0.07552037 -0.21041094 0.19538844 -0.4851421 0.119546436 -0.1794857 0.5170486 -0.2216169
-0.20353234 0.03746146 -0.021367958 0.124284655 -0.041127786 -0.013661673 0.0018442067 -0.28495663
-0.5265821 -0.86394215 0.019613706 -0.26288545 0.6315988 -1.8204446 -0.3451728 -0.96832985
0.6251705 0.22297879 -2.2544382 0.59916615 -0.69218385 -0.07139571 -0.08499244 -0.49788603
-1.5607331 -0.19431168 0.5770626 0.3882544 0.15487432 0.15862188 -0.6360071 0.3728625
-0.75348896 -0.14878507 -1.0328599 0.52645075 -0.7817758 0.5793253 0.45612133 -0.39612323
0.11076828 0.46990252 0.029216088 0.004489762 -0.021904273 -0.28980887 -0.1175927 -0.15513924
-0.05108867 -0.061919615 -0.4110108 0.25049892 -0.20947826 -0.21287441 -0.44647536 0.20253047
0.106443234 -0.0046054022 -0.0013724616 -0.37355527 -0.1767856 -0.17773223 -0.2136305 -0.33726612
-0.85431975 -0.5228859 0.374233 0.08339568 -0.06791424 -1.0495243 0.5096276 -0.111210324
-0.054294627 0.057312943 0.023374688 0.02528415 0.03467771 0.037310548 0.034881096 0.060588505
0.03379665 -0.049812365 0.0068622413 -0.114580564 -0.20803498 -0.99433285 0.28660735 -0.0869165
0.45633164 -1.0212384 -0.75282955 0.023229746 0.55927974 -0.8755417 0.3460785 0.24129014
-1.004441 1.0174778 0.043527767 -0.06699164 -0.063934565 -0.1339433 -0.105246775 -0.016257443
-0.118714385 0.048606105 0.006210441 -0.6128314 -0.8345776 -0.3738642 -0.049733367 -0.68137205
0.19352363 -0.06322121 0.012265691 -0.05249487 -0.035146564 0.013887103 -0.068222895 -0.16038705
-1.1222484 -0.028270492 -0.16414525 -0.45236903 -0.6135979 0.24903397 -0.37207258 -0.04193334
0.7415234 -0.45179942 0.52376103 -0.14716305 -1.2306455 -0.18788527 0.046006225 0.05838685
0.024781499 -0.19571684 -0.15783447 -0.008430136 -0.18685147 0.14070922 -0.20183295 0.19623002
-0.16404067 0.16921814 -0.29606727 0.019315405 -0.07741827 0.11604138 -0.050725613 0.059361313
00000000: 9913 563f 0d28 67bf 5769 803f 54b9 13be
00000010: 811c c8be 5f59 293f 1de4 25be be28 a6bc
00000020: 45aa 07bc c2c9 f1bd 7715 8d3d 1637 663d
00000030: 0b54 073a e87c 8abd a8fd 97bd e03e 1bbf
00000040: 44bb 72be 5415 60bf 8153 84bd 761a a7be
00000050: 488a c2be ce5b bb3e 14f6 123f 8dbd 653e
00000060: 4be4 61bf f4b9 103f 65aa 91bf 8273 6e3d
00000070: 94e8 b4be ecb1 80bd c10d 10be cc43 c6be
00000080: 342d c13e 3a59 9e3d be4d f3bd a546 28bf
00000090: faca 9bbf 0144 1dbe 0b49 833d 6421 493f
000000a0: c025 92bf 7938 4f3f ef26 14bc 8c72 d0be
000000b0: 3bf6 02bf 328c babc e17f 15be aa41 efbd
000000c0: bb0e 6fbe 8a72 86bf 72cd 02be 3903 253d
000000d0: 6b99 5dbf d9bb 9f3f 045d 633e 5b8f 0a3e
000000e0: 2262 d93e 5440 26bf dcf3 bbbd dde7 8f3f
000000f0: 4b6c 7c3c 62b4 5ebe 3b70 493d 2aab 6c3f
00000100: cb67 1e3f 42c7 8c3e a49a 3d3f 4e34 a2bf
00000110: 4e8d f7be c781 64be bd65 963d 1daa 03be
00000120: 40aa 44bf 0696 2d3f 381c 93be 6a25 433f
00000130: 6782 84be 9bca 223f 1185 fc3e d776 19bd
00000140: d587 03bf 66b7 84bf 2261 85bf d8ea 813e
00000150: b49e b13e 51ff 59bf 993a 6ebe d5a5 c63e
00000160: ef3f 45bd 8403 1abd 8504 afbe 8f0f 8e3d
00000170: 293e 2cbe a5f0 0fbe fd26 21be 3387 e1bd
00000180: 6caa 9a3d f775 57be e813 483e 8c64 f8be
00000190: c3d4 f43d 19cb 37be 4c5d 043f 8aef 62be
000001a0: c86a 50be 3071 193d db0b afbc f488 fe3d
000001b0: 9c75 28bd 36d5 5fbc 4fb9 f13a d6e5 91be
000001c0: 16ce 06bf 502b 5dbf ecac a03c ec98 86be
000001d0: 75b0 213f 5404 e9bf 7dba b0be 77e4 77bf
000001e0: 2d0b 203f 8d54 643e b748 10c0 f462 193f
000001f0: f632 31bf ea37 92bd 8410 aebd ebea febe
00000200: 1ac6 c7bf a4f9 46be 60ba 133f 48c9 c63e
00000210: 6097 1e3e c66d 223e 5cd1 22bf d5e7 be3e
00000220: a7e4 40bf 1d5b 18be c134 84bf 7ac5 063f
00000230: 7522 48bf aa4e 143f bc88 e93e aad0 cabe
00000240: 7bda e23d 1097 f03e 9456 ef3c da1e 933b
00000250: 9770 b3bc d461 94be 71d4 f0bd d2dc 1ebe
00000260: 5a42 51bd 6c9f 7dbd 0270 d2be 6541 803e
00000270: 7881 56be c0fb 59be 6b98 e4be 2664 4f3e
00000280: e9fe d93d eae8 96bb 2be4 b3ba a342 bfbe
00000290: 4907 35be 70ff 35be f4c1 5abe 25ae acbe
000002a0: b3b4 5abf dadb 05bf 789b bf3e 5bcb aa3d
000002b0: 9f16 8bbd d056 86bf f476 023f 3dc2 e3bd
000002c0: 0b64 5ebd fac0 6a3d 467c bf3c b520 cf3c
000002d0: 370a 0e3d f2d2 183d 7bdf 0e3d a72b 783d
000002e0: 5b6e 0a3d 0d08 4cbd a7dc e03b 37a9 eabd
000002f0: 1f07 55be 998c 7ebf 33be 923e 4701 b2bd
00000300: 4da4 e93e f1b7 82bf 70b9 40bf 4f4c be3c
00000310: f52c 0f3f 8023 60bf 3331 b13e c314 773e
00000320: 8691 80bf b63c 823f 2c4a 323d ea32 89bd
00000330: 20f0 82bd 6f28 09be 9f8b d7bd 542e 85bc
00000340: 8720 f3bd 3217 473d f480 cb3b 85e2 1cbf
00000350: e1a6 55bf 216b bfbe 37b5 4bbd 666e 2ebf
00000360: 0f2b 463e 1f7a 81bd 09f6 483c dc04 57bd
00000370: d8f5 0fbd bb86 633c 72b8 8bbd 813c 24be
00000380: d6a5 8fbf 8597 e7bc b115 28be ea9c e7be
00000390: c114 1dbf c302 7f3e 4c80 bebe 4bc2 2bbd
000003a0: 7ad4 3d3f 4152 e7be 3415 063f e9b1 16be
000003b0: cb85 9dbf ff64 40be 0671 3c3d 0d27 6f3d
000003c0: 9202 cb3c ff69 48be 5c9f 21be 8e1e 0abc
000003d0: fe55 3fbe 1416 103e 4cad 4ebe 86f0 483e
000003e0: 47fa 27be 8547 2d3e 2196 97be 573b 9e3c
000003f0: 788d 9ebd 1aa7 ed3d a9c5 4fbd d924 733d

in_to_y1.bias f4 [256]
-0.16287148 -0.1512091 0.13493843 0.0722712 -0.16432133 0.0973974 -0.1539925 -0.013729621
-0.18118247 -0.3391354 -0.41054672 0.4071449 -0.35200703 -0.06593567 0.12252836 -0.13787867
0.22101144 0.14409746 0.45105034 0.3708054 -0.20198366 -0.1176681 -0.13452603 0.0031374756
0.59839326 -0.37186542 -0.30996066 -0.11457568 0.01550292 -0.22341353 -0.091902785 -0.02483461
-0.2100731 -0.08871747 -0.1960808 -0.35002136 -0.44619346 -0.02740415 -0.32791835 0.09531277
-0.13635665 0.59635586 -0.4019881 -0.23595423 -0.18517567 -0.2678061 -0.10770381 0.0169496
0.019724973 0.027198592 -0.26180363 -0.34827176 -0.23331046 0.7027389 0.3130743 0.03886614
0.19393173 0.1679324 -0.17886935 -0.29938203 -0.09904545 -0.32887858 0.44975764 -0.34074172
-0.35049242 0.24582064 0.51976895 -0.23224974 -0.19574732 -0.10844971 0.3403713 0.29041627
-0.10310302 0.09568165 0.13435698 -0.12296372 0.15403546 -0.3278121 0.31455165 -0.31641668
-0.24018376 0.6093397 -0.116974466 0.5794809 0.23259374 -0.55311346 0.30982906 -0.12462722
0.031717233 -0.36241558 0.19468819 -0.26244769 -0.6863255 -0.10024222 0.77423346 -0.1822299
-0.31825206 -0.18567269 -0.23193942 -0.30647343 0.039051414 0.21551907 0.1960504 -0.58955294
0.2885141 -0.17445858 -0.37969485 0.5012099 -0.1431141 0.38014323 -0.36887088 -0.0073828935
-0.17691989 -0.09692028 0.2756918 0.014538411 -0.13569707 0.22013064 0.106714286 -0.30330515
-0.13053988 0.42129433 -0.21121298 -0.072043575 -0.15288612 -0.36302802 -0.3745273 0.47522795
-0.25183886 0.3231385 -0.16371386 0.036116533 -0.4156107 0.2986763 -0.3832587 -0.2260603
0.35924873 -0.052560687 -0.2666821 -0.5456668 -0.31157494 0.1344811 -0.2860387 -0.33318952
-0.38751158 0.37771872 -0.062350087 -0.18501525 -0.2772562 -0.38845086 -0.0947965 0.19870703
-0.28293183 -0.25598413 -0.030242465 0.39189965 0.2276707 0.2096643 0.0050783954 -0.15471758
-0.06224565 -0.05114634 -0.28407001 0.00032556782 -0.5905194 -0.3315891 -0.2111434 0.35768288
-0.04726755 0.15971029 0.24793161 -0.29885226 -0.15160133 -0.22685397 -0.22936933 -0.123923495
-0.058345623 -0.16164847 0.027510514 -0.44403994 0.61033994 0.38990456 0.10520264 -0.09963907
-0.3430332 0.22309278 -0.0013201148 -0.35806924 0.4017815 0.21534519 0.602096 -0.2512542
-0.28549197 -0.2767488 -0.1861853 -0.21418588 0.07483229 -0.07397247 0.3516104 -0.17939878
-0.29230887 -0.08944786 -0.29797214 -0.34155262 -0.3326131 0.29850677 -0.32252392 -0.38580674
-0.28423622 0.07844748 -0.04944086 -0.32692108 -0.41767836 0.2289083 -0.19590026 -0.48909268
0.10806962 0.14438169 -0.13665031 -0.41978014 -0.22481011 0.24897678 0.2949002 -0.27990973
-0.2742341 -0.20307021 -0.12693316 -0.2982265 0.9181822 -0.18971422 -0.38431275 -0.18725605
-0.2082311 -0.3147495 -0.4509011 -0.27547917 -0.2547113 -0.13769843 0.16211532 -0.26037025
-0.00061277143 -0.21734469 -0.124605455 -0.25370023 0.30342484 0.47332814 -0.29549035 -0.16477588
-0.10174002 -0.12008622 0.40334556 0.25481054 -0.19781835 -0.36312282 -0.27662686 -0.30564642
00000000: c8c7 26be 8fd6 1abe 4d2d 0a3e ec02 943d
00000010: da43 28be 4a78 c73d 36b0 1dbe 34f2 60bc
00000020: e687 39be 28a3 adbe 2e33 d2be 4c75 d03e
00000030: 443a b4be 4809 87bd 26f0 fa3d 1130 0dbe
00000040: d350 623e 498e 133e 12f0 e63e 35da bd3e
00000050: ced4 4ebe f9fb f0bd 31c1 09be 1b9e 4d3b
00000060: 4d30 193f 2565 bebe 2ab3 9ebe a7a6 eabd
00000070: f6ff 7d3c 84c6 64be 8737 bcbd f471 cbbc
00000080: 671d 57be 81b1 b5bd 68c9 48be 0036 b3be
00000090: 7873 e4be ab7e e0bc eae4 a7be 5733 c33d
000000a0: 14a1 0bbe c7aa 183f 62d1 cdbe fc9d 71be
000000b0: b19e 3dbe e21d 89be d193 dcbd e3d9 8a3c
000000c0: 4496 a13c 95cf de3c 200b 86be ad50 b2be
000000d0: f0e8 6ebe b2e6 333f 464b a03e 1a32 1f3d
000000e0: 0a96 463e 79f6 2b3e 8729 37be 9a48 99be
000000f0: 57d8 cabd c662 a8be a246 e63e b375 aebe
00000100: be73 b3be 68b8 7b3e 940f 053f e0d2 6dbe
00000110: fc71 48be e21a debd 2645 ae3e 71b1 943e
00000120: ad27 d3bd bef4 c33d e094 093e 67d4 fbbd
00000130: 79bb 1d3e fdd6 a7be ea0c a13e 5e01 a2be
00000140: bbf2 75be b0fd 1b3f 4f90 efbd dc58 143f
00000150: 0e2d 6e3e d898 0dbf eaa1 9e3e 8e3c ffbd
00000160: eee9 013d 898e b9be 575c 473e 8b5f 86be
00000170: 07b3 2fbf cb4b cdbd 2a34 463f 7a9a 3abe
00000180: eff1 a2be fb20 3ebe 8781 6dbe 16ea 9cbe
00000190: 60f4 1f3d 08b1 5c3e 70c1 483e f1ec 16bf
000001a0: 1fb8 933e 45a5 32be 5d67 c2be 4b4f 003f
000001b0: 818c 12be 22a2 c23e a5dc bcbe 33ec f1bb
000001c0: 7d2a 35be 247e c6bd 7a27 8d3e 8432 6e3c
000001d0: 2cf4 0abe ed69 613e 058d da3d d04a 9bbe
000001e0: 3fac 05be e4b3 d73e 3748 58be 958b 93bd
000001f0: 2e8e 1cbe cfde b9be 0bc2 bfbe 1451 f33e
00000200: 06f1 80be 6972 a53e 9ba4 27be eeee 133d
00000210: edca d4be 1aec 983e 7c3a c4be 5a7c 67be
00000220: 73ef b73e e049 57bd 8e8a 88be d2b0 0bbf
00000230: c086 9fbe 6ab5 093e aa73 92be d197 aabe
00000240: eb67 c6be 5964 c13e ce62 7fbd a374 3dbe
00000250: 86f4 8dbe 08e3 c6be ab24 c2bd db79 4b3e
00000260: 71dc 90be 5a10 83be 0cbf f7bc 12a7 c83e
00000270: 8222 693e 3db2 563e ab68 a63b 496e 1ebe
00000280: 4bf5 7ebd d37e 51bd a071 91be f9b0 aa39
00000290: 482c 17bf 0cc6 a9be fa35 58be 3622 b73e
000002a0: 9e9b 41bd 188b 233e c9e1 7d3e 2a03 99be
000002b0: 613d 1bbe 684c 68be cbdf 6abe 9acb fdbd
000002c0: d2fb 6ebd 2d87 25be bb5d e13c 3459 e3be
000002d0: 3d3f 1c3f 92a1 c73e 7b74 d73d 920f ccbd
000002e0: 0ca2 afbe 6f72 643e b407 adba da54 b7be
000002f0: 4eb6 cd3e 7383 5c3e f722 1a3f 64a4 80be
00000300: 012c 92be 05b2 8dbe 5ca7 3ebe 8b53 5bbe
00000310: ac41 993d e17e 97bd 4706 b43e 50b4 37be
00000320: 82a9 95be 7130 b7bd ce8f 98be fcdf aebe
00000330: 444c aabe e1d5 983e db21 a5be 7688 c5be
00000340: 6987 91be 13a9 a03d 8082 4abd 3362 a7be
00000350: f0d9 d5be f066 6a3e 149a 48be 5b6a fabe
00000360: 9b53 dd3d cbd8 133e 0fee 0bbe 6ced d6be
00000370: 9f34 66be c5f3 7e3e 29fd 963e 5450 8fbe
00000380: 6968 8cbe a3f1 4fbe c4fa 01be 25b1 98be
00000390: fd0d 6b3f 7244 42be a4c4 c4be 0dc0 3fbe
000003a0: 893a 55be d926 a1be 82dc e6be 9b0b 8dbe
000003b0: 8569 82be d100 0dbe 8f01 263e 404f 85be
000003c0: 65a2 20ba 9b8f 5ebe 2531 ffbd ffe4 81be
000003d0: 805a 9b3e 1158 f23e 834a 97be 02bb 28be
000003e0: 125d d0bd c4ef f5bd 4f83 ce3e 8776 823e
000003f0: e590 4abe 3ceb b9be 09a2 8dbe b07d 9cbe

y1_to_y2.weight f4 [256, 256]
-0.076075345 0.067240946 -0.10000963 0.088800915 -0.0019988837 0.018376043 -0.024903432 -0.016973073
-0.07890282 0.054042667 -0.099243514 0.09256457 -0.16057783 -0.06462299 -0.09741881 -0.11530936
-0.15999652 -0.08359109 -0.07068905 -0.011406675 0.041060526 -0.15464453 -0.27282745 -0.14797983
-0.024157839 0.03526108 -0.13253273 -0.1546123 -0.035034817 0.05230282 0.02148765 -0.07168362
0.04244401 -0.050190147 -0.032621674 -0.11653086 0.04577216 0.09629767 -0.063926004 -0.12783334
0.17240584 -0.093043916 -0.04622169 -0.105434 -0.1858745 -0.20929006 0.011878921 -0.0447853
0.16255182 -0.056998312 0.061623048 -0.1609184 0.11869811 -0.093677886 0.0012275163 0.06966807
0.04900635 0.017426802 -0.021057542 0.03204587 -0.09954363 0.024540246 -0.115268454 0.044356912
0.15197371 0.1054598 -0.0069630593 -0.043474868 -0.067875914 -0.058848225 0.035876743 -0.30549404
0.0758574 -0.065733455 -0.006161363 0.075623326 -0.088891 0.04625429 -0.07837965 0.1063016
-0.1671179 -0.0055247215 -0.0707595 0.06889255 0.02622529 0.09758106 0.14680535 -0.02275283
-0.063568175 -0.12489353 -0.055089656 0.0573334 0.120671146 0.018287811 -0.14621516 0.06530886
-0.06059383 0.029148862 -0.10462981 0.010138802 -0.087406404 -0.10566283 -0.05287987 0.051728893
-0.03061983 -0.07283821 0.0754084 -0.006608349 0.025734736 0.026748424 -0.03749546 -0.09125625
0.08612523 -0.086349845 -0.07769086 -0.01877563 -0.17124982 -0.17440704 -0.13107839 0.00033396354
0.07915384 -0.04862863 0.10880791 0.25839475 -0.01864514 0.14735559 0.03750915 0.0487835
-0.0048066047 -0.0029085153 -0.041529883 -0.08363012 -0.093924195 0.06230474 -0.1429193 0.023770215
-0.08509044 0.0031815623 0.1059651 0.068648815 0.046314236 -0.28659734 0.0980997 -0.05860048
0.054988187 -0.08474764 0.045227356 0.035917666 -0.016561994 -0.0033463952 -0.1076583 -0.039990216
-0.11003782 -0.06767543 -0.18701424 0.07481131 -0.03177637 -0.08861522 -0.018824533 0.09223079
-0.11250072 -0.104657955 0.0035823656 -0.030583952 -0.062262096 -0.05266743 0.013738977 0.07029274
0.20364107 0.034979425 -0.0918032 -0.11735865 0.26227567 -0.11805347 -0.0632042 -0.27991223
-0.17360571 0.029868325 -0.15413168 -0.06714838 -0.15789886 0.16013809 0.042994067 -0.17108811
0.079773456 0.15865037 -0.08051623 -0.10148885 -0.2065833 -0.07888356 0.05608865 0.053584438
-0.053101655 0.03640406 -0.1585553 -0.100980975 -0.05227725 -0.0380796 0.052555867 0.03519567
-0.015481672 0.02259448 -0.054968588 -0.15115309 -0.023469765 -0.18842928 0.10569725 -0.07767985
0.11939307 -0.096259885 0.005312193 -0.02719991 -0.02151708 -0.1580991 0.035010654 -0.08903202
-0.16992493 -0.02057304 -0.10043224 -0.06059276 0.08054706 -0.21898417 -0.030205242 0.075512156
0.0054176855 -0.24105541 -0.06910178 -0.012011082 0.14533605 0.082805865 -0.03994443 -0.04506314
0.13462025 -0.14782834 -0.1315792 -0.09025648 0.030877521 -0.13534059 -0.045730136 -0.092993386
0.14142527 0.0065051294 -0.028732242 -0.034082826 0.016481828 -0.090098545 -0.0713486 -0.08291026
0.012290198 -0.070258096 -0.1213096 0.018287776 0.010435474 0.12314667 0.01966563 0.07324285
00000000: 64cd 9bbd 9fb5 893d d9d1 ccbd 41dd b53d
00000010: b4ff 02bb 5b89 963c 4802 ccbc 1d0b 8bbc
00000020: cd97 a1bd d85b 5d3d 2f40 cbbd 7e92 bd3d
00000030: 846e 24be 0f59 84bd 8383 c7bd 5027 ecbd
00000040: 21d6 23be ce31 abbd 6cc5 90bd 10e3 3abc
00000050: 152f 283d 235b 1ebe 0ab0 8bbe 0688 17be
00000060: a9e6 c5bc ec6d 103d a9b6 07be b052 1ebe
00000070: ab80 0fbd 7b3b 563d de06 b03c ddce 92bd
00000080: c5d9 2d3d 2f94 4dbd 4e9e 05bd bba7 eebd
00000090: 977b 3b3d b637 c53d a3eb 82bd bee6 02be
000000a0: 288b 303e cf8d bebd f452 3dbd c8ed d7bd
000000b0: e355 3ebe 2250 56be ce9f 423c ca70 37bd
000000c0: fc73 263e 1077 69bd 7368 7c3d cbc7 24be
000000d0: ff17 f33d 31da bfbd 9de4 a03a 22ae 8e3d
000000e0: e2ba 483d a7c2 8e3c de80 acbc 8842 033d
000000f0: 88dd cbbd a008 c93c de11 ecbd 98af 353d
00000100: ff9e 1b3e 4ffb d73d 602a e4bb b412 32bd
00000110: 8702 8bbd d60a 71bd 7ef3 123d b769 9cbe
00000120: 205b 9b3d 439f 86bd 42e5 c9bb 67e0 9a3d
00000130: 7c0c b6bd 2375 3d3d 8385 a0bd a7b4 d93d
00000140: f420 2bbe b908 b5bb 5bea 90bd 8a17 8d3d
00000150: 6bd6 d63c 94d8 c73d 2454 163e 2564 babc
00000160: 0830 82bd 2ec8 ffbd b1a5 61bd 6dd6 6a3d
00000170: 6f22 f73d 52d0 953c 6db9 15be a7c0 853d
00000180: 3c31 78bd 98c9 ee3c 2748 d6bd 381d 263c
00000190: 2102 b3bd c165 d8bd 9098 58bd ade1 533d
000001a0: 70d6 fabc 332c 95bd b86f 9a3d d98a d8bb
000001b0: a7d1 d23c 831f db3c d794 19bd 8fe4 babd
000001c0: 6d62 b03d 30d8 b0bd 631c 9fbd 5acf 99bc
000001d0: 1d5c 2fbe c297 32be 6a39 06be d417 af39
000001e0: 691b a23d d02e 47bd aed6 de3d 514c 843e
000001f0: b1bd 98bc 62e4 163e 32a3 193d 35d1 473d
00000200: b980 9dbb ca9c 3ebb 3d1b 2abd 4546 abbd
00000210: 545b c0bd 4133 7f3d 7059 12be c1b9 c23c
00000220: e643 aebd c281 503b 3b04 d93d c097 8c3d
00000230: ffb3 3d3d e3bc 92be 7fe8 c83d 0f07 70bd
00000240: 4b3b 613d 2c90 adbd 5240 393d 671e 133d
00000250: 05ad 87bc 324f 5bbb f47b dcbd c8cc 23bd
00000260: 825b e1bd 6a99 8abd a980 3fbe ac36 993d
00000270: f027 02bd e57b b5bd e835 9abc 7fe3 bc3d
00000280: c766 e6bd e956 d6bd 1fc6 6a3b 328b fabc
00000290: 8a06 7fbd ceb9 57bd 7219 613c a4f5 8f3d
000002a0: 4987 503e 9646 0f3d 5103 bcbd bb59 f0bd
000002b0: ff48 863e 05c6 f1bd 3471 81bd a850 8fbe
000002c0: b2c5 31be 6bae f43c b2d4 1dbe 1785 89bd
000002d0: 3db0 21be 3dfb 233e 8c1a 303d b931 2fbe
000002e0: 4460 a33d 3e75 223e b1e5 a4bd 63d9 cfbd
000002f0: 938a 53be b48d a1bd 36bd 653d 5b7b 5b3d
00000300: 1f81 59bd 6c1c 153d 525c 22be 1dcf cebd
00000310: ab20 56bd 5bf9 1bbd d244 573d 5629 103d
00000320: d7a6 7dbc 0f18 b93c be26 61bd e0c7 1abe
00000330: aa43 c0bc 9bf3 40be cd77 d83d 9d16 9fbd
00000340: 5b84 f43d e723 c5bd e811 ae3b 58d2 debc
00000350: 9644 b0bc bbe4 21be 5567 0f3d 6b56 b6bd
00000360: cd00 2ebe cb88 a8bc 6baf cdbd 1d30 78bd
00000370: dbf5 a43d 633d 60be fc70 f7bc 1ea6 9a3d
00000380: d786 b13b 3bd7 76be 3c85 8dbd 21ca 44bc
00000390: f9d2 143e 1f96 a93d c59c 23bd 2194 38bd
000003a0: e4d9 093e 5060 17be b3bc 06be 64d8 b8bd
000003b0: dbf2 fc3c b996 0abe 864f 3bbd 5173 bebd
000003c0: c9d1 103e fb28 d53b e15f ebbc 6f9a 0bbd
000003d0: e604 873c 9685 b8bd 371f 92bd dbcc a9bd
000003e0: d45c 493c 7ae3 8fbd 2b71 f8bd 3fd0 953c
000003f0: 8df9 2a3c 5234 fc3d d119 a13c 5900 963d

y1_to_y2.bias f4 [256]
-0.14604467 -0.113979384 -0.19928063 -0.0749155 -0.48874947 -0.11448035 0.38553402 -0.07301858
0.088357374 -0.100141704 -0.0986998 -0.14861877 -0.10837024 0.20134407 -0.064546056 -0.11080866
-0.12665756 -0.14456066 -0.0861306 -0.053755216 -0.13747455 -0.1309446 -0.043421336 -0.026895637
-0.17370912 -0.0771265 -0.5684557 -0.11000153 -0.10392532 0.07735019 -0.21538734 -0.1420154
0.093532614 -0.18996352 -0.12184339 -0.16551349 0.23949046 -0.19653657 -0.12663715 0.013814082
0.14888704 -0.18655632 -0.16094805 -0.15310323 -0.22534509 -0.11967721 -0.0018476808 0.20414183
-0.38817927 -0.51811415 -0.032590307 0.0052446127 -0.16313542 -0.06968433 -0.16405734 -0.10175715
-0.12585267 -0.06057301 -0.142428 0.53396004 0.0040771654 -0.20444857 -0.073035575 -0.051820055
-0.04354689 -0.08362293 -0.044590723 0.1725942 0.31854773 -0.18349102 -0.12495089 -0.15325838
-0.18215784 -0.018350428 -0.40471625 -0.016151443 -0.13747391 -0.10596188 -0.12030808 0.5531798
-0.11694496 -0.1226174 -0.027513526 -0.14059873 -0.14053662 -0.12842199 -0.13840987 0.51136184
0.040185366 -0.018771257 -0.21858127 -0.080615945 -0.15147914 0.22488767 -0.38183278 -0.019028619
-0.12108758 -0.16776924 -0.031618584 -0.05204364 -0.23344603 -0.13048077 -0.04152882 0.54896724
-0.15748636 0.16324355 -0.25311565 -0.0716142 -0.18969856 -0.15211056 -0.14139192 0.0063738157
-0.08544315 -0.20155728 -0.11601797 -0.13179806 -0.13845778 -0.11653614 -0.1275618 -0.40074474
-0.07465163 -0.06453245 -0.10998439 -0.13110158 -0.17707108 0.39457953 -0.15654333 0.1310054
-0.13977765 -0.096460186 -0.2874872 -0.026180351 0.39263356 -0.19431819 -0.18203254 -0.14941378
-0.17000566 -0.07557506 -0.15298212 -0.13653111 -0.08505928 -0.08885358 -0.33815908 -0.12714542
-0.08927439 0.15914015 0.11755265 -0.12825498 -0.11222173 -0.122126 -0.44262537 -0.07926104
-0.14929506 -0.04434554 0.21615513 -0.113550484 -0.16179386 -0.12938231 -0.092942335 -0.043218374
-0.08863736 -0.1282275 -0.12457448 -0.08482952 -0.11210185 -0.22384346 -0.10533528 -0.1544313
-0.12891118 -0.10641797 -0.089738354 -0.121231064 -0.104368106 0.49881223 0.0031641014 -0.06845144
-0.10439356 -0.32689402 -0.42820588 -0.2263486 -0.14869188 -0.2878554 -0.13181202 0.51144314
0.3628506 0.41885987 -0.12085175 -0.11313105 -0.03871027 -0.15689147 -0.073759496 -0.086512424
-0.15861636 -0.11434854 -0.19951525 0.4068061 -0.08197737 -0.15161626 -0.1253667 0.28939462
-0.19304898 -0.45523372 -0.1623245 0.07704149 -0.06400936 0.06395589 -0.07891688 -0.097344734
-0.27013567 0.16747577 -0.086090356 0.11614338 -0.63894665 -0.15213731 0.28893572 0.78374285
-0.009707449 -0.13374932 -0.13215886 -0.46854866 -0.13362652 -0.15080248 -0.023327092 0.78043896
-0.02998818 -0.1588835 -0.1411243 -0.1765234 -0.34215665 0.07536483 -0.07686103 -0.1884068
-0.09395845 -0.16718681 -0.17258967 -0.14520621 -0.13169916 -0.091038205 -0.3149651 -0.11570424
-0.09483472 -0.07055183 -0.14154945 0.26225346 -0.043565247 -0.20040011 -0.13318135 -0.18654226
-0.15803199 0.046008017 -0.368272 -0.14337485 0.3996127 -0.12085888 -0.010532859 -0.25073642
00000000: bc8c 15be 066e e9bd 3910 4cbe 4c6d 99bd
00000010: 5f3d fabe ac74 eabd b764 c53e c48a 95bd
00000020: b6f4 b43d 1817 cdbd 1f23 cabd 852f 18be
00000030: 37f1 ddbd 242d 4e3e b930 84bd a7ef e2bd
00000040: 85b2 01be b607 14be 3d65 b0bd 6e2e 5cbd
00000050: 21c6 0cbe 5716 06be 92da 31bd 3d54 dcbc
00000060: cee0 31be 80f4 9dbd 5086 11bf 7b48 e1bd
00000070: ccd6 d4bd c769 9e3d 808e 5cbe 7c6c 11be
00000080: 078e bf3d cc85 42be 0789 f9bd 5e7c 29be
00000090: fd3c 753e e240 49be 2bad 01be 7654 623c
000000a0: d875 183e 9f08 3fbe 91cf 24be 18c7 1cbe
000000b0: ddc0 66be 5319 f5bd e12d f2ba 8e0a 513e
000000c0: 6fbf c6be 21a3 04bf 6a7d 05bd 00db ab3b
000000d0: f90c 27be a8b6 8ebd a6fe 27be 0d66 d0bd
000000e0: 86df 00be 681b 78bd a5d8 11be 9bb1 083f
000000f0: be99 853b f75a 51be ad93 95bd 4441 54bd
00000100: 395e 32bd 8042 abbd c3a4 36bd 89bc 303e
00000110: b018 a33e 12e5 3bbe 41e6 ffbd c4ef 1cbe
00000120: 9687 3abe a353 96bc f836 cfbe 0850 84bc
00000130: f6c5 0cbe 8b02 d9bd 1564 f6bd 319d 0d3f
00000140: d780 efbd d51e fbbd 0c64 e1bc 1df9 0fbe
00000150: d5e8 0fbe 0e81 03be 51bb 0dbe 9ce8 023f
00000160: 6999 243d 2ec6 99bc c5d3 5fbe f919 a5bd
00000170: 591d 1bbe f448 663e 967f c3be e8e1 9bbc
00000180: c4fc f7bd b3cb 2bbe 7d82 01bd b62b 55bd
00000190: 7a0c 6fbe c09c 05be 201a 2abd 1e89 0c3f
000001a0: 1b44 21be 5129 273e 6098 81be 77aa 92bd
000001b0: 5740 42be dfc2 1bbe 0bc9 10be 71db d03b
000001c0: d1fc aebd 0865 4ebe d49a edbd 12f6 06be
000001d0: e0c7 0dbe 80aa eebd 8f9f 02be 6a2e cdbe
000001e0: f4e2 98bd 9729 84bd 7f3f e1bd 7e3f 06be
000001f0: 1f52 35be 5406 ca3e e54c 20be 4826 063e
00000200: df21 0fbe eb8c c5bd 8631 93be 2d78 d6bc
00000210: 4407 c93e 59fb 46be bd66 3abe edff 18be
00000220: f715 2ebe 19c7 9abd 58a7 1cbe d0ce 0bbe
00000230: 8f33 aebd def8 b5bd 3023 adbe 6932 02be
00000240: 7ed5 b6bd a3f5 223e 72bf f03d 4655 03be
00000250: 82d4 e5bd 321d fabd cb9f e2be 9d53 a2bd
00000260: cee0 18be aba3 35bd c557 5d3e 288d e8bd
00000270: 4aad 25be cc7c 04be 8d58 bebd c005 31bd
00000280: 8187 b5bd 124e 03be e820 ffbd 19bb adbd
00000290: a895 e5bd 3837 65be 06ba d7bd 3d23 1ebe
000002a0: 4b01 04be aaf1 d9bd bec8 b7bd fe47 f8bd
000002b0: f2be d5bd 5164 ff3e d05c 4f3b 4530 8cbd
000002c0: 4acc d5bd a75e a7be cd3d dbbe edc7 67be
000002d0: af42 18be c861 93be bbf9 06be f0ed 023f
000002e0: 8ec7 b93e cd74 d63e 1f81 f7bd 40b1 e7bd
000002f0: a98e 1ebd 28a8 20be 380f 97bd 6d2d b1bd
00000300: 546c 22be 912f eabd ba4d 4cbe e448 d03e
00000310: c0e3 a7bd 4b41 1bbe 2160 00be 882b 943e
00000320: a2ae 45be 6514 e9be 6538 26be eec7 9d3d
00000330: 5717 83bd 4efb 823d 2c9f a1bd ad5c c7bd
00000340: 394f 8abe c57e 2b3e 2450 b0bd 95dc ed3d
00000350: 0292 23bf e2c9 1bbe 62ef 933e 5fa3 483f
00000360: fe0b 1fbc 95f5 08be a754 07be 9ce5 efbe
00000370: 64d5 08be f76b 1abe 7518 bfbc d9ca 473f
00000380: c6a9 f5bc 5bb2 22be e382 10be 8dc2 34be
00000390: 282f afbe e058 9a3d 5169 9dbd b6ed 40be
000003a0: 4a6d c0bd 0533 2bbe 59bb 30be f0b0 14be
000003b0: 25dc 06be 3d72 babd 1b43 a1be 58f6 ecbd
000003c0: b538 c2bd 7a7d 90bd 57f2 10be 1646 863e
000003d0: 7971 32bd b035 4dbe b160 08be ef04 3fbe
000003e0: 23d3 21be e772 3c3d 268e bcbe dbd0 12be
000003f0: 099a cc3e dc84 f7bd 0392 2cbc 8660 80be

out.weight f4 [2, 256]
-0.09422018 0.039117906 -0.83881915 1.3289782 -1.4212381 0.06802214 0.6764424 0.016637383
0.1979179 -0.119354226 -0.021980554 -0.065497115 -0.27062988 -0.004888128 -0.0019537199 -0.15182167
-0.044348292 0.0748379 -0.09168588 0.12908524 0.0734838 0.05382993 -0.08584859 0.05542974
0.20298596 -0.033215586 0.6283549 0.01049905 -0.036399625 0.98297566 0.0325008 -0.10543592
-2.08626 0.052422516 0.21628234 -0.97175765 -0.5913933 -0.27466843 -0.029124293 -1.4649371
2.3181405 0.10250987 -0.010151998 0.02422897 0.061922267 0.2016353 -0.19118947 1.3415213
1.1992365 -0.920465 -0.13788195 -1.1062611 -0.033914886 0.05143977 -0.05140079 0.020922458
0.21156636 -0.07659354 0.09225935 -0.94212073 1.8051593 -0.8150135 -0.020426152 0.046925876
0.027381405 -0.0007874446 -0.040066425 -0.0037982033 1.0664647 -0.4508245 0.15965293 -0.045853663
2.955539 0.5212092 1.1385511 0.8289233 -0.06931753 -0.052257724 0.2093524 1.1262877
0.17637146 -0.046940397 -0.005059506 0.14878364 0.0004928762 0.5895553 0.04373851 1.2528646
-0.24502635 -0.013642908 1.7207237 0.16456003 0.035817657 0.09249773 -0.103094816 0.068812296
-0.006998637 -0.057913035 0.23291627 0.09897851 0.5849501 0.14563859 0.020485789 -1.9033183
0.054480374 -1.4791139 1.1935227 0.06991594 0.71431863 1.6023142 0.043410562 -0.978168
-0.11833481 -0.1099884 0.16921921 0.10082977 -0.48982316 -0.016874058 -0.021015523 0.16518092
0.011111237 0.18183249 -0.0035738254 -0.12532887 0.11231237 1.5551969 0.06531576 -0.44115612
-0.08634475 -0.10069095 0.63785315 -0.06199405 -0.23653463 -0.026836604 0.0902034 0.031378508
0.1282633 -0.08772776 -0.014682229 0.018885892 0.009230046 0.10110824 -0.4794689 0.08031082
0.048606597 -1.1764576 2.4457908 -0.028480154 -0.009755892 -0.0511937 1.217774 -0.13950391
0.1219907 -0.32239777 0.39216655 -0.16153485 0.22194096 -0.03560909 0.013708226 -0.016833615
0.09979986 -0.041046355 -0.04673608 -0.014295393 0.11377407 -0.35448647 0.10217358 0.053641964
0.07676585 -0.06590956 0.07552269 -0.07026463 0.55529404 -0.22289959 -0.9782826 0.0075721047
-0.046148952 1.194536 0.35815552 0.00015046693 -0.07000446 0.10618605 -0.0874671 -2.7157967
0.009456315 0.72576815 -0.06682401 0.01667816 -0.05168418 -0.18872878 0.029416777 -0.12163804
-0.05815875 0.027349727 -0.1401895 1.1101556 0.043229505 -0.09953049 -0.039083507 -0.61175865
0.39732963 -0.23297587 0.23786145 -0.35208276 0.08755559 1.7748886 1.1242716 -0.026223939
-1.0847057 -0.63433236 -0.0026478472 -0.6702717 0.045399632 -0.05676835 0.40442723 0.12823953
0.090231024 -0.041319788 0.12589303 -1.8021824 -0.047747582 -0.3054886 0.061798852 1.465386
0.044242024 0.06487826 -0.15958622 -0.046126667 -2.3416784 -0.33796382 0.19427511 0.010229849
-0.016472027 -0.12100275 -0.0917325 0.042072948 0.024551155 0.051357184 -0.054528717 -0.06557262
-0.044397607 -0.084413044 -0.106388435 -0.050104085 0.030452177 -0.0392351 0.01113642 0.05597774
-1.6329124 -1.8250378 0.2965541 -0.104381606 -0.8374089 0.06295865 0.41257933 -0.54855716
00000000: 82f6 c0bd 193a 203d dabc 56bf f51b aa3f
00000010: 21eb b5bf 314f 8b3d 542b 2d3f 1f4b 883c
00000020: fdaa 4a3e fd6f f4bd 9010 b4bc 5a23 86bd
00000030: 0090 8abe 972c a0bb fb09 00bb 2477 1bbe
00000040: 8ea6 35bd 9d44 993d cfc5 bbbd ec2e 043e
00000050: ad7e 963d c67c 5c3d 63d1 afbd 4c0a 633d
00000060: 8ddb 4f3e 110d 08bd dedb 203f 3504 2c3c
00000070: c617 15bd 4ba4 7b3f 8f1f 053d caee d7bd
00000080: 4985 05c0 feb8 563d 1e79 5d3e 1cc5 78bf
00000090: 8d65 17bf 57a1 8cbe 1296 eebc 0f83 bbbf
000000a0: 6a5c 1440 b2f0 d13d 9154 26bc d57b c63c
000000b0: 34a2 7d3d 7c79 4e3e 2cc7 43be f8b6 ab3f
000000c0: 9580 993f 98a3 6bbf ed30 0dbe f799 8dbf
000000d0: 56ea 0abd 82b2 523d a389 52bd 9365 ab3c
000000e0: daa4 583e 13dd 9cbd 78f2 bc3d d32e 71bf
000000f0: 760f e73f baa4 50bf bf54 a7bc 5935 403d
00000100: f84e e03c 836c 4eba b11c 24bd 47eb 78bb
00000110: ea81 883f 78d2 e6be 0f7c 233e 0dd1 3bbd
00000120: 8d27 3d40 f76d 053f 0bbc 913f 5134 543f
00000130: 59f6 8dbd 320c 56bd 7a60 563e 322a 903f
00000140: b89a 343e 9344 40bd 36ca a5bb bd5a 183e
00000150: 5d34 013a 19ed 163f 2727 333d de5d a03f
00000160: 30e8 7abe 8186 5fbc ad40 dc3f 6d82 283e
00000170: 89b5 123d 736f bd3d 6023 d3bd 76ed 8c3d
00000180: d354 e5bb 3836 6dbd 9a81 6e3e 3fb5 ca3d
00000190: 4abf 153f 4822 153e d0d1 a73c ef9f f3bf
000001a0: d026 5f3d 9b53 bdbf 5ac5 983f 1730 8f3d
000001b0: 96dd 363f a218 cd3f 46cf 313d 3869 7abf
000001c0: 8559 f2bd 9941 e1bd cd47 2d3e d77f ce3d
000001d0: 1aca fabe 773b 8abc bf28 acbc 3025 293e
000001e0: e80b 363c 4c32 3a3e d736 6abb 3656 00be
000001f0: 0704 e63d b110 c73f 45c4 853d 37df e1be
00000200: 84d5 b0bd 0f37 cebd 584a 233f 79ed 7dbd
00000210: 2236 72be 70d8 dbbc 8fbc b83d c086 003d
00000220: 7457 033e 9daa b3bd bb8d 70bc 96b6 9a3c
00000230: 9e39 173c d611 cf3d f37c f5be 007a a43d
00000240: b617 473d 2a96 96bf d687 1c40 364f e9bc
00000250: 2dd7 1fbc 7cb0 51bd 05e0 9b3f 1dda 0ebe
00000260: 43d6 f93d 5211 a5be 0eca c83e 6469 25be
00000270: 7e44 633e d6da 11bd 7898 603c a6e6 89bc
00000280: de63 cc3d 3920 28bd 556e 3fbd 3937 6abc
00000290: 6102 e93d 407f b5be 6240 d13d adb7 5b3d
000002a0: 6a37 9d3d 97fb 86bd a4ab 9a3d e7e6 8fbd
000002b0: c027 0e3f ca3f 64be ba70 7abf 6b1f f83b
000002c0: af06 3dbd 8ee6 983f 2960 b73e a9c6 1d39
000002d0: 805e 8fbd 1278 d93d f321 b3bd 9dcf 2dc0
000002e0: a9ee 1a3c f1cb 393f 07db 88bd a3a0 883c
000002f0: cab2 53bd 1e42 41be 74fb f03c 5d1d f9bd
00000300: df37 6ebd 890c e03c d68d 0fbe 9419 8e3f
00000310: 6c11 313d a4d6 cbbd 0716 20bd 379c 1cbf
00000320: ca6e cb3e 3a91 6ebe f491 733e 3144 b4be
00000330: 5850 b33d 8d2f e33f 22e8 8f3f 96d3 d6bc
00000340: a3d7 8abf 9b63 22bf 8187 2dbb ed96 2bbf
00000350: f7f4 393d ee85 68bd 1611 cf3e 3951 033e
00000360: 0bcb b83d f03e 29bd 1aea 003e eaad e6bf
00000370: f892 43bd 0069 9cbe cb20 7d3d c591 bb3f
00000380: 2037 353d e5de 843d 926a 23be 51ef 3cbd
00000390: 0fde 15c0 9809 adbe 0ef0 463e 199b 273c
000003a0: 58f0 86bc 4ad0 f7bd 40de bbbd af54 2c3d
000003b0: 811f c93c e95b 523d 8159 5fbd f04a 86bd
000003c0: 44da 35bd bfe0 acbd 2ee2 d9bd f139 4dbd
000003d0: d876 f93c fcb4 20bd 8875 363c ea48 653d
000003e0: 4603 d1bf d79a e9bf f0d5 973e 06c6 d5bd
000003f0: 6e60 56bf 77f0 803d 993d d33e 3e6e 0cbf

out.bias f4 [2]
-0.52537876 -0.30680248
00000000: 397f 06bf 3715 9dbe

std_out.weight f4 [2, 256]
0.012159322 0.01637651 -0.12771872 -0.071290724 -0.090740286 0.044670787 0.022454806 0.08118658
-0.32057455 0.00798421 -0.028718978 -0.0878786 -0.1380405 -0.00875323 0.036198962 -0.02404667
0.00047138115 0.0607522 0.019942729 0.095429234 0.11074356 -0.061722606 0.10639973 -0.06655207
-0.050070327 -0.14813851 0.15141399 -0.019787883 0.044578355 0.07872355 0.076268464 0.03422298
-0.32873282 0.06337179 -0.06985183 0.13209419 0.23669009 -0.15274858 0.09818484 0.046553064
0.1694056 0.020788837 -0.0050900234 0.04402876 -0.043507062 -0.08311098 -0.09638995 0.018313238
0.25144178 -0.119604535 0.10745588 -0.10175963 0.12398469 -0.032515492 -0.03660714 0.031439725
-0.109867424 -0.11163431 0.058885224 -0.70198333 0.25393763 0.0058890064 0.020222763 -0.12388126
0.04319644 0.065599635 0.11563277 0.013247929 0.041099228 0.049496535 0.09177863 0.15336113
-0.024491044 0.7078783 0.013013797 -0.018199774 0.07883016 0.0018985078 -0.024524372 -0.65232295
-0.06575427 -0.07513948 0.06989111 -0.051571287 -0.013894393 -0.29855263 -0.075555466 -0.0006891257
-0.029175995 0.08500318 -0.08164172 0.21285391 -0.05779141 -0.06490137 -0.14650826 -0.1271425
0.050267015 -0.0007020815 0.043468803 -0.003775191 0.014348122 0.007888983 -0.003947532 -0.30930397
-0.07745449 -0.040622182 0.11676984 0.11448814 -0.02658052 0.082941584 -0.02748561 0.10648668
0.027561598 0.3535366 0.05154354 -0.047740635 0.022494663 -0.17156354 -0.084491976 0.013825549
0.08115903 -0.042686276 0.118845806 0.12593928 -0.16506223 0.13304137 0.0035500978 0.034329247
0.18934165 -0.0004915632 -0.018725311 -0.05236984 -0.21605252 0.09042953 -0.05137922 0.20609786
0.005485111 0.055807445 -0.014692936 0.012988288 0.07111145 -0.10196146 0.010473299 -0.005751436
-0.015615327 0.045636263 0.78742945 -0.09572151 0.1906049 0.05347531 -0.04112531 0.013445344
-0.03224548 0.013001713 -0.11130143 0.07733219 -0.024544854 0.05800545 0.036442492 0.10832301
0.014646086 0.02615533 -0.061688446 -0.019980762 0.067795366 -0.036435757 0.015651528 -0.021665402
-0.15437788 -0.05878253 -0.047794383 -0.016996168 0.1194743 0.013777099 -0.3743272 -0.043997034
0.18499604 -0.49669653 0.07200962 0.07018629 0.02322427 -0.14795005 0.055382196 0.11700124
0.031266075 -0.03133641 -0.008741982 0.13724564 -0.014000528 0.049518235 -0.115437195 -0.21664836
0.19794625 0.03104593 -0.027425762 0.23021185 0.15823288 -0.004101976 -0.020665186 0.0013839368
0.08847809 0.08751851 0.091203436 0.046362203 0.0035781534 0.23869908 0.8207579 -0.015946727
0.045698073 -0.33338788 0.0031092507 0.1200002 -0.09064425 -0.0010110856 -0.0110687595 -0.9139429
0.061315395 -0.1376662 -0.037462037 0.0341809 0.11168788 0.05254058 -0.022749158 0.03318781
-0.061064564 -0.13592254 -0.043212406 0.13266765 0.07815445 -0.03925296 -0.03621734 -0.051506255
0.120141 0.11813305 0.19144714 -0.04244609 0.085358724 -0.04438814 -0.5195266 0.021529637
-0.027191127 0.054480474 0.04853789 0.028060002 0.020335224 -0.083846994 0.011101316 0.049367268
0.023248067 -0.06116512 -0.014254608 -0.016169386 -0.40792847 0.08216548 0.021213675 0.0381842
00000000: e537 473c 0828 863c b2c8 02be df00 92bd
00000010: 0bd6 b9bd b7f8 363d 24f3 b73c 2645 a63d
00000020: 5922 a4be 34d0 023c 1044 ebbc b2f9 b3bd
00000030: 7d5a 0dbe b569 0fbc 5d45 143d 86fd c4bc
00000040: b523 f739 4dd7 783d ef5e a33c 6770 c33d
00000050: 85cd e23d d8d0 7cbd 1ae8 d93d 744c 88bd
00000060: 8b16 4dbd 9fb1 17be 450c 1b3e 331a a2bc
00000070: cb97 363d d039 a13d a432 9c3d 652d 0c3d
00000080: ab4f a8be 12c9 813d 7a0e 8fbd b343 073e
00000090: e35e 723e 206a 1cbe 2215 c93d 6dae 3e3d
000000a0: a978 2d3e 5a4d aa3c 36ca a6bb 8057 343d
000000b0: 7634 32bd 1736 aabd 1868 c5bd a505 963c
000000c0: fabc 803e 39f3 f4bd d411 dc3d 5a67 d0bd
000000d0: afeb fd3d f72e 05bd 5ef1 15bd f1c6 003d
000000e0: 2c02 e1bd 87a0 e4bd a231 713d 2eb5 33bf
000000f0: 1d04 823e 91f8 c03b 35aa a53c 75b5 fdbd
00000100: c0ee 303d 1a59 863d e0d0 ec3d d70d 593c
00000110: aa57 283d e1bc 4a3d 6ff6 bb3d b30a 1d3e
00000120: 71a1 c8bc 8337 353f d237 553c b117 95bc
00000130: b571 a13d 5ad7 f83a 56e7 c8bc a3fe 26bf
00000140: 2daa 86bd bae2 99bd 1223 8f3d 6a3c 53bd
00000150: 4fa5 63bc e4db 98be d3bc 9abd 71a6 34ba
00000160: 7f02 efbc 2616 ae3d c633 a7bd 60f6 593e
00000170: afb6 6cbd 02eb 84bd 4306 16be a531 02be
00000180: c9e4 4d3d e40b 38ba 580c 323d 3269 77bb
00000190: 6314 6b3c cb40 013c 4c5a 81bb 175d 9ebe
000001a0: 76a0 9ebd 7263 26bd 0725 ef3d c278 ea3d
000001b0: 64bf d9bc 47dd a93d 8129 e1bc b015 da3d
000001c0: dcc8 e13c c002 b53e 521f 533d af8b 43bd
000001d0: ba46 b83c 5aae 2fbe 210a adbd 8e84 623c
000001e0: b536 a63d ced7 2ebd 6e65 f33d 3af6 003e
000001f0: 1306 29be ff3b 083e c2a8 683b d39c 0c3d
00000200: c7e2 413e 3fdc 00ba d365 99bc c281 56bd
00000210: df3c 5dbe 1e33 b93d 0473 52bd 510b 533e
00000220: 72bc b33b 5996 643d a4ba 70bc d4cc 543c
00000230: e1a2 913d 2cd1 d0bd 3398 2b3c 8b76 bcbb
00000240: 6ed7 7fbc 17ed 3a3d fa94 493f a409 c4bd
00000250: ee2d 433e ed08 5b3d 0373 28bd dc49 5c3c
00000260: d613 04bd 2305 553c 01f2 e3bd 5760 9e3d
00000270: 4a12 c9bc 1f97 6d3d b944 153d 74d8 dd3d
00000280: 23f6 6f3c b443 d63c 06ad 7cbd b2ae a3bc
00000290: 4cd8 8a3d a93d 15bd a237 803c a47b b1bc
000002a0: 3c15 1ebe f3c5 70bd 0bc4 43bd 8c3b 8bbc
000002b0: f1ae f43d 57b9 613c d1a7 bfbe 3c36 34bd
000002c0: 9a6f 3d3e 024f febe c879 933d d4bd 8f3d
000002d0: d340 be3c 3880 17be 71d8 623d 599e ef3d
000002e0: db10 003d 9c5a 00bd 883a 0fbc 1f8a 0c3e
000002f0: 7862 65bc a2d3 4a3d 566a ecbd 11d9 5dbe
00000300: 6cb2 4a3e 0954 fe3c feab e0bc a8bc 6b3e
00000310: cd07 223e de69 86bb 094a a9bc 3765 b53a
00000320: 0034 b53d e83c b33d dec8 ba3d 4be6 3d3d
00000330: 747f 6a3b 886d 743e 311d 523f b6a2 82bc
00000340: e72d 3b3d d1b1 aabe 92c4 4b3b aac2 f53d
00000350: b1a3 b9bd 6786 84ba be59 35bc 29f8 69bf
00000360: da25 7b3d 5ef8 0cbe cb71 19bd 4501 0c3d
00000370: 9dbc e43d cb34 573d 715c babc f1ef 073d
00000380: d61e 7abd 472f 0bbe 7eff 30bd 07da 073e
00000390: 710f a03d b6c7 20bd a258 14bd 39f8 52bd
000003a0: 7c0c f63d beef f13d b80a 443e f4db 2dbd
000003b0: 8ed0 ae3d 57d0 35bd b2ff 04bf ec5e b03c
000003c0: edbf debc eb26 5f3d abcf 463d 17de e53c
000003d0: 0e96 a63c f9b7 abbd 4be2 353c 5535 4a3d
000003e0: bb72 be3c 4788 7abd 298c 69bc a975 84bc
000003f0: 00dc d0be 6046 a83d 4dc8 ad3c 0967 1c3d

std_out.bias f4 [2]
-0.6542642 -1.042612
00000000: dc7d 27bf 4f74 85bf

exp_avg f4 [256, 7]
-0.0013917685 -0.00012681598 -0.00013316248 0.00042106645 -0.0010537592 -0.0003339873 0.00022478856 -6e-45
6e-45 6e-45 6e-45 -6e-45 6e-45 6e-45 5.789797e-05 -3.9708226e-05
3.34419e-05 6.937974e-06 5.265421e-05 -4.785725e-05 2.1744423e-05 -0.001529115 -0.0009580932 0.00041116797
-0.00012583005 -0.0014832261 -0.0009861956 -0.00023923564 6e-45 -6e-45 6e-45 6e-45
6e-45 -6e-45 6e-45 0.00010625121 -2.8884993e-05 -5.5442968e-05 4.513956e-05 0.00013603804
-2.3684135e-05 -6.135195e-06 -6e-45 -6e-45 6e-45 6e-45 -6e-45 -6e-45
6e-45 0.0015350087 -0.00027635993 -0.00035317233 0.00014288233 0.0015392033 -0.0001551169 -0.00013879864
0.0010774038 0.00037821455 0.0005633894 0.0006955665 0.0010662925 0.00026712753 0.00057919195 0.0015537126
0.000648308 0.0018910161 0.0011490326 0.0013997428 0.00079588214 0.0010654777 0.00044203657 0.0003725409
0.00019701052 0.00055069814 0.00043652984 0.00033819603 0.00023402183 -0.00035665778 0.00043865712 0.0004793182
-3.4243618e-05 -0.00019699242 0.00033453785 0.00024750386 1.9745568e-05 -3.108697e-05 3.683821e-05 -1.3043971e-05
9.330626e-06 -4.284371e-05 1.1366035e-06 -6e-45 -6e-45 6e-45 6e-45 -6e-45
-6e-45 6e-45 -0.0006143936 -0.0004310924 -0.00077369495 -0.000928399 -0.0005434873 -0.00048187558
-0.00049975736 6e-45 6e-45 6e-45 6e-45 6e-45 -6e-45 6e-45
-6.5191256e-05 6.1585146e-05 -9.394353e-05 7.3651165e-05 -3.1380503e-05 2.4969044e-05 -6.5327404e-06 4.748441e-05
0.00010308302 0.00064467493 5.230598e-05 4.248424e-05 0.00014128984 0.00028749183 -5.5079247e-05 2.8757913e-05
6.764938e-06 0.0009131138 -0.00019406057 -0.00010078395 0.00016956798 -0.0004322734 0.00028439943 3.5807996e-05
-8.118837e-06 -0.00027991753 0.00021798858 5.4980897e-05 0.0001311128 3.2599644e-05 0.00043847397 1.7654707e-05
0.00011947562 3.2056156e-05 0.00017409459 -6e-45 -6e-45 6e-45 6e-45 -6e-45
-6e-45 6e-45 -6e-45 6e-45 6e-45 6e-45 -6e-45 6e-45
6e-45 -6e-45 -6e-45 6e-45 6e-45 -6e-45 -6e-45 6e-45
-0.00024040656 0.00022108373 -0.0001597383 8.530379e-05 -0.00022040089 0.00022570434 -0.00012340967 0.0
0.0 0.0 0.0 0.0 0.0 0.0 0.0 0.0
0.0 0.0 0.0 0.0 0.0 -6e-45 6e-45 6e-45
6e-45 -6e-45 6e-45 6e-45 0.0017886881 0.0015860139 0.0022829068 0.0010752762
0.0018612233 0.0014726054 0.0016562635 0.0 0.0 0.0 0.0 0.0
0.0 0.0 -8.133746e-05 5.057501e-05 -4.279822e-05 -2.1366499e-05 -8.090748e-05 5.5407396e-05
-2.2627293e-05 -6e-45 -6e-45 6e-45 6e-45 -6e-45 -6e-45 6e-45
-6e-45 6e-45 6e-45 6e-45 -6e-45 6e-45 6e-45 -5.5642297e-05
2.970648e-05 -1.644988e-05 -6.7478995e-06 -6.148908e-05 5.531261e-05 -2.5395882e-05 -6e-45 6e-45
6e-45 6e-45 -6e-45 6e-45 6e-45 -0.00015900655 7.42265e-05 -0.000112364534
-2.6685302e-05 -0.00014984254 6.393063e-05 -7.154463e-05 6e-45 6e-45 6e-45 6e-45
00000000: 006c b6ba e8f9 04b9 88a1 0bb9 95c2 dc39
00000010: 4b1e 8aba 041b afb9 38b5 6b39 0400 0080
00000020: 0400 0000 0400 0000 0400 0000 0400 0080
00000030: 0400 0000 0400 0000 79d7 7238 628c 26b8
00000040: f743 0c38 becc e836 07d9 5c38 55ba 48b8
00000050: cb67 b637 966c c8ba 8c28 7bba 0892 d739
00000060: 3ff1 03b9 cf68 c2ba 3c43 81ba 54db 7ab9
00000070: 0400 0000 0400 0080 0400 0000 0400 0000
00000080: 0400 0000 0400 0080 0400 0000 2fd3 de38
00000090: 0d4e f2b7 6f8b 68b8 3c54 3d38 6fa5 0e39
000000a0: 4bad c6b7 ecdc cdb6 0400 0080 0400 0080
000000b0: 0400 0000 0400 0000 0400 0080 0400 0080
000000c0: 0400 0000 5832 c93a 67e4 90b9 fd29 b9b9
000000d0: afd2 1539 18bf c93a e0a6 22b9 7a8a 11b9
000000e0: ac37 8d3a 194b c639 6cb0 133a ad56 363a
000000f0: d7c2 8b3a 400d 8c39 ead4 173a f2a5 cb3a
00000100: 37f3 293a f9db f73a 239b 963a 9377 b73a
00000110: bfa2 503a 80a7 8b3a 25c1 e739 9851 c339
00000120: 9c94 4e39 ba5c 103a 0bde e439 e74f b139
00000130: c263 7539 ccfd bab9 90fb e539 004d fb39
00000140: cea0 0fb8 c08f 4eb9 e964 af39 68c3 8139
00000150: 49a3 a537 6163 02b8 ba82 1a38 6ed7 5ab7
00000160: bc8a 1c37 15b3 33b8 668d 9835 0400 0080
00000170: 0400 0080 0400 0000 0400 0000 0400 0080
00000180: 0400 0080 0400 0000 420f 21ba 3e04 e2b9
00000190: cad1 4aba cd5f 73ba d178 0eba 3fa4 fcb9
000001a0: 2602 03ba 0400 0000 0400 0000 0400 0000
000001b0: 0400 0000 0400 0000 0400 0080 0400 0000
000001c0: 4ab7 88b8 4627 8138 8c03 c5b8 2b75 9a38
000001d0: 8f9e 03b8 9d74 d137 d033 dbb6 ff29 4738
000001e0: 462e d838 67ff 283a 1e63 5b38 1b31 3238
000001f0: 3427 1439 80ba 9639 e404 67b8 263d f137
00000200: 60fe e236 085e 6f3a bd7c 4bb9 f95b d3b8
00000210: 0fce 3139 c1a2 e2b9 721b 9539 8b30 1638
00000220: 2436 08b7 e5c1 92b9 dd93 6439 4a9b 6638
00000230: 537b 0939 9abb 0838 fbe2 e539 3219 9437
00000240: fc8e fa38 0974 0638 298d 3639 0400 0080
00000250: 0400 0080 0400 0000 0400 0000 0400 0080
00000260: 0400 0080 0400 0000 0400 0080 0400 0000
00000270: 0400 0000 0400 0000 0400 0080 0400 0000
00000280: 0400 0000 0400 0080 0400 0080 0400 0000
00000290: 0400 0000 0400 0080 0400 0080 0400 0000
000002a0: a515 7cb9 b6d2 6739 6c7f 27b9 20e5 b238
000002b0: 6a1b 67b9 0cab 6c39 8867 01b9 0000 0000
000002c0: 0000 0000 0000 0000 0000 0000 0000 0000
000002d0: 0000 0000 0000 0000 0000 0000 0000 0000
000002e0: 0000 0000 0000 0000 0000 0000 0000 0000
000002f0: 0000 0000 0400 0080 0400 0000 0400 0000
00000300: 0400 0000 0400 0080 0400 0000 0400 0000
00000310: 6a72 ea3a cce1 cf3a d29c 153b 48f0 8c3a
00000320: 4af4 f33a 7004 c13a fb16 d93a 0000 0000
00000330: 0000 0000 0000 0000 0000 0000 0000 0000
00000340: 0000 0000 0000 0000 b793 aab8 8120 5438
00000350: 3d82 33b8 353c b3b7 dfac a9b8 3d65 6838
00000360: becf bdb7 0400 0080 0400 0080 0400 0000
00000370: 0400 0000 0400 0080 0400 0080 0400 0000
00000380: 0400 0080 0400 0000 0400 0000 0400 0000
00000390: 0400 0080 0400 0000 0400 0000 7661 69b8
000003a0: 2e32 f937 d9fd 89b7 046c e2b6 b3f3 80b8
000003b0: 76ff 6738 3e09 d5b7 0400 0080 0400 0000
000003c0: 0400 0000 0400 0000 0400 0080 0400 0000
000003d0: 0400 0000 ffba 26b9 0caa 9b38 40a5 ebb8
000003e0: 40da dfb7 0d1f 1db9 7f12 8638 3b0a 96b8
000003f0: 0400 0000 0400 0000 0400 0000 0400 0000

exp_avg_sq f4 [256, 7]
0.00010625414 6.238398e-05 5.3872256e-05 9.254731e-05 0.00010024293 6.2832296e-05 3.265573e-05 7.4251193e-25
2.3604519e-24 6.3753924e-25 1.105285e-24 7.243532e-25 2.9212018e-24 1.3447606e-25 1.2258073e-07 4.3214868e-08
4.185063e-08 1.9468727e-09 1.3490374e-07 5.6404286e-08 1.8327475e-08 7.222172e-05 2.7170141e-05 2.0355948e-05
1.8430803e-05 6.613852e-05 2.8244303e-05 1.3645527e-05 1.9078369e-11 1.2169811e-11 9.687433e-12 1.3603505e-13
2.979261e-11 5.6280523e-12 3.9969503e-12 3.6214924e-06 2.7352627e-07 1.272888e-06 3.8921453e-07 3.927233e-06
3.2307113e-07 7.678804e-07 6.1285694e-36 2.0280219e-35 2.1039782e-35 4.7992803e-36 6.46389e-36 2.0849832e-35
2.9064175e-36 3.7141763e-05 1.3307181e-05 2.2559876e-05 1.951234e-06 3.7286693e-05 1.3785929e-05 9.650289e-06
1.4181375e-05 5.7690586e-06 9.725009e-06 9.590646e-06 1.3903617e-05 6.230601e-06 3.7884577e-06 5.152214e-05
2.8643866e-05 8.809288e-05 5.019241e-05 4.1445775e-05 3.2185893e-05 2.3413024e-05 4.0117975e-06 5.820179e-06
1.691572e-06 1.1603288e-05 4.409256e-06 5.706588e-06 1.9695203e-06 6.7560627e-06 2.152186e-06 4.999006e-06
2.8989987e-07 5.292544e-06 2.1160486e-06 2.9719595e-06 3.6607452e-07 1.2514133e-07 1.882847e-07 4.5836558e-08
3.6930493e-07 9.935015e-08 7.220202e-08 7e-43 7e-43 7e-43 7e-43 7e-43
7e-43 7e-43 1.33269095e-05 4.788602e-06 5.1983357e-06 6.660885e-06 1.1279914e-05 5.1374955e-06
3.1508398e-06 7e-43 7e-43 7e-43 7e-43 7e-43 7e-43 7e-43
3.8331377e-06 7.772949e-07 1.3685875e-06 4.035649e-07 4.408059e-06 8.955259e-07 7.462825e-07 2.6246398e-06
3.1930829e-06 1.2934021e-05 2.0774682e-08 3.0069173e-06 3.3631964e-06 2.5039833e-06 5.2986477e-05 1.7623788e-05
8.351455e-06 2.7420303e-05 4.728222e-05 2.0228357e-05 8.971503e-06 5.931325e-06 1.4812964e-06 3.2855446e-06
4.7228232e-07 4.6885516e-06 1.7771519e-06 2.1470587e-06 3.864094e-06 3.8486246e-06 7.056022e-06 1.8995739e-06
3.9253027e-06 3.8423423e-06 1.904424e-06 7e-43 7e-43 7e-43 7e-43 7e-43
7e-43 7e-43 2.9809785e-10 8.173981e-10 8.887075e-10 5.262018e-10 3.6587744e-10 8.739797e-10
4.8354953e-10 7e-43 7e-43 7e-43 7e-43 7e-43 7e-43 7e-43
2.928184e-06 1.3095995e-06 7.5773028e-06 3.4064387e-06 3.0939416e-06 1.2764145e-06 1.4548399e-06 0.0
0.0 0.0 0.0 0.0 0.0 0.0 0.0 0.0
0.0 0.0 0.0 0.0 0.0 6.5742194e-09 1.2506096e-08 2.003311e-08
9.456788e-09 7.3132314e-09 1.3061382e-08 6.7035875e-09 2.7643016e-05 2.3727565e-05 5.0337494e-05 3.390349e-05
2.6312127e-05 2.3760264e-05 1.5084072e-05 0.0 0.0 0.0 0.0 0.0
0.0 0.0 3.6930518e-07 1.2224255e-07 9.345897e-08 1.4698283e-08 4.1589934e-07 2.1878246e-07
5.8843273e-08 1.8951515e-35 3.1793036e-36 5.6284954e-35 1.4872888e-35 1.8768212e-35 2.6362585e-36 1.00791215e-35
1.7655934e-09 2.6647355e-09 2.8099885e-09 1.0124308e-09 1.9610082e-09 3.023508e-09 9.597882e-10 3.3263416e-07
1.285501e-07 5.8646638e-08 2.442897e-07 3.5529257e-07 2.5120556e-07 7.086321e-08 7e-43 7e-43
7e-43 7e-43 7e-43 7e-43 7e-43 5.663547e-07 6.1188544e-08 2.5784897e-07
2.4923425e-08 6.1806395e-07 6.506883e-08 1.2655165e-07 7e-43 7e-43 7e-43 7e-43
00000000: c2d4 de38 25d4 8238 e5f4 6138 f515 c238
00000010: 8339 d238 d5c4 8338 d3f7 0838 dbcb 6517
00000020: 91a1 3618 104f 4517 da08 ab17 2c2d 6017
00000030: 5d04 6218 2a79 2616 bc9e 0334 409b 3933
00000040: 41bf 3333 bfc9 0531 0fda 1034 2b41 7233
00000050: 8b6e 9d32 be75 9738 6feb e337 11c2 aa37
00000060: d99b 9a37 d9b3 8a38 2eee ec37 18ef 6437
00000070: abd0 a72d f517 562d 526c 2a2d 6f29 192a
00000080: 7f07 032e fd04 c62c 54a1 8c2c c408 7336
00000090: 2ad9 9234 19d8 aa35 3df5 d034 adc6 8336
000000a0: 8f72 ad34 5720 4e35 1b57 0205 02a8 d705
000000b0: bcbb df05 8923 cc04 c478 0905 a4b6 dd05
000000c0: 2b40 7704 aac8 1b38 e841 5f37 f73e bd37
000000d0: f2f1 0236 4864 1c38 1d4a 6737 ade7 2137
000000e0: 8bec 6d37 d693 c136 9828 2337 83e7 2037
000000f0: 9543 6937 7410 d136 353d 7e36 7a19 5838
00000100: 3c48 f037 81be b838 b185 5238 10d6 2d38
00000110: 57ff 0638 1667 c437 149d 8636 f54a c336
00000120: f909 e335 beab 4237 38f3 9336 387b bf36
00000130: 1a2c 0436 23b2 e236 466e 1036 22bd a736
00000140: 89a3 9b34 9b96 b136 7001 0e36 e071 4736
00000150: e688 c434 965e 0634 4e2b 4a34 d4dd 4433
00000160: e244 c634 535a d533 7b0d 9b33 f401 0000
00000170: f401 0000 f401 0000 f401 0000 f401 0000
00000180: f401 0000 f401 0000 a496 5f37 c7ad a036
00000190: 5d6d ae36 9180 df36 dd3e 3d37 c062 ac36
000001a0: 0473 5336 f401 0000 f401 0000 f401 0000
000001b0: f401 0000 f401 0000 f401 0000 f401 0000
000001c0: 679e 8036 4ca7 5035 4fb0 b735 8aa9 d834
000001d0: f0e8 9336 1264 7035 2554 4835 f822 3036
000001e0: bf48 5636 32ff 5837 0274 b232 72ca 4936
000001f0: 46b3 6136 1b0a 2836 cc3d 5e38 ccd6 9337
00000200: 3a1d 0c37 a704 e637 e650 4638 11b0 a937
00000210: 5084 1637 b205 c736 f5d0 c635 3a7d 5c36
00000220: fd8d fd34 5a52 9d36 7986 ee35 3016 1036
00000230: 51a8 8136 6f23 8136 c4c2 ec36 ddf4 fe35
00000240: 18b6 8336 78ed 8036 839b ff35 f401 0000
00000250: f401 0000 f401 0000 f401 0000 f401 0000
00000260: f401 0000 f401 0000 8be1 a32f 47af 6030
00000270: 3b49 7430 29a4 1030 ac24 c92f db3c 7030
00000280: c6ea 0430 f401 0000 f401 0000 f401 0000
00000290: f401 0000 f401 0000 f401 0000 f401 0000
000002a0: d181 4436 7fc5 af35 8940 fe36 2c9a 6436
000002b0: 83a1 4f36 4551 ab35 eb43 c335 0000 0000
000002c0: 0000 0000 0000 0000 0000 0000 0000 0000
000002d0: 0000 0000 0000 0000 0000 0000 0000 0000
000002e0: 0000 0000 0000 0000 0000 0000 0000 0000
000002f0: 0000 0000 72e3 e131 64da 5632 4615 ac32
00000300: 6577 2232 dd47 fb31 9164 6032 6155 e631
00000310: ede2 e737 8f0a c737 7921 5338 9833 0e38
00000320: ddb8 dc37 c750 c737 9911 7d37 0000 0000
00000330: 0000 0000 0000 0000 0000 0000 0000 0000
00000340: 0000 0000 0000 0000 eb44 c634 c741 0334
00000350: 9db3 c833 bb83 7c32 c548 df34 77ea 6a34
00000360: ddba 7c33 ee86 c905 8d3b 8704 8ea1 9506
00000370: da27 9e05 ef93 c705 a044 6004 f55b 5605
00000380: 4ca9 f230 861e 3731 d719 4131 be25 8b30
00000390: 6cc2 0631 1ec6 4f31 8ce9 8330 e494 b234
000003a0: 9507 0a34 a9e2 7b33 ec26 8334 0abf be34
000003b0: 6edd 8634 762d 9833 f401 0000 f401 0000
000003c0: f401 0000 f401 0000 f401 0000 f401 0000
000003d0: f401 0000 9907 1835 c266 8333 7e6e 8a34
000003e0: 3117 d632 08e9 2535 f8bb 8b33 41e2 0734
000003f0: f401 0000 f401 0000 f401 0000 f401 0000
