Multi-UAVs path planning/path planning/Path_SAC_actor_1.pth (torch, 833053 bytes, 24 tensors)

in_to_y1.weight f4 [256, 7]
00000000: 955d d2be d7ea be3e 8834 1938 c7f8 2a3d
00000010: 2123 c93d 582f c7be 187a 823e 07c6 163e
00000020: 9021 13bd af2e 24bd 5ffe e6bc 9fa3 e1bd
00000030: 4610 57bc 7ddf 0ebc c74d fd3e c0c6 edbe
00000040: cd62 683e e11d 183e ceda 13bf 29b3 0e3f
00000050: d931 cc3c a02a 683e 02a0 1fbe 1dd3 5b3f
00000060: e16c 29bd 7650 c73d b097 4bbe 88f5 21bf
00000070: f3df 0ebf 15d2 6fbe 18bb 113f 73e3 463c
00000080: fb2c 44be 75df fbbe 5dd1 77bd 3fb7 08bf
00000090: a7d6 f6be a9ed a33d b71d cdbe 9007 b6be
000000a0: a8d9 84bd 86ec 823e 7e64 67bd f36f b8bd
000000b0: 296e 8bbe 1084 aa3d 08a9 c73d d19e 89bc
000000c0: d9d8 55be 9392 8a3b 2dd8 6bbc 5794 3bbe
000000d0: b07c ccbd a121 c03c 0c02 67bc 936d 013e
000000e0: 92a0 e53d f432 fcbe 867c 04be f955 f53e
000000f0: 08cf 803e 2e33 873e f533 8dbe 4bac bc3e
00000100: 5d9a d23d 0743 a13e 80b9 4cbf 93f0 bfbe
00000110: c8bc 7d3c 7d84 70be 5294 dd3e 8ee4 03bd
00000120: 1945 f0be 2d8c 383e 09e9 94be 50cb 10be
00000130: c97d 2b3e ff14 86bd 0be6 593e 5786 f0be
00000140: 39dd 54bf 7e84 82be 9834 85be 74c9 9c3e
00000150: a3fb 643e c963 153e 608c 033e 90a8 2a3f
00000160: 8c51 1fbf 16d3 f6be dcc3 d4be d3bc a33a
00000170: 9d49 4c3d 46b4 0b3c 9ab4 64bd c546 003d
00000180: bff3 39bd c2de 75bd 9753 1bbd b645 8f3c
00000190: 5a87 8abd 5ca7 3fbc 6f97 ef3c e7d6 00bd
000001a0: 3baa 093d 01f6 253f 9304 a23e f8f9 dcbc
000001b0: b88b 18be 3b8c 37bf 3ac9 59be d4fb 7d3d
000001c0: a762 1fbf 8e12 5abe bd48 c9bd 3562 f5be
000001d0: aaee 323e b015 033f 1f20 343d a181 943e
000001e0: 36cd 0ebe c00f d8be 9ec0 2bbc 9f59 3d3d
000001f0: dfa6 a0be 94db b33e 539d 253f 3f07 d83e
00000200: 7c4a ffbc a9fb 1e3e 0be7 5ebf 3904 33bf
00000210: 7290 193d bdc6 49bd 2fce 50be 7fdc 013f
00000220: f29b d7be 4572 1cbe db68 e33c 0484 973e
00000230: b84a ecbd f558 923c 55ba 52be 55a9 24bd
00000240: 8329 f13c 64ee 49bb a26a 9bbd 9a09 cabe
00000250: 2d22 81bf dc94 9bbd 14a2 f53c 3dd5 76bd
00000260: 2efd 923d 43f5 dcbd 5397 403d 8b4d 8ebd
00000270: cde7 2fbf cb50 ca3d 3fc2 da3d 4be8 693d
00000280: bac8 bbbe 651c 7cbe 77fa 253d ee28 f5be
00000290: 1564 b6be 6da3 d7be 7e53 36be 1934 25be
000002a0: 83f8 e43d 63f0 b7be 1716 753d 1f7a 2cbe
000002b0: 4db3 eabe 732d b0be 5a9b f3be a034 c03c
000002c0: d5ba 7c3d 2ff0 883c c449 a5bc 0f9a dbba
000002d0: aa69 89bd 03e7 2a3d ab88 103f 758d a83d
000002e0: dc7c 2bbe b842 fdbd 6262 853e 9282 183c
000002f0: e194 15bd 85bc e03e fe83 2dbf 07c8 61bd
00000300: f476 85be 50c6 25bf 1bbd 513d 4c85 3a3e
00000310: 7241 9cbe dcc5 323e fc1f 8c3d cd05 edbc
00000320: 41bb 68bf 1bd7 fbbd ddbe 023d f873 d53c
00000330: 61ef 8ebc 749b 66be 79dc 48bd a4a6 69bb
00000340: e2ff 15bd 8273 7bbe e13a b83d 6e87 96bd
00000350: 7bca 9ebc 2597 483d 87fd 9bbd 230c 3a3d
00000360: f07c 0e3d 8f3d ca3d cee1 efbe 40e2 3d3c
00000370: 00dc 57bf 9c7d 49bd e323 00be 0c9b 7c3e
00000380: 102c 223f db8b 2b3f c7e2 313e 6239 a43d
00000390: 110d f1bd 336d f8be 2ae3 adbe 9a7c 8d3e
000003a0: 4e2e c7be 0be3 02bf 37ab 983e fd4a 953e
000003b0: 95d4 14bf 13f5 dfbe 8c23 0ebf 0af4 0fbe
000003c0: be62 43be 0d7f 81be 12f4 c63e 05c3 283d
000003d0: f2c4 77be f72a 823d e81f 343f 85c5 e63e
000003e0: 0d44 0abf 3dc8 923c a151 4ebf 967e 01be
000003f0: 2884 343c 3f29 c43e d850 00bf 4a4e 12bf
-0.41087022 0.37288544 3.6526966e-05 0.04174116 0.098211534 -0.38903308 0.25483775 0.14723979
-0.03592068 -0.040083583 -0.028197465 -0.11017536 -0.0131264385 -0.008720276 0.49473402 -0.46440697
0.2269394 0.14855148 -0.57755744 0.55742127 0.024926113 0.2267251 -0.15588382 0.8586901
-0.0413636 0.097321436 -0.19882083 -0.63265276 -0.5581047 -0.23419984 0.5692611 0.012139189
-0.19157784 -0.49193922 -0.0605024 -0.5340461 -0.48210642 0.080043145 -0.40061733 -0.35552645
-0.06486827 0.25571078 -0.05649232 -0.090057276 -0.27232483 0.0832597 0.09749037 -0.016799362
-0.20883502 0.004228899 -0.014394802 -0.18318306 -0.0998472 0.023453536 -0.014099609 0.12639455
0.11212267 -0.49257624 -0.12938127 0.47917154 0.25157952 0.26406235 -0.27578703 0.368502
0.10283349 0.3149645 -0.7997055 -0.3748823 0.0154869035 -0.2348804 0.43277222 -0.03220039
-0.46927717 0.18022223 -0.29084042 -0.14140058 0.16747202 -0.065469734 0.2127916 -0.46977493
-0.8315006 -0.2549171 -0.26016688 0.30622447 0.22361617 0.14588846 0.12846518 0.66663456
-0.62233806 -0.4820792 -0.4155568 0.0012492187 0.04987489 0.008526867 -0.055836298 0.03131749
-0.04539847 -0.06002689 -0.037921514 0.017489295 -0.067640975 -0.011697616 0.029247014 -0.031454947
0.03360961 0.648285 0.31644115 -0.026974663 -0.14897048 -0.7169835 -0.21268168 0.06200774
-0.62259907 -0.2129614 -0.09828327 -0.4792649 0.17473856 0.5120497 0.043975946 0.2900515
-0.1394547 -0.42199516 -0.010482935 0.046228047 -0.31377313 0.35128462 0.6469318 0.42193028
-0.031163447 0.15525688 -0.87071294 -0.6992832 0.03749127 -0.049261797 -0.20391153 0.50727075
-0.42111164 -0.15277965 0.02775996 0.29592907 -0.11537689 0.017864684 -0.20578893 -0.04020055
0.02943874 -0.0030812258 -0.07588698 -0.3946045 -1.0088555 -0.07596752 0.029984511 -0.060261954
0.071771964 -0.107889675 0.047019314 -0.06948384 -0.68713075 0.09878691 0.10681581 0.057106297
-0.3667658 -0.24620207 0.040522065 -0.4788279 -0.35623232 -0.4211687 -0.17805287 -0.16133155
0.11180212 -0.35925588 0.05983552 -0.1684346 -0.4583992 -0.34409675 -0.4757946 0.023462594
0.061701614 0.016716091 -0.020176776 -0.0016754287 -0.06709607 0.041724216 0.5645854 0.08230106
-0.16746849 -0.12366241 0.26051623 0.009308474 -0.036518935 0.4389383 -0.6777953 -0.0551224
-0.26067317 -0.64755726 0.051205736 0.18214911 -0.3051868 0.1745829 0.06842038 -0.02893343
-0.90910727 -0.122968875 0.031920303 0.026056275 -0.01744813 -0.22520238 -0.049038384 -0.0035652304
-0.036620982 -0.24555781 0.08995605 -0.0735005 -0.01938366 0.048972268 -0.07616716 0.04542173
0.03478712 0.098750226 -0.46851963 0.011589587 -0.8432007 -0.049192056 -0.1251369 0.2466852
0.63348484 0.6701028 0.17371665 0.080187574 -0.1177007 -0.48520812 -0.33962375 0.27634126
-0.38902515 -0.5112769 0.29818127 0.29158774 -0.58136874 -0.43741664 -0.5552299 -0.14057937
-0.19080636 -0.25292245 0.38858086 0.04120161 -0.24196222 0.06355851 0.70361185 0.4507257
-0.5401009 0.017917747 -0.80593306 -0.12645945 0.011017837 0.38312718 -0.5012336 -0.5715071

in_to_y1.bias f4 [256]
00000000: c892 423e eaf2 c8be 3f20 22be 59dd 82bd
00000010: c3a9 0cbd 1312 0c3e e78f c4be b248 1abe
00000020: d64f f0bd 4312 6f3e f033 103b 15ac a63e
00000030: 490b 63be fc74 60be 4385 91be 0c57 e73d
00000040: 0764 0c3e 12f6 973d 6c95 b4bd 25ce 10bd
00000050: fbb9 4dbe d030 0abc 0b8c 653d c8f4 d4be
00000060: a090 13be a7c7 86be 81ef cebe 6282 0abd
00000070: d2ff 4c3e 21a2 543d 17c5 adbe 3f85 043e
00000080: f8ac 06be 528e 053e d29f be3e 0c27 dcb9
00000090: 15a1 633e 64ac 643d 2404 44be 1be1 6f3e
000000a0: ee60 12bd e690 60be 6962 3dbe 41dc 41bc
000000b0: 2853 a3be 6bdc 933e 0aea cabe 2dfd d03d
000000c0: 0e95 e53d 0e88 23bd e269 85be fc2d 77be
000000d0: 02c9 adbe 1609 87be 3f87 553e b416 61be
000000e0: 0657 bdbe 7f3b 02be 4791 14be 5283 963e
000000f0: 321f 473e a7df 55bd 9dde 82be eb51 cdbe
00000100: a6e1 8f3e b3a4 94be 34f8 8b3e 9970 243e
00000110: 2ef7 9f3e 2dd4 32be 5580 b1bd a6fe a9bd
00000120: 7cc3 9b3c 176a d53d 8853 6b3e b47c 5f3e
00000130: 0dea 6d3d ca9a 6abb c402 f0bd c818 5dbe
00000140: 15d3 7b3e 3ea2 8cbe 91ed 1bbe 4e4b 883d
00000150: cf0f 37bd 4763 0d3e 0e46 563d ab49 43be
00000160: d9d4 1b3e 9627 a4bd 4944 94be 49a7 3f3e
00000170: e8a7 383e f741 abbd 3373 24bc c136 a2bd
00000180: 89d2 ec3d 01ff c73e 1b55 41be 5529 dabe
00000190: 0843 123e e1b6 11be e11f c6be 3edc 723e
000001a0: 2cbe ea3d d822 89be 97c8 19bc 0ab8 6f3d
000001b0: d5eb 99bc 56ba 9dbe 177a bd3e fda7 dfbe
000001c0: c403 84be 3ddb 92be 0e1f a5bd 8d5b ae3d
000001d0: 8abb 7d3e 83f5 6abd 9eda fa3d c7e2 b0be
000001e0: 1536 33be fe67 87be 7eaa 7abe 4d31 b3be
000001f0: a36d 2e3e b301 ac3c a529 edbd 98e6 24be
00000200: a408 9f3e b03a 0dbf 555f adbd 7f7e c1bd
00000210: b34d 69be 8cbb 4a3e 86bd a2be a252 a9bd
00000220: 1c7c 59be 40ca 8fbe 266a b63e 2f4d 24bd
00000230: 25cf 81be 6454 003e 983c d93d 9cf0 bb3d
00000240: e934 3fbd 2d45 12be f56a 233e 47cf ec3d
00000250: fd6a 73bd e511 debd eeb8 d3be 8c6b 6b3e
00000260: 4e06 26bc 29ac a63d 6d83 0f3e 2cf7 f2be
00000270: 053f e83e e4cd bebe 207a 31be 418a 523d
00000280: 42df 47be 4059 693e 8a6f 7c3e 2d18 cdbd
00000290: 2b93 a8be 1cc8 ad3b 70d4 bfbc f275 3a3e
000002a0: aa9d 823e d363 873e 9689 333e 893c d13d
000002b0: 8039 823e a047 86bc 26a0 3a3e f210 bc3d
000002c0: 08ac 63be 67b4 783e 69a7 d8be b313 d83c
000002d0: e80a 3d3e 35e2 a03e dfd3 ad3d 94e2 23be
000002e0: 014d 7d3e 2106 41be 713b 92bc 46e9 9f3e
000002f0: 501a 66be fc13 e73d d0c3 3dbe 384c f83d
00000300: 179f a0be db38 57be ca8c 34be 71a5 413e
00000310: 1e53 263d 0ae4 4f3d d965 aa3e 639a e03e
00000320: 683b 1fbe 524e 3abe 7311 123e b867 2a3e
00000330: 2334 283e a479 9e3e 662b 4e3c 344e 92be
00000340: 6bab a43d da4f 443e 5af1 a2be e177 383b
00000350: a926 5dbc dca2 27be ff84 c4be 4db4 e9be
00000360: 93d0 bebe 06eb 53be 4b59 1fbe a526 e8bd
00000370: 77e4 933c 8cac e3be a20e bebe 1472 5dbd
00000380: 187b 10be 3f35 fabd 0034 b6be b68b c23d
00000390: e2b2 ad3d c52c 81be 9748 5c3e 87ab a23e
000003a0: c043 54bd f3ef 643e e8d8 da3c c647 1ebe
000003b0: 64d6 0ebc eb1a cb3e 1e0f d03e c4a0 71bd
000003c0: bfe4 193e de9c 6cbd edf1 af3d 8089 abbe
000003d0: b1ff b5bd 089a aabe 4895 a1bd 5a2f 3abe
000003e0: 2cf0 67be d898 5b3e e215 1bbe 067a a93d
000003f0: 9205 83bd 1733 1b3e 0426 4abb a180 123e
0.19001305 -0.3924783 -0.15832613 -0.06389875 -0.034341585 0.1367877 -0.3839104 -0.15066794
-0.117339775 0.2334681 0.0022003613 0.32553163 -0.22172274 -0.21919626 -0.28421983 0.112959
0.13710032 0.07419981 -0.088175625 -0.035352845 -0.20090477 -0.008434489 0.05604176 -0.41593003
-0.14410639 -0.26324198 -0.40417102 -0.03381575 0.20019463 0.05191243 -0.3393943 0.12941454
-0.1315192 0.13042572 0.37231308 -0.00041990762 0.22229417 0.055828467 -0.19142205 0.23425715
-0.03573697 -0.21930274 -0.18494572 -0.011832298 -0.3189938 0.28879103 -0.39631683 0.102045394
0.112100706 -0.039924674 -0.26057345 -0.24138635 -0.3394242 -0.2637412 0.20852374 -0.21981317
-0.36980456 -0.12718008 -0.14508544 0.29397064 0.19445494 -0.052215245 -0.25560465 -0.4010156
0.28101844 -0.29031906 0.273378 0.16058578 0.3124327 -0.17463751 -0.086670555 -0.083005235
0.019014113 0.10420626 0.22981083 0.21824914 0.058084536 -0.0035797828 -0.117192775 -0.21591485
0.2459224 -0.2746753 -0.15227343 0.06654988 -0.04469281 0.13807403 0.052312903 -0.19071071
0.15217914 -0.08015363 -0.28958347 0.18716158 0.18032801 -0.08362191 -0.010037231 -0.079206
0.11563594 0.3906174 -0.18880121 -0.4260966 0.14283383 -0.14229919 -0.38696197 0.23716828
0.11462054 -0.26784396 -0.009386203 0.058525123 -0.018789211 -0.30806226 0.3700721 -0.43682852
-0.25784123 -0.2868289 -0.08062564 0.08513556 0.24778572 -0.057363044 0.12248729 -0.34548017
-0.175011 -0.26446527 -0.244791 -0.3499855 0.1703401 0.020996904 -0.11580209 -0.1610359
0.3106128 -0.55167675 -0.08465449 -0.09447955 -0.22783546 0.19798106 -0.3178522 -0.08267714
-0.2123875 -0.28083992 0.3562786 -0.04011267 -0.2535335 0.12532192 0.106072605 0.09176752
-0.04668132 -0.14284201 0.1595877 0.115629725 -0.059428204 -0.10843257 -0.41352028 0.22990245
-0.010133339 0.08138306 0.14014979 -0.47454202 0.4536058 -0.37266457 -0.17331743 0.05140138
-0.1951876 0.22787952 0.24651924 -0.10014377 -0.3292478 0.005303396 -0.023416728 0.18209055
0.25510913 0.26443347 0.17532954 0.10216624 0.25434494 -0.016391575 0.18225154 0.091829196
-0.22233593 0.24287568 -0.42315224 0.02637658 0.18461192 0.31422582 0.08487677 -0.16004401
0.24736406 -0.18849994 -0.01785061 0.3123266 -0.22470975 0.112831086 -0.18531728 0.121239126
-0.31371376 -0.21017782 -0.17631832 0.18910767 0.04060661 0.050754584 0.3328083 0.43867788
-0.15550005 -0.1819394 0.14264469 0.16641128 0.16426139 0.3095218 0.012583589 -0.2857529
0.08040508 0.19171086 -0.31824762 0.0028147625 -0.013497987 -0.1637072 -0.38382718 -0.4564537
-0.37268505 -0.20695123 -0.15561406 -0.11335496 0.018053276 -0.4446758 -0.3712054 -0.05406387
-0.14109457 -0.12217187 -0.35586548 0.09499304 0.08481385 -0.2522947 0.21512066 0.3177149
-0.051822424 0.22357158 0.026714757 -0.15457067 -0.008718107 0.39668974 0.40636533 -0.05899121
0.15028666 -0.057766788 0.085910656 -0.33503342 -0.0888666 -0.33320642 -0.07889801 -0.18182126
-0.22650212 0.21445024 -0.15145066 0.08275227 -0.06397547 0.15156208 -0.0030845413 0.1430688

y1_to_y2.weight f4 [256, 256]
00000000: 3381 b6bd adbf 9d3d 5d59 b23d a1d9 8fbc
00000010: 4763 10be fbb0 8dbd 91a2 a83d c265 a1bd
00000020: 6e20 c53d eab7 b63c 28e8 bebd 94ad 3dbd
00000030: ef29 c83b c70c bd3d ba87 99bd 9cc8 b0bd
00000040: ae64 04bd 7d96 413c c3cb 53ba 703c 50bd
00000050: ac6e 343c a7a5 e4bd 67ce 2c3d 58bd 6b3d
00000060: 9ef5 e5bc 4883 f83c ee9a 10bd c7a3 f83a
00000070: 1e83 90be 4f36 90bc cdd2 a0bd 3d65 333e
00000080: 01ab 9e3c ef53 cbbc 7c89 a6bd a659 013e
00000090: 60e3 36bd 32fa a93d 7d25 d13d d7a0 52bd
000000a0: 8901 243d 8f14 a9bc 40ea 1bbc 420d 713e
000000b0: b570 2dbd 1ad5 e33d f22b 113e 2ee7 353d
000000c0: 901d ba3d f91b d7bd 92a2 7f3d cd85 e03c
000000d0: 83b4 1abc 8800 d9bc fdc9 273e 1a52 9a3d
000000e0: e579 cc3d 267e 1cbd 5661 adbd b094 f13d
000000f0: bf89 253b 97e1 99bc 9c23 68be 7493 b1bd
00000100: 61c7 8dbc 452c 5f3c cc08 2fbe c3ae 723d
00000110: 0028 503c a637 89be b2bb e0bd b4d4 3b3d
00000120: d46e c23c 8686 87bd bfcd 45bd bfec ad3c
00000130: 099d dbbd 2347 d4bd bca9 11be d17d 82bd
00000140: 1de8 86bd 353d fabd 16c2 4d3d 6ee6 3abe
00000150: 9336 803d 6a3b b53d 69c4 88bc 2fea c3bc
00000160: cf8a a4b9 50dd 3dbe aa7b c9bd d319 3b3b
00000170: 884e 613d 3fcc c33d ace8 6abb 9885 62bd
00000180: b886 573d b844 213e 36d2 18be 04dc cf3c
00000190: 8458 3abe 8e92 1c3d 689c 56be 5753 88bd
000001a0: cec5 a8bd 1b24 9bbc 5f84 a0be 372b 233d
000001b0: 604d a9bd 690e babb c31c cebd eaa0 15bd
000001c0: 50e3 1abe f836 7e3d 0250 95bd 92f1 293e
000001d0: 93b0 acbd c72d cdbd 4fad 0cbd afe0 87bd
000001e0: 7259 24be 0777 aa3c bc49 c83d 3a2b 243d
000001f0: 27e7 10be 529b 06bd 1b31 21be d261 9d3d
00000200: faf6 e8bd 027e 2ebe 0680 06bc 5fa1 3abd
00000210: 7c73 edbb c5cf 8bbe 8384 5d3d 9823 4ebc
00000220: fb64 843c 5691 ae3d 2559 2bbd a720 b53d
00000230: f429 1bbd 72cc 36be 8438 49bc f6f2 1cbe
00000240: 52c3 30be a979 49bd 96f1 a0bd e683 51bd
00000250: 97db 0abe 12cf 32bc ad59 95bd 3636 d8bd
00000260: 7f3e f8bc 0776 3dbd a89f bcbd 2484 aebd
00000270: c3bc 143d bf3a 983d 4c75 043d 8556 babe
00000280: 23f8 eabd 8ca4 393d fbae c53b 8c2e 583c
00000290: bfaa 98bc 86a3 0b3e 4f1a bc3a 6ae4 abbc
000002a0: 7a22 b73d 0e31 38be 8608 5f3d 3573 61bd
000002b0: f8ae 953d ae86 02be e8f6 71bb f8f4 30be
000002c0: af8b c53d 23e0 0fbd 52c1 323e 9c6b ebbd
000002d0: 0e8a b1bd 6917 e73d 1a7b 2fbd cfa9 edbd
000002e0: f422 05bc d51e c03d 8875 853d 587c 63be
000002f0: 6df7 7bbd 3680 c53d 8225 63be 9a88 adbd
00000300: 2765 36bd e3e4 f23c b45f 72bd d1c9 fabd
00000310: 7110 c6bd 22cb aa3d da8f d33d bfd1 39be
00000320: 46be d03d f025 95bd 40c2 fbbd 5269 a1bd
00000330: d6f8 3abd 1551 babd a1f9 04be 03a6 4a3d
00000340: 15da 35be 2810 27be 4a03 e93c f4b5 2bbe
00000350: f973 53bd dc2e 78bd b403 863b da3b 233d
00000360: 3e30 afbd 0bab af3c 740f f4bc bc1f 0cbb
00000370: 413f 823b a530 6cbd e4f2 30be 3089 15be
00000380: 75e6 a3be 1679 0abe 638c a1bd b3a7 b13d
00000390: 4aef 2a3b 8e8c 0bba b47b cf3d 289e efbc
000003a0: 487e 063c 99be 0f3b b906 37be 609a 1a3c
000003b0: 65f4 0cbe fd0b 2bbd 3a16 03be 0c2b aebd
000003c0: 732c 77bd 122f 46bd 0695 87bd cef0 c0bd
000003d0: 991b 6fbd e894 513d 4644 963b 6332 943d
000003e0: 2eca ddbd 9b24 013e 691e 093e 1aa4 d1bd
000003f0: 7cba 613c 3582 33bd e879 083d 7878 11be
-0.089113615 0.07702575 0.08708451 -0.017559828 -0.14100371 -0.06918522 0.08234132 -0.07880737
0.09625326 0.022304494 -0.09321624 -0.046308115 0.0061085145 0.09230953 -0.07496591 -0.08632013
-0.032322578 0.011815664 -0.0008079374 -0.050838888 0.011012714 -0.11164408 0.042189028 0.05755362
-0.028071221 0.030336037 -0.035304002 0.0018969708 -0.28225034 -0.017604021 -0.07852707 0.17519088
0.01936865 -0.024820296 -0.08131692 0.12631854 -0.044650435 0.08299674 0.102122284 -0.05142292
0.040040527 -0.020639686 -0.009516299 0.23540214 -0.042343814 0.1112463 0.1417692 0.044409923
0.0908767 -0.10503382 0.0624109 0.027407551 -0.009442451 -0.026489511 0.16385646 0.07535191
0.09984187 -0.038206242 -0.08465831 0.11795938 0.0025259105 -0.018784327 -0.22669834 -0.086707026
-0.017306985 0.0136213945 -0.170932 0.059248697 0.012704849 -0.2680027 -0.109733 0.045857146
0.023734488 -0.06617455 -0.048291918 0.021231053 -0.107233115 -0.10365131 -0.14224905 -0.06371654
-0.06587241 -0.122187056 0.050233923 -0.18251964 0.06260409 0.08849223 -0.016695218 -0.023915378
-0.00031383938 -0.18541455 -0.0983804 0.0028549328 0.055006534 0.09560441 -0.003584425 -0.055303186
0.052618712 0.1574887 -0.14923939 0.025373466 -0.18197829 0.038225703 -0.20958102 -0.06656521
-0.08240853 -0.018938115 -0.3135099 0.039836135 -0.08266711 -0.0056779874 -0.100640796 -0.036530413
-0.15125775 0.06206414 -0.07290651 0.16596058 -0.08432116 -0.10018497 -0.034344967 -0.06634652
-0.16049746 0.02080871 0.09779689 0.040080287 -0.14150678 -0.03286297 -0.15741388 0.07684673
-0.11375232 -0.17040256 -0.008209234 -0.04556405 -0.007246433 -0.27306953 0.05408145 -0.012581728
0.016161432 0.085238144 -0.04183306 0.088441186 -0.037881806 -0.17851427 -0.012281541 -0.15327057
-0.17262009 -0.04918829 -0.07858579 -0.05115118 -0.1356033 -0.010913627 -0.07292495 -0.10557215
-0.030303238 -0.046255138 -0.092101395 -0.085212976 0.03631283 0.0743308 0.032338426 -0.36394134
-0.114731096 0.04532294 0.006032822 0.013194691 -0.018636106 0.13636598 0.0014351102 -0.02098294
0.08942123 -0.17987463 0.054451488 -0.05504151 0.07308763 -0.12746689 -0.003692085 -0.17280948
0.09645783 -0.035125863 0.17456558 -0.11495134 -0.0866891 0.11283762 -0.04284201 -0.11604654
-0.008126009 0.09380881 0.06516558 -0.22215402 -0.06151526 0.09643595 -0.22182277 -0.0847332
-0.04453006 0.029650157 -0.0591733 -0.12245525 -0.09671105 0.08339526 0.10330172 -0.18146418
0.10192542 -0.07282627 -0.122929096 -0.078814164 -0.045647465 -0.090974964 -0.12985851 0.049474727
-0.17758973 -0.16314757 0.028443951 -0.16768628 -0.051624272 -0.060591564 0.004089797 0.039852
-0.08554123 0.021443864 -0.029792525 -0.002138122 0.0039748256 -0.05766358 -0.17280155 -0.14603114
-0.32011762 -0.13522753 -0.07888105 0.08674564 0.0026082569 -0.00053233735 0.101310164 -0.02925022
0.008208819 0.0021933673 -0.17873658 0.00943622 -0.13765104 -0.04175948 -0.12801448 -0.08504304
-0.060345124 -0.048384733 -0.06620221 -0.0942093 -0.05837593 0.0511674 0.0045857755 0.07236173
-0.10829578 0.1261162 0.13390507 -0.10236378 0.0137773715 -0.043825347 0.033319384 -0.14206111

y1_to_y2.bias f4 [256]
00000000: d363 a7bd 8d37 c33e fdae a8be 78ca 2dbd
00000010: 25b2 0abe 1ee3 8cbd 45a4 c83e 1d2b 963e
00000020: 2ad0 c8bc 18d0 ddbc cc82 4ebd 9f7f 7dbd
00000030: f1f9 04be 87ad bf3e a64d c2bd 4cb1 24be
00000040: 6213 3cbc d361 9a3e 5225 ddbd ae17 d1bd
00000050: c08c 93bd 5cf2 e6bd 2ba6 953d df52 9dbc
00000060: f38b 3bbd d6e8 cabd b7d8 42be 93ff 903e
00000070: b646 19bd 08a5 f6bd f23e 41be be65 953e
00000080: 9777 9bbd c70e 04bd 1c65 01be 68af c8bc
00000090: 47a0 fdbd c8c9 143f 8d03 a13e 01bb 953e
000000a0: 5f0e a2bd 166f 07be d38d aabe 8f95 9bbd
000000b0: 8b53 813c c7b5 22bd 1ee5 fc3e b9b9 8dbc
000000c0: 7e19 a4bd c0b3 fdbd 9ea2 b93e abe1 593c
000000d0: 4ede c33e 39a6 0a3e deaa 5ebd 2299 db3e
000000e0: c59e 383e 0e20 f2bd 3e79 2fbd 648d e73e
000000f0: 2937 d73e 200a dc3d b49e bdbe 8c4a cbbd
00000100: f87e 163d 433e 2c3d 6d88 9bbd 4f09 c6bd
00000110: b7d1 24be 6c15 453d 4b19 3ebd bee2 07be
00000120: 049f e4bd b470 80bd b5bf 04be 1258 c3be
00000130: 4030 d9bd b7f0 d2bd cce1 853e ddbf 2ebe
00000140: ff8b 9ebd 975a 9fbc d625 8bbd 1423 f6bd
00000150: a51b 6bbd fed5 d2bd 205f 29bd 5511 17bd
00000160: 2bfb 81bd 7267 9ebd 118c 373e 568a 203e
00000170: b568 56bc d0b5 513e 60d3 8dbd cf25 51be
00000180: 4cab f03e f0fd e6bd 1488 c2bd c495 07bd
00000190: 52b9 0a3e 7c30 ae3b 6566 4f3e d215 aabd
000001a0: b6ea ab3e f8f4 8e3e 6f98 9fbd 5e6f b8bd
000001b0: 77f3 773e e8e3 c83e 082b a8bd 532a 74bd
000001c0: 5820 6f3d 4f89 f03e 6da2 e6bd c285 b03d
000001d0: 57d9 3bbd eaac 9dbd 748e 1fbe f100 103f
000001e0: 435e 1ebe 81d5 e6bc fdaf debd 41c1 66bc
000001f0: b77b 883e bce1 fabd f83f 60be 7c2e 53be
00000200: ccf5 7fbd 3ea8 20bb 192f 0c3d 0246 dfbd
00000210: d836 213c dd8b d9bd a52a 5b3d cef7 93bd
00000220: 8e0d a2bd 1927 023e 36db febd 3f0f 3c3e
00000230: b378 17be d3a4 0a3e 0eb6 e4bd 4767 a13c
00000240: cf52 13be f223 ec3d 4b26 89bd 0703 94bd
00000250: 828a d1bd 72e2 533e 2e44 bb3e 27df 04be
00000260: 052b eebd 50d4 7bbd c7ca 0dbe 7ab0 09be
00000270: fd72 15bd ad24 5abd 46f6 25be 0074 b7bd
00000280: 4b60 003e de8b 993d 4a9b 0bbe 2b3c 803e
00000290: f260 59be 2f39 debc a14f b93e d95c 81bd
000002a0: a6a1 e83d 1525 34bd 0cd0 193e 490f 303d
000002b0: cc6d d23e 79c4 e03d 5c99 1a3f b8ca 2fbd
000002c0: 38ac 133f 299b c1bd eaf6 cdbd 760f f8bd
000002d0: 166d 00be 8215 4bbe cb45 02be 8428 e23b
000002e0: 1fdf e7bd 7265 2fbd 938f 1c3e 1c81 86be
000002f0: 435f 873c eb51 d53e 1d90 053d cd30 003f
00000300: 4dbf 0fbd 5267 dc3e 35bf 7c3e 3c9c 053d
00000310: 633c 87be 5804 ccbd 04fa 30bd a4cc 9cbd
00000320: 0dd8 efbd b49f 673e a77e 58bd eb59 de3d
00000330: e6bf a13e f29f 12be 824f 473e 39d9 aabe
00000340: 2baf a7bd d1b1 e6bd d12e d5bd 301b bbbc
00000350: 0eea 0cbe 7049 9a3d 3181 65bc 888d adbd
00000360: 35c5 81bc 4798 613e 75ab 2abe 8158 433e
00000370: 9ee5 82bd ee5f d03e 426c 083e b281 3abd
00000380: 246c 133e 948c 7dbd 947e a93e 2d01 84bc
00000390: d7f9 3dbc ccc2 20bd 6ada 943d 063f 67be
000003a0: 9d0e 64bd 9d11 743d 52e7 7bbd ef25 bbbd
000003b0: 725f abbd afde 09be b923 1bbe 0b1b b83e
000003c0: f826 82bd 4955 1cbe 0c2f 46be c20e abbd
000003d0: 2a4b d1bd a027 debc 1e56 0f3f 7349 0ebe
000003e0: 7fa3 ecbe c4f0 fb3e 9b60 9abd 7524 70bc
000003f0: 2ea6 383d 6bd8 87bd e672 043f 0701 163e
-0.08173337 0.3812832 -0.32946005 -0.042429417 -0.13544519 -0.06879257 0.39187828 0.29329768
-0.024513323 -0.027076766 -0.050417706 -0.061889287 -0.1298597 0.37437078 -0.094874665 -0.16083258
-0.011479231 0.3015276 -0.10798134 -0.10209595 -0.0720458 -0.11276695 0.07307085 -0.019204555
-0.045787763 -0.09907691 -0.19027983 0.28319988 -0.03742095 -0.12043196 -0.18871668 0.29179186
-0.07591169 -0.032240655 -0.12636226 -0.024497703 -0.12384086 0.58120394 0.31448022 0.29244235
-0.07912897 -0.1322597 -0.33311328 -0.075968854 0.015786907 -0.039724138 0.49393553 -0.017300474
-0.08012675 -0.123878 0.3625688 0.013298432 0.38255543 0.13539971 -0.05436217 0.4289027
0.18029316 -0.1182252 -0.042840235 0.4522506 0.4203427 0.10744119 -0.37035143 -0.09926328
0.03674218 0.042051565 -0.075943805 -0.09669744 -0.16095625 0.048116133 -0.04641084 -0.13270089
-0.11163142 -0.062714964 -0.12963755 -0.3815313 -0.10604906 -0.10299819 0.26148832 -0.17065378
-0.07741546 -0.019452376 -0.06794326 -0.12018409 -0.05739941 -0.10294722 -0.041350484 -0.036881763
-0.063467346 -0.077345744 0.17924525 0.15677771 -0.013086488 0.20479512 -0.06925082 -0.20424579
0.4700569 -0.112789035 -0.09498611 -0.033101812 0.13547257 0.0053158384 0.20253904 -0.08304943
0.33577508 0.2792127 -0.07792746 -0.090056166 0.24213968 0.3923638 -0.082113326 -0.059610676
0.058380455 0.46979758 -0.11261449 0.08619262 -0.04586157 -0.07698996 -0.15581685 0.56251436
-0.15465645 -0.028177978 -0.10873411 -0.014084161 0.26656887 -0.12250087 -0.21899402 -0.20623201
-0.06249027 -0.0024514343 0.034224603 -0.10902025 0.009839736 -0.1062238 0.053507466 -0.07224999
-0.079127416 0.12710227 -0.12444155 0.18365191 -0.14792137 0.13539438 -0.11167537 0.019702567
-0.14387058 0.115302935 -0.06696757 -0.0722714 -0.102314964 0.20691851 0.36575454 -0.12975751
-0.11629299 -0.061481774 -0.13846885 -0.13446227 -0.036486614 -0.053257633 -0.16207227 -0.08957672
0.12536733 0.07497381 -0.13633457 0.25045905 -0.21228388 -0.027126877 0.36193565 -0.063165374
0.11358957 -0.043980677 0.1502077 0.042983327 0.41099393 0.10974974 0.6039026 -0.042917937
0.5768466 -0.094534226 -0.10056861 -0.12112324 -0.12541613 -0.19832423 -0.12721936 0.0069018025
-0.11321854 -0.042821355 0.15289144 -0.26270378 0.016524917 0.4166406 0.03260814 0.50074464
-0.035094548 0.43047577 0.24682315 0.0326197 -0.2641326 -0.09961766 -0.043207183 -0.076562196
-0.1171113 0.22619516 -0.05285516 0.10856994 0.3159172 -0.14318827 0.19463924 -0.33368853
-0.081877075 -0.112643845 -0.1040932 -0.022840112 -0.1376116 0.07533538 -0.014007852 -0.084742606
-0.015841106 0.22030745 -0.16666968 0.1907673 -0.06391452 0.4069819 0.13322547 -0.045533843
0.14396721 -0.061901644 0.33104384 -0.016113842 -0.011595211 -0.039248273 0.07268222 -0.22582635
-0.055678 0.05958711 -0.0614999 -0.09138095 -0.08367814 -0.13463853 -0.15150346 0.35958132
-0.06355089 -0.15266909 -0.19353884 -0.08352424 -0.102194145 -0.027118504 0.5599078 -0.13895206
-0.46218488 0.49207127 -0.07537957 -0.0146571295 0.045080356 -0.06633075 0.5173782 0.1464883

out.weight f4 [2, 256]
00000000: 0358 073e 452f 0e3d 932c 42be 47ac 95bc
00000010: ebde 0e3f 80fa 56bc c31a 7c3e 2cb8 c9be
00000020: 5eac 8a3d 32f0 4cbf 97b1 3fbc b9fb c1bc
00000030: 62a6 db3d e351 88bf e146 423f f266 03be
00000040: 99b7 023f a2b8 5f3f aa67 5a3e b311 b2be
00000050: 5800 68bf 59aa 0cbd 7361 23bb 0a6c 263e
00000060: daae b43c 898e d8bc 57d0 c23e 4d47 a63e
00000070: 2dd7 c03c bebf aa3d 8e00 d83e 1331 b83e
00000080: 0d2d fcbc 5285 a03c 3c55 023c 3e4e a2bc
00000090: 52f6 053e 53b1 973f a8d8 26be a632 213c
000000a0: 10ae c73c 80e7 8b3c 1a23 5a3f 78a0 ba3d
000000b0: 0e6c 82bd 5df6 2cbe 310b f8be 8ca7 153e
000000c0: e392 b63d 9b4d 993c 9730 8a3f 6b12 0fbd
000000d0: 94a6 b23f 4e64 20be c6fc 083d 7b78 ac3f
000000e0: e755 74be 07ff cf3c 3b60 42be 911f 1cbf
000000f0: 6bd6 433e cfa6 87bf 1bec 9d3f 66fb 083e
00000100: 3050 26bf 2f3e 853f 2731 c03d 0156 e53d
00000110: a173 a4be e50c 30be 3b5c bbbc d793 8bbc
00000120: 0451 e43d 7fb1 a4bd c080 f23d 8a2a e9be
00000130: 6027 3d3d b2eb 9dbd c797 12bf 4c30 693f
00000140: 4783 053d 750f 36be 0f64 9cb9 1e6e 903f
00000150: 2639 a2bb 243a 5b3c d6eb e13d 335a 0dbe
00000160: 9b9c 8e3e 3012 633d c54d 2d3f c7fb 57bf
00000170: d34f d6bd afa0 86be 5068 433d 291e 0dbf
00000180: 7fbe c4bf 62ed f7bc b804 c7bd 5480 893d
00000190: a44f 2b3f caaa 97bd a350 e5bc 5f70 c83d
000001a0: 4d6a de3e 5159 ab3e 2dbf b5bd 792f ce3d
000001b0: 6c09 5fbf 870c de3e 6793 cabc 055f a5bc
000001c0: 14c2 113f 4193 813f 9945 f8bd a0d4 a03f
000001d0: f900 94be 12aa f43d 0772 703b 667b 02c0
000001e0: a4da 8b3d 2d0f 2abd 99a7 003d c708 81bd
000001f0: cf98 e33e 2669 843d 0d65 dcbd 7c7f 573f
00000200: ce90 9ebe eac0 2a3d ac18 23bd 4f65 033c
00000210: 3555 413c 6aa3 b63d e8dd 6dbf 3367 8ebc
00000220: 8fd5 293d 6069 b53f 856c 943c cb5d be3e
00000230: 2e6e 043d d482 1f3f da71 573e e3b9 5d3e
00000240: faf6 113f 2dd7 2a3f 4d4e f53c 665f 8e3d
00000250: a7b8 42bd a128 783f 4bef e53e 9486 a7bc
00000260: 1dde 623c 32d3 47bd 2c33 7c3b 740e 443f
00000270: 5c0d cb3d 9679 ee3d 500d cc3d 6bb5 6dbe
00000280: 460e d53e 2ce3 203f 246a b33d dd00 9d3e
00000290: 4711 e8be a093 21bd 0b4c 50bf e702 343d
000002a0: 60fd 5abe 91bd 10bd c0c6 5fbe d7d5 0dbe
000002b0: 34ab 82bd 8261 34be 0ed6 6a3c a3ec d73c
000002c0: 21ae f13e 9571 fd3c 42e6 133d 6813 de3d
000002d0: 22f8 6f3d 9317 343f 1e9f 87bd c9b4 8abf
000002e0: 579a babe fdde 9cbe 15a9 0d3f 4798 203f
000002f0: 7559 153e a1a2 a0bd fe00 a13d d3d1 45bd
00000300: 1dcb 723d 11b9 0e3e 2e37 913f a9b9 8b3d
00000310: c3f7 1c3e dfed 4c3d 7283 083e 70d4 dfba
00000320: c30e 3bbd b571 983e 5098 873d 5d40 133f
00000330: 7620 a9bd b53c a93d bd29 513f 370c 053e
00000340: 91dd 88be 0bdc 1b3f 925b 403e 7fda b7bc
00000350: dd0e bc3d b7f4 ebbe dc7f 17be ab65 8dbe
00000360: f40e 003f 6d79 8a3e cb6d e1be 86ff 043f
00000370: d7e4 483e 918c 6c3e 7ede b83e 7a6e 083e
00000380: dad2 e3be d550 19bc c66a 083d 212c dabc
00000390: bf1f 333d 37d4 0b3e 0571 a6bd 8151 b5be
000003a0: d225 293d 397a 873e a301 0b3e 399d 9b3d
000003b0: 4688 bb3d 4010 2e3e 6d61 eebd 6179 bcbf
000003c0: 7412 11bd 1a2b fb3d 6723 343f d783 9cbd
000003d0: a3b7 adbc 7959 2fbe 16dc f03c 95c2 87bd
000003e0: 752f 643e 03ec 023f 44e1 5c3d 5cc8 c33d
000003f0: d855 b63d 302a 00be 41c6 f83d 417f 07be
0.13217168 0.03471305 -0.18962316 -0.018270625 0.55808896 -0.013121247 0.24619584 -0.39398324
0.06771158 -0.8005401 -0.011700056 -0.023679601 0.107250944 -1.064999 0.758894 -0.1283224
0.510614 0.873911 0.21328607 -0.34779128 -0.90625525 -0.034342144 -0.002492991 0.16252151
0.022056032 -0.026435154 0.38049576 0.32476273 0.023540104 0.08337353 0.42187923 0.3597494
-0.0307832 0.019594822 0.007954892 -0.0198127 0.13082245 1.185099 -0.16293585 0.009838736
0.024374992 0.017078161 0.8520981 0.09112638 -0.06368266 -0.16890855 -0.48446038 0.14614695
0.08914735 0.018713763 1.0796078 -0.034929674 1.3957086 -0.15663263 0.03344419 1.3474268
-0.23860894 0.025390161 -0.18982022 -0.60985667 0.19124763 -1.0597781 1.2337679 0.13377151
-0.64966106 1.0409602 0.09384375 0.111980446 -0.32119468 -0.17192419 -0.022871127 -0.017038269
0.11148265 -0.08041667 0.11840963 -0.45540267 0.04618013 -0.07710971 -0.57262844 0.9108932
0.0325959 -0.17779334 -0.00029829188 1.1283605 -0.0049506603 0.013380561 0.1103131 -0.1380394
0.27853855 0.055437267 0.6769679 -0.84368557 -0.10464444 -0.26294467 0.047706902 -0.55124146
-1.5370635 -0.03026456 -0.09717697 0.0671393 0.66918397 -0.07405622 -0.027992552 0.09787058
0.43440476 0.3346658 -0.088743545 0.100676484 -0.8712375 0.43368933 -0.02472849 -0.02018691
0.56936765 1.0123063 -0.1212265 1.2564888 -0.28906992 0.11946501 0.003668906 -2.0387816
0.06828812 -0.04151838 0.031409834 -0.06300502 0.4445252 0.06465368 -0.107614614 0.841789
-0.30969852 0.041687883 -0.03981845 0.008019759 0.0118001 0.089178875 -0.9291673 -0.017383194
0.04146343 1.4172783 0.018118152 0.37180933 0.032331638 0.62309 0.21039525 0.21652941
0.5701748 0.6673458 0.029944563 0.069517896 -0.04753938 0.96936995 0.4490913 -0.020449914
0.013846901 -0.048785396 0.003848265 0.76584554 0.099146575 0.116442844 0.09963477 -0.23213737
0.41612452 0.62846637 0.08760479 0.3066472 -0.45325682 -0.039447427 -0.8136603 0.04394808
-0.21385717 -0.035337035 -0.21853161 -0.13851105 -0.06380311 -0.17615321 0.014333261 0.026357954
0.47203162 0.03093795 0.036108263 0.10843545 0.058586247 0.7034847 -0.06622146 -1.0836421
-0.36445877 -0.30638877 0.55336124 0.62732357 0.14584906 -0.07843519 0.07861517 -0.048295807
0.059275735 0.13937785 1.1344965 0.06822521 0.15328889 0.05003154 0.13331392 -0.0017076861
-0.045668375 0.29774252 0.06620848 0.57520086 -0.082581446 0.08263532 0.8170431 0.12992941
-0.26731542 0.60882634 0.18784931 -0.022443054 0.091825224 -0.4608514 -0.14794868 -0.2761663
0.50022817 0.27045766 -0.44029078 0.519524 0.19618545 0.23100497 0.36107248 0.13323393
-0.44496804 -0.009357651 0.033304952 -0.02663237 0.043731447 0.13655172 -0.081270255 -0.35413745
0.041295834 0.26460436 0.13574843 0.07598347 0.091568515 0.16998386 -0.11639676 -1.4724542
-0.03541799 0.1226408 0.7036652 -0.07642334 -0.021205729 -0.17123975 0.02940182 -0.066289105
0.22283728 0.51141375 0.053925768 0.095597 0.08903092 -0.12516093 0.12147189 -0.13232137

out.bias f4 [2]
00000000: 1405 69be fd70 b3bd
-0.22755843 -0.08761785

std_out.weight f4 [2, 256]
00000000: da0f 143e d73a 603d 551a 11bd 7379 e63c
00000010: ccf5 d6bd 186b a7bd c985 84bc cc53 fc3d
00000020: cbe9 3f3d b563 d63e f5f4 86bb cd36 233d
00000030: decd 003f 0dfa 3f3d 425b 33bd 4f1a 763d
00000040: f7c2 e43d 32d7 263d b423 5b3d 5e35 2fbd
00000050: a7f2 d93d ca59 0a3c a361 44be 9ba7 ffbc
00000060: a6d3 01be c52b 3fbd 415c cebc 4e66 0ebb
00000070: f8fe d2bd 256c 793d 85a1 5a3c 3629 45be
00000080: 5045 b1bc 49c3 883c 6167 a23d f1de 10be
00000090: f5aa 4c3e e991 aabe 83a4 303d 08c0 b239
000000a0: b550 62bd 416a 88bd 02c3 c6bd 7814 d33d
000000b0: 455b a8bd a40a bf3b 50b4 36be 530c 013e
000000c0: cc79 d23d 1fb5 8b3e d34a 7ebe 134e c93d
000000d0: 1bb7 60bd e235 37bd adba 83bd 5e40 093d
000000e0: c2f7 bc3d a82a 95bc 3475 a53d 8d5d 363e
000000f0: eecd 14bf 8b55 8e3d 4029 a33d 73a8 c13b
00000100: 4b17 eebc f3ce 20bd faf9 d53d 4291 4ebd
00000110: 4f48 af3c ae16 7b3b f3e0 353d a618 98bd
00000120: 60a2 d83c bb1b 61bc 8b8a 9dbd b470 17bd
00000130: 04c4 843c 5aad 84bc 277b 65bd 8d6f 1e3f
00000140: d5b5 9abd 7dca 89be 7cf4 573c 2eb1 2c3d
00000150: d25c c03d e61d 1abe f689 96bd 411d 21bd
00000160: 4068 c3bd 44d9 9e3d ab63 aa3c 8bc4 283d
00000170: d23a d9bb 6293 133e fa8a 973d 725f 1d3e
00000180: 919d 62be b1fc dbbd 3c28 42bd c88a 213c
00000190: 1f3b 9a3d 4846 b03c 5be6 86be 31f3 48bc
000001a0: a627 043c b49c 9e3b 67de 1a3e a8fd 803d
000001b0: 9e70 863e b099 9bbd 6d0a f8bc 977d bc3d
000001c0: 4633 f83d f610 4d3e e160 36bd 57a4 36bd
000001d0: 11a3 26be 6506 0cbd f050 ad3d 3a86 11be
000001e0: b21c 32bc 1faa 64bd 9c9f dabd fb60 693c
000001f0: f087 afbe 7229 85bd aafa 86bd 4d8d 0ebd
00000200: 29ae 903e 83b2 c83d 83f0 b03d 59db a9bd
00000210: 04ca 52be a897 033e 34a0 923e b3b0 9a3d
00000220: a755 8c3c 124f e13d edce 7fbb 2da3 d33c
00000230: 534f c2bc 79b8 d8bd 2d09 783d 1a4b 1b3d
00000240: 005a 45bd 6e9e 8d3e 709b 403d b309 f3bd
00000250: f97b 123c b1b4 7a3e 68e0 e0bd 29e2 413d
00000260: 1862 2e3c 643f b7bd 4c87 c5bd 0f0d 063d
00000270: af71 bc3d c0b0 df3d f37a c53c 71a8 1abe
00000280: 56f8 cbbd a52c 47be 08e5 25bd ca78 be3e
00000290: e9f7 6c3d 9aa7 413c f640 b83d 9571 d83d
000002a0: 4011 bb3d 2a5a 353e 9c5e c4bc 8aee 8cbd
000002b0: c24e a2be 5523 c9bb e519 f1bd 2364 173e
000002c0: f5c1 66bf bd41 b5bd d48d 06bd 83ff 01bd
000002d0: 12c2 7cbd 5332 2cbd dfe8 083d 7069 49bb
000002e0: 62de 61bb f0f4 bf3a aa65 82be d75f d03e
000002f0: 7169 79bc ffcc 9dbd 83f3 d83c ab2b f4be
00000300: 6062 ab3d 12a2 2bbe c9e1 243e 6d38 233d
00000310: 3f80 51b9 303c ed3c 0a6b 6dbd 739c 1f3d
00000320: 4b2c e33c 922b 2c3e ecc9 9dbd 4cab 95bd
00000330: d54e 603b 8d55 35bd 0631 e23d 57fe 3bbd
00000340: 8c5c a9bd 50d4 63bd c3c6 c6bd 8916 b33d
00000350: 1af9 20bd 5c78 5dbe 645d 87bd dcaa ad3d
00000360: 4b8e 08bd 14c8 453e 96b9 92bd 11d4 89bc
00000370: b207 93bd 2228 4cbe 6533 1b3e a461 5abe
00000380: fcb9 db3d 4b1e a83d d100 a0be 796d 2bbe
00000390: fbd3 143e 72f7 82bd 1824 63be 73b0 3bbe
000003a0: 61e0 f93d e1fe 663d c397 9cbd e585 2abc
000003b0: 24c9 5d3d 153f 623d 9f33 44bd 3fe8 f43c
000003c0: 6133 2bbb 0196 f8bc a2a1 60be 485f 14bd
000003d0: 1414 f93d d18b c93d ba21 823c 550d 20bd
000003e0: 405d 5bbe 61cc bcbc 8dfa 44bd eac7 97bd
000003f0: daa9 d9be 0c43 a53d 60ce 99be 3dce 5d3c
0.14459172 0.054743614 -0.035425503 0.028134083 -0.10496101 -0.081747234 -0.016177075 0.123206705
0.04685382 0.41872945 -0.0041185566 0.039847184 0.5031413 0.046869326 -0.043788202 0.060083684
0.11169999 0.04073257 0.053500846 -0.042775504 0.106419854 0.008444259 -0.1917787 -0.03120785
-0.12678394 -0.0466726 -0.025190474 -0.0021728459 -0.10302538 0.06089415 0.013344173 -0.19254002
-0.021639496 0.016694682 0.07929874 -0.14147545 0.1998709 -0.33314446 0.04312564 0.0003409388
-0.05525275 -0.06660891 -0.097051635 0.103066385 -0.08220533 0.005830126 -0.17842221 0.12602358
0.10277137 0.27286622 -0.2483323 0.098293446 -0.054862123 -0.04472912 -0.0643209 0.03350865
0.092269436 -0.018208817 0.08078995 0.17809124 -0.58126724 0.0694991 0.07966852 0.0059099733
-0.029063841 -0.039259862 0.1044807 -0.050431497 0.021396784 0.0038313079 0.04440398 -0.07426576
0.026444614 -0.013739522 -0.076924406 -0.036972716 0.016206749 -0.016195942 -0.05602565 0.61888963
-0.07554213 -0.269123 0.013180848 0.04216116 0.09392704 -0.15050468 -0.07350533 -0.03933454
-0.095413685 0.07756284 0.020799479 0.041203063 -0.0066293264 0.14411691 0.073995546 0.15368441
-0.2213042 -0.107415564 -0.04740165 0.009859748 0.07530808 0.021517888 -0.26347622 -0.012265013
0.008066094 0.004840458 0.15123902 0.06298381 0.26257795 -0.07597673 -0.030278409 0.09203642
0.12119155 0.20026001 -0.044525985 -0.04459032 -0.16273142 -0.034185786 0.08462703 -0.1421136
-0.010871099 -0.055826303 -0.10674974 0.014244313 -0.342834 -0.06502046 -0.06590779 -0.034802724
0.28257874 0.097996734 0.08639624 -0.0829379 -0.20584875 0.12850821 0.2863785 0.07553234
0.017130686 0.110014096 -0.003903325 0.025834644 -0.023719465 -0.1058206 0.060555626 0.03791342
-0.048181534 0.27659935 0.047023237 -0.11867084 0.00894069 0.24482991 -0.10980302 0.047334824
0.010643505 -0.08947638 -0.096449465 0.032727297 0.09201371 0.10922384 0.024106478 -0.15103318
-0.09959476 -0.19450624 -0.040501624 0.3720153 0.057853613 0.0118197445 0.08996765 0.10568539
0.091341496 0.17710176 -0.023970895 -0.06881435 -0.31700712 -0.006138245 -0.11772517 0.14784293
-0.90139705 -0.08850429 -0.0328501 -0.031737816 -0.061708517 -0.04204018 0.03342521 -0.0030733012
-0.0034464826 0.0014645141 -0.2546819 0.4069812 -0.015222893 -0.077051155 0.026483303 -0.47689566
0.08368373 -0.16761044 0.16101755 0.039848734 -0.00019979569 0.028959364 -0.05796341 0.03896756
0.027731081 0.16813496 -0.07704529 -0.07308063 0.0034226675 -0.04427104 0.11044507 -0.045896854
-0.08269605 -0.0556224 -0.097058795 0.087445326 -0.03930006 -0.21627945 -0.0660961 0.084798545
-0.033338826 0.19314605 -0.07164304 -0.016824754 -0.07179202 -0.19937184 0.15156324 -0.2132631
0.10728833 0.08208903 -0.31250623 -0.16740979 0.14533989 -0.06394853 -0.22181737 -0.18329029
0.12201 0.056395415 -0.07646134 -0.0104078995 0.0541469 0.05523594 -0.047900792 0.0298959
-0.0026123154 -0.030344965 -0.21936658 -0.03622368 0.12162033 0.09841121 0.015885223 -0.039075214
-0.21422291 -0.023046674 -0.048090506 -0.074111775 -0.425124 0.08069429 -0.30040264 0.013537941

std_out.bias f4 [2]
00000000: fc3a edbe 31e0 1dbf
-0.46334064 -0.61670214

exp_avg f4 [256, 7]
00000000: ae9f 4e3b eef8 d03a 0783 c83b 7133 9e3a
00000010: 3371 143b dc23 713a 3293 e43b 0400 0000
00000020: 0400 0080 0400 0000 0400 0000 0400 0000
00000030: 0400 0080 0400 0000 f030 e5bb 695e 80bb
00000040: 7cbd 45bc 09f1 c8bb f5d9 b6bb 342b 94bb
00000050: 91f2 33bc b5dc 113d 9131 253d be70 9a3d
00000060: 8acb 233d d49c 463d a27b 263d 3f97 9f3d
00000070: 12d7 053a f81a b23a 424d 2bba 9591 c6b9
00000080: f74c 8239 55e1 953a 68be 1a39 ced8 9d39
00000090: 6b38 9e3a 2529 0bb9 0b12 dab9 6210 cf39
000000a0: bc64 6a3a de66 c0b8 0400 0080 0400 0080
000000b0: 0400 0000 0400 0000 0400 0080 0400 0080
000000c0: 0400 0000 0400 0080 0400 0080 0400 0000
000000d0: 0400 0000 0400 0080 0400 0000 0400 0000
000000e0: 80f0 233a b892 b039 42fd 183b 2ffb ca3a
000000f0: bc35 4c3a 9518 a93a 9889 623a f266 46bb
00000100: 2cfd aaba cd3e bbbb 36aa 1ebb 6e49 14bb
00000110: bcc4 00bb 6bfd 8cbb 5440 02ba 094f b0b9
00000120: b1c5 7ab9 21de 90b9 43fe efb9 5acd 95b9
00000130: 592d d8b9 7a3a 34bb c095 19bb 9ec9 acbb
00000140: c1ac b3b9 92bd 6cbb 53d5 31bb 908f b3bb
00000150: 6933 a3ba 3b24 30bb c656 163a ab11 ab3a
00000160: 3398 90ba 08fa 10bb 95b3 163a 0400 0080
00000170: 0400 0080 0400 0000 0400 0000 0400 0080
00000180: 0400 0080 0400 0000 0400 0080 0400 0000
00000190: 0400 0000 0400 0000 0400 0080 0400 0000
000001a0: 0400 0000 0e36 dfbb 6b24 e8bb 5445 52bc
000001b0: 29ef a5bb 7253 01bc 06a7 f2bb 62ac 30bc
000001c0: 5e85 9839 d659 0eb9 6dce 653a 3664 aeb9
000001d0: ecb5 e0b8 903c c836 e84f 9439 b4e4 9dba
000001e0: 0093 deba 103e ceba e020 783b 0a4e 3cbb
000001f0: 5084 46ba c4e9 67bb e062 d6ba 2e8a 46bb
00000200: 9065 20b8 df31 2e3a 005f a8ba 24dd 31bb
00000210: 1b71 9439 584d 23ba f863 1b3b 40cd df39
00000220: 38eb 00ba b410 723a 03c6 073b 4041 bdba
00000230: 0000 0000 0000 0000 0000 0000 0000 0000
00000240: 0000 0000 0000 0000 0000 0000 b8b6 2a3a
00000250: bb68 a93a 8416 0a38 164c 04b9 7e46 ee39
00000260: 8553 983a 2afd 9db8 0400 0080 0400 0080
00000270: 0400 0000 0400 0000 0400 0000 0400 0000
00000280: 0400 0000 a450 5c3a 9970 503a e33b 9cb9
00000290: f633 20b9 b8ea cd39 dee6 3f3a 5034 e8b8
000002a0: f6ab 0fba 8eb8 a2ba 8157 4d39 3e76 4f39
000002b0: a874 ccb9 b000 8cba 8cc6 3739 0400 0000
000002c0: 0400 0000 0400 0000 0400 0080 0400 0000
000002d0: 0400 0080 0400 0000 1a82 0300 ecae 0100
000002e0: 1205 0400 e5ac 0000 094f 0300 6f2c 0200
000002f0: 9db8 0300 5355 37ba a2a0 03bb 5028 4fb8
00000300: f915 013a 33ab d1b9 4b59 e7ba f718 8d39
00000310: 81d9 34ba 7efb 80ba e047 a7b8 0309 c739
00000320: 15c7 39ba 30aa 82ba a972 aa39 0400 0080
00000330: 0400 0080 0400 0000 0400 0000 0400 0080
00000340: 0400 0080 0400 0000 0400 0000 0400 0080
00000350: 0400 0000 0400 0000 0400 0000 0400 0000
00000360: 0400 0000 b65d 9c39 5a6a 9f39 3cf7 c439
00000370: f512 093a 62a7 95b9 c8a8 8939 8258 1b3a
00000380: 41d8 153b b49f 4a3a 80cc a73a 4098 28ba
00000390: 142f 193b a46d 9f3a faf8 243b 31b4 94ba
000003a0: 5829 ffba 4e03 123a a758 8e3a 42ba 81ba
000003b0: d493 e3ba c725 0b3a 256d 133a 72aa 04ba
000003c0: a7e1 fc3a eb9e bd3a 7480 b939 604d d1b8
000003d0: 88dc b03a 8cf8 443b a68c 243b 9ec8 db3b
000003e0: 6494 f63a 1010 5a3b 9818 1a3b 4e69 0a3c
000003f0: 6aaa 94b9 9a6e 4dba f47d 5439 016e d938
0.0031528282 0.0015943327 0.0061191353 0.0012069774 0.002265048 0.0009198764 0.006975555 6e-45
-6e-45 6e-45 6e-45 6e-45 -6e-45 6e-45 -0.006994359 -0.0039175046
-0.012069102 -0.0061322493 -0.0055801817 -0.004521752 -0.010983125 0.035610873 0.040330473 0.07541035
0.03998903 0.048489407 0.04064525 0.0779252 0.00051055953 0.001358836 -0.00065346446 -0.0003787397
0.00024852876 0.0011434952 0.00014757516 0.00030106906 0.0012071257 -0.000132714 -0.00041593643 0.00039494323
0.0008941402 -9.174434e-05 -6e-45 -6e-45 6e-45 6e-45 -6e-45 -6e-45
6e-45 -6e-45 -6e-45 6e-45 6e-45 -6e-45 6e-45 6e-45
0.0006253794 0.0003367865 0.0023344313 0.0015486235 0.00077899895 0.0012901003 0.0008641719 -0.0030273763
-0.0013045422 -0.0057142735 -0.002421034 -0.0022626775 -0.0019648513 -0.0043026707 -0.0004968692 -0.00033628222
-0.00023915504 -0.0002763132 -0.00045775072 -0.00028572493 -0.00041232517 -0.0027500675 -0.0023435205 -0.005273058
-0.00034270252 -0.0036123735 -0.0027135208 -0.0054797605 -0.0012451235 -0.0026877064 0.0005734976 0.001305153
-0.0011031687 -0.0022121686 0.00057488057 -6e-45 -6e-45 6e-45 6e-45 -6e-45
-6e-45 6e-45 -6e-45 6e-45 6e-45 6e-45 -6e-45 6e-45
6e-45 -0.0068118637 -0.0070844195 -0.012833912 -0.0050639105 -0.00789343 -0.0074051647 -0.010783287
0.00029091066 -0.00013575642 0.00087664166 -0.0003326253 -0.00010715038 5.967515e-06 0.00028288295 -0.0012046308
-0.0016981065 -0.0015735049 0.0037861392 -0.0028733038 -0.00075728167 -0.0035387138 -0.0016356371 -0.0030294764
-3.824156e-05 0.00066450046 -0.0012845695 -0.0027139867 0.0002831303 -0.00062294817 0.002371071 0.00042686798
-0.0004917863 0.00092340563 0.002071739 -0.0014439002 0.0 0.0 0.0 0.0
0.0 0.0 0.0 0.00065122126 0.0012924889 3.2922733e-05 -0.00012616845 0.00045447418
0.001162157 -7.533499e-05 -6e-45 -6e-45 6e-45 6e-45 6e-45 6e-45
6e-45 0.00084043504 0.00079513487 -0.00029799258 -0.00015278146 0.00039275526 0.00073204737 -0.00011072366
-0.0005480641 -0.0012414621 0.00019582921 0.00019785107 -0.00038996828 -0.0010681357 0.00017526204 6e-45
6e-45 6e-45 -6e-45 6e-45 -6e-45 6e-45 3.22178e-40 1.54586e-40
3.69161e-40 6.2023e-41 3.03859e-40 1.99611e-40 3.41733e-40 -0.00069936103 -0.0020084758 -4.939019e-05
0.00049242337 -0.0003999114 -0.0017650513 0.00026912216 -0.00068988657 -0.0009840576 -7.976568e-05 0.00037962952
-0.00070868555 -0.0009968933 0.00032510355 -6e-45 -6e-45 6e-45 6e-45 -6e-45
-6e-45 6e-45 6e-45 -6e-45 6e-45 6e-45 6e-45 6e-45
6e-45 0.0002982446 0.0003040608 0.00037568237 0.000522896 -0.00028544205 0.00026256428 0.00059259695
0.0022864493 0.0007729486 0.0012802035 -0.00064313784 0.0023374008 0.0012163413 0.0025172816 -0.0011345205
-0.0019467277 0.00055699504 0.0010860161 -0.0009897428 -0.0017362782 0.00053080585 0.0005623869 -0.0005060799
0.0019293324 0.0014466917 0.00035381655 -9.980309e-05 0.0013493458 0.0030055372 0.0025108247 0.006707265
0.0018812534 0.0033273734 0.0023513194 0.008447958 -0.00028355728 -0.00078366103 0.00020264817 0.00010367856
