Multi-UAVs path planning/path planning/Path_DDPG_actor_1_new.pth (torch, 22511 bytes, 18 tensors)

in_to_y1.weight f4 [50, 7]
0	0x400c66e8	2.193781
1	0x3f602d56	0.8756918
2	0x3f1ad76f	0.60484976
3	0xbe060c0b	-0.13090532
4	0xbf1ebf3c	-0.6201055
5	0xbfc52e7c	-1.5404811
6	0x3c38cc68	0.011279203
7	0x3f17b746	0.5926403
8	0x3e25fa06	0.16208658
9	0x3f922eee	1.1420572
10	0x3ec8f353	0.39248142
11	0xbfa39c5b	-1.2782091
12	0x4021c345	2.5275433
13	0x3f900694	1.1252007
14	0x3ecefcb4	0.40427172
15	0x3ee4a863	0.4465972
16	0x3f532cc2	0.8249017
17	0x3f225f40	0.6342659
18	0xbe849b78	-0.25899863
19	0xbf3282b2	-0.69730675
20	0xbfc8253b	-1.5636362
21	0x3f98f50a	1.194978
22	0x3e451634	0.19246751
23	0xbc819cf0	-0.015821904
24	0xbd801bf4	-0.06255332
25	0xbeffd944	-0.49970448
26	0xc00c18fb	-2.1890247
27	0x3f98a98c	1.1926742
28	0x3e724fbb	0.23663227
29	0x3f30c6c0	0.6905327
30	0xbf884cbf	-1.0648421
31	0xbfa65749	-1.2995387
32	0x3ec9fa31	0.39448693
33	0x3f28dda7	0.65963215
34	0x3f7bef42	0.98411953
35	0x3e9f21e6	0.3108055
36	0xbfe90f06	-1.820771
37	0x3da18ed4	0.078885704
38	0x3f94a207	1.1611947
39	0x3f410908	0.75404406
40	0x3f8997f6	1.07495
41	0xbe962f65	-0.29333034
42	0x3fa6a8b1	1.302023
43	0xbf52f2fb	-0.8240201
44	0x3dd02fb7	0.10165351
45	0x3ef15464	0.47134697
46	0x3fa67122	1.3003275
47	0x40155f6f	2.3339498
48	0xbf227d0f	-0.63472074
49	0xbf7ffe4f	-0.9999742
50	0xbe3c7724	-0.18404824
51	0xbfa08fe8	-1.2543917
52	0xbe97bdfc	-0.29637134
53	0x40272cf0	2.6121178
54	0xbf45e4f4	-0.7730248
55	0x3edb6d96	0.42857045
56	0x3fb13516	1.3844326
57	0x3fd3cd08	1.6546946
58	0x3f7f91ba	0.99831736
59	0x3f2c7475	0.673652
60	0x3d685d7b	0.056729775
61	0xbf37c037	-0.7177767
62	0xbf9a6577	-1.2062215
63	0x3fcd871e	1.605686
64	0xbf4a2c2f	-0.7897367
65	0x3dd37ba8	0.1032632
66	0xbf27ac98	-0.6549773
67	0x3ffdedd9	1.983821
68	0x40100eca	2.2509027
69	0x3faff031	1.3745176
70	0x3f916eee	1.1361978
71	0xbf1868bf	-0.5953483
72	0xbb9c7777	-0.0047749835
73	0xbf5f1122	-0.8713552
74	0x3ffa349e	1.9547307
75	0xbd41f767	-0.047355082
76	0xbdd7f49a	-0.10544701
77	0xc02ef1ed	-2.733516
78	0x3e6f2d50	0.23357129
79	0x3eda9105	0.42688766
80	0xbe289afd	-0.16465373
81	0x3f8f2254	1.1182351
82	0xbf004c6c	-0.5011661
83	0x3e10205b	0.14074843
84	0xbe3519b9	-0.17685594
85	0xbf55460e	-0.8331002
86	0x3f2f1d86	0.68404424
87	0x3d8d41d1	0.06897319
88	0x3eba46e1	0.363822
89	0x3fc5f34a	1.5464871
90	0x3fd91a82	1.6961215
91	0x3f85b8b7	1.0446995
92	0xbf886a78	-1.0657492
93	0xbcd0a4d3	-0.02546922
94	0x3f207cb7	0.626903
95	0xbfdb9eb9	-1.7157813
96	0x3ecd0357	0.4004161
97	0xbe1eac79	-0.1549548
98	0x3def0d36	0.11672442
99	0xbfb61745	-1.4225851
100	0xbf2f93eb	-0.6858508
101	0xbf6585c3	-0.8965723
102	0xbd46da03	-0.048547756
103	0xbfcbd94a	-1.5925686
104	0xbd923913	-0.07139792
105	0x3e79e146	0.24402341
106	0x3ee4c5ce	0.44682163
107	0x3ea5b71c	0.32366264
108	0x3e31d507	0.1736642
109	0x402f21b3	2.7364318
110	0xbf959176	-1.1685016
111	0x3e51b037	0.20477377
112	0x3f80cc2b	1.0062307
113	0x3fef0e85	1.8676306
114	0x3f3b054e	0.7305497
115	0xbf139571	-0.57649904
116	0xc0a14e63	-5.0408187
117	0xbeb9d5bf	-0.36295888
118	0xbf93a779	-1.1535484
119	0xbfbd4eaa	-1.4789631
120	0x3e33e793	0.17568807
121	0x3f553861	0.8328915
122	0xbf0c7f50	-0.54881763
123	0x3edc23c7	0.42996046
124	0x400639a0	2.0972672
125	0xbd9bb078	-0.07602018
126	0x3f622a35	0.8834565
127	0x3fe1c439	1.7638007
128	0x3f25ff3a	0.6484257
129	0x3eea81bf	0.45802113
130	0xbf1ce50f	-0.61287016
131	0x3fbf6f75	1.4955889
132	0xbe600b2a	-0.21879259
133	0xbf9f80e3	-1.2461208
134	0x3f8d075e	1.1017873
135	0x3ee1ce47	0.4410269
136	0x3e176d97	0.14787899
137	0x3f128c62	0.5724546
138	0x3ca5e07f	0.02024865
139	0x3efe4019	0.49658278
140	0xbedc62b3	-0.43044052
141	0x3ff96bf2	1.9486067
142	0xbfc9010b	-1.5703443
143	0xbd9f2fac	-0.077727646
144	0x3fdd6bbb	1.7298502
145	0xc01bd93c	-2.435134
146	0xbfb76abb	-1.4329447
147	0x3f32e35a	0.6987816
148	0x3f450ede	0.7697581
149	0xbf27f4c3	-0.6560785
150	0x3e66e102	0.22546771
151	0x3f8f18fa	1.1179497
152	0xbfb0eaa3	-1.3821605
153	0xbdbcf61e	-0.09226631
154	0x40157098	2.3349972
155	0x3ff33085	1.8999182
156	0x3f768807	0.9630131
157	0x3e218fc9	0.15777506
158	0xbf81ed6f	-1.0150584
159	0xc014b250	-2.3233833
160	0xbf6398ae	-0.88904846
161	0x3f6adef9	0.9174648
162	0xc037c034	-2.8711061
163	0x3e87ac61	0.26498702
164	0x3f3221f5	0.69583064
165	0x400cdf85	2.2011425
166	0xbdd7b1be	-0.105319485
167	0xbeed4bc3	-0.46346864
168	0x3da33c3e	0.07970475
169	0xbf461e2c	-0.7738979
170	0x3e5749a8	0.21024191
171	0x3c83fd7b	0.01611208
172	0x3fcb4c0f	1.5882586
173	0x4037c9a2	2.8716817
174	0xbf06d50e	-0.52668846
175	0x3f3e122a	0.74246466
176	0xbd531859	-0.05153689
177	0xbfcbe0ae	-1.5927942
178	0x3f8ceff5	1.1010729
179	0xbed5604f	-0.4167504
180	0xbd86448f	-0.06556045
181	0x3f4869a9	0.78286225
182	0x3cc1bbe8	0.023649171
183	0x3e4d4918	0.20047414
184	0x3db80129	0.08984596
185	0x3e90fd9c	0.2831849
186	0xc11c9ef9	-9.788812
187	0x400ea26e	2.228664
188	0x3e8ddcbc	0.2770747
189	0xbfc303ab	-1.5235494
190	0x3f2f71e0	0.68533134
191	0x3e2d1b86	0.1690503
192	0x3f2d672a	0.6773554
193	0x3f2267d4	0.6343968
194	0xc01a5e6c	-2.412013
195	0xbfd7d291	-1.6861135
196	0xbf315f28	-0.6928582
197	0x3f6739fb	0.90322846
198	0xbe8ca68e	-0.2747082
199	0xbec4b146	-0.384165
200	0xbe88dc26	-0.2673046
201	0x3ffa64ea	1.9562047
202	0x3f857904	1.0427556
203	0x3c2d7c3a	0.0105887
204	0xbf1e2fa3	-0.6179144
205	0xbf0d9ed0	-0.55320454
206	0x3e7a6dae	0.24455902
207	0x3fcce785	1.6008154
208	0xbe78a4b1	-0.24281575
209	0x3f8bee0c	1.0932021
210	0xc0406ab1	-3.006512
211	0xbecc39f5	-0.39887968
212	0xbfaeaab7	-1.3645848
213	0x3f310bc5	0.69158584
214	0xbf41e45c	-0.75739074
215	0x3f01648f	0.50544065
216	0x3fac89c8	1.3479548
217	0x3e71c195	0.23609002
218	0x3fa5e53a	1.2960579
219	0x3e89a5e0	0.26884365
220	0xbf91de8a	-1.1396039
221	0x400db628	2.214243
222	0xbfc7fa2a	-1.5623219
223	0xbe471df4	-0.1944502
224	0x3f75b7bb	0.95983475
225	0xbf3ee587	-0.7456898
226	0xbe3c82c1	-0.18409254
227	0x3eb488b5	0.3526055
228	0xc02a987f	-2.6655576
229	0x3fae5c0a	1.3621838
230	0x3ec1d3d0	0.37856913
231	0x3e951cd8	0.2912357
232	0x3f8f20c2	1.1181872
233	0x3d648347	0.05578926
234	0xbfdd5878	-1.7292624
235	0x3f80e8e5	1.0071074
236	0x3db44c56	0.088036224
237	0x3db1c027	0.08679228
238	0x3f6da64f	0.9283189
239	0x4008a97a	2.135344
240	0x3e2a4f0a	0.16631714
241	0xbf0c07c3	-0.54699343
242	0xbf8e0876	-1.1096332
243	0xbeccc48b	-0.399937
244	0xbfb47f60	-1.4101372
245	0xbea8c692	-0.32963997
246	0x3f894d2d	1.0726677
247	0x3f2ba1c3	0.67043704
248	0xbd8ce2c5	-0.0687919
249	0xbfb6430a	-1.4239209
250	0xbf8cadc4	-1.0990529
251	0xbeadfe2d	-0.33982983
252	0xbf7afd2d	-0.98042566
253	0xbf38fd74	-0.7226174
254	0xbf86f36c	-1.0543036
255	0x3f34fe7b	0.70700806

in_to_y1.bias f4 [50]
0	0xbd91c635	-0.07117883
1	0x3e354301	0.17701341
2	0x3ddaf7b2	0.106917754
3	0x3f41eee2	0.7575513
4	0x3f72a0ee	0.9477681
5	0x3f01eaf7	0.5074915
6	0x3e09b9cd	0.13449784
7	0x3f2c73fc	0.6736448
8	0xbebd4003	-0.369629
9	0x3d0e55ed	0.034749914
10	0xbe041fa9	-0.12902702
11	0x3ed2f008	0.41198754
12	0xbe60cd61	-0.21953346
13	0x3f5c479b	0.8604676
14	0xc01e1353	-2.4699295
15	0xbf86df0b	-1.0536817
16	0xbe5b789a	-0.21432725
17	0x3e4ab1c1	0.1979437
18	0x3e068bdd	0.13139291
19	0xbd653a28	-0.055963665
20	0xbecb5ed2	-0.3972078
21	0x3efd687b	0.49493775
22	0xbf5fbcf7	-0.8739771
23	0xbdb41983	-0.087939285
24	0x3f27d566	0.65559995
25	0x3cc7366c	0.024317943
26	0x3f4b1716	0.793321
27	0x3e97b557	0.2963054
28	0x3f02e77e	0.5113448
29	0xbe1f68e9	-0.15567364
30	0x3ee1e402	0.4411927
31	0x3fbc3935	1.4704958
32	0x3fa27e4b	1.2694792
33	0x3e931589	0.28727368
34	0x3ec36c3e	0.3816852
35	0xbf10a1e7	-0.56497043
36	0xbf8ab6be	-1.0837018
37	0x3d3f3782	0.046683796
38	0x3dc641c2	0.09680511
39	0x3f299852	0.6624805
40	0x3e7c924f	0.24665187
41	0xbf99ab8b	-1.2005476
42	0x3e1add28	0.15123427
43	0x3e4a759d	0.19771428
44	0x3fc78c64	1.5589719
45	0x3f98fd83	1.1952366
46	0x3f13914e	0.5764359
47	0x3dfaf55b	0.12253829
48	0x3e27867f	0.163599
49	0x3f820ad2	1.0159552

y1_to_y2.weight f4 [20, 50]
0	0x3f8e41a8	1.1113787
1	0x3f3b844b	0.7324874
2	0xbfc5e68b	-1.5460981
3	0xbe999c07	-0.30001852
4	0x3e5ac6c3	0.21364884
5	0x3f96e8bd	1.1789776
6	0xc01f7ecc	-2.492114
7	0xbfe06081	-1.7529451
8	0xbf8f7781	-1.1208345
9	0xbfd1933e	-1.637306
10	0x3f8b33ab	1.0875143
11	0x401620b5	2.3457463
12	0xbfa5ba89	-1.2947551
13	0x3ee7d5b2	0.45280224
14	0x3fd936a9	1.6969806
15	0x40496af4	3.147153
16	0xc07306a3	-3.79728
17	0x3fcac4d4	1.5841317
18	0xbf76bcb2	-0.96381676
19	0x3eb1a533	0.3469635
20	0x3f1fc878	0.62415266
21	0xb93ec770	-0.00018194108
22	0x3eafc24c	0.34327924
23	0xbd3bd20f	-0.045854624
24	0x3ff352f2	1.9009688
25	0xbf591e8a	-0.84812224
26	0xc0050d8c	-2.0789518
27	0xbdd119c3	-0.10209992
28	0xbf843feb	-1.0332006
29	0x3f0ac2bd	0.542034
30	0xbf4b7389	-0.7947317
31	0x3fb1969e	1.387409
32	0xbff2baea	-1.8963292
33	0x3e256218	0.16150701
34	0xbef8e2b1	-0.48610452
35	0x3cf672b2	0.030083988
36	0xbeec0b33	-0.46102294
37	0xbfe528c5	-1.7903067
38	0x405e855d	3.4768898
39	0xbf10cdf9	-0.5656429
40	0xbf83babf	-1.0291365
41	0xbf812b2b	-1.0091299
42	0x3f705ddb	0.9389321
43	0x3f2040cc	0.6259887
44	0xbf1ddd78	-0.6166606
45	0xc05957d3	-3.3959854
46	0xc045606a	-3.0840096
47	0x3f3d871f	0.74034303
48	0x3fa50e60	1.2895012
49	0xbf40e7d5	-0.7535375
50	0x3f823583	1.017258
51	0xbe69b06d	-0.22821207
52	0xbf7a8215	-0.9785474
53	0xbd3cb878	-0.04607436
54	0x3f5f7843	0.8729288
55	0x400d2251	2.2052195
56	0xbe1596d4	-0.14608318
57	0x3fce5796	1.6120479
58	0x3f975519	1.1822845
59	0x3f436042	0.7631875
60	0x3f9fe1f6	1.2490833
61	0x40835996	4.104686
62	0xbf092176	-0.5356668
63	0xbf252cd3	-0.6452152
64	0x3fb803f3	1.4376205
65	0x40304db5	2.7547429
66	0x3f53e7c6	0.82775533
67	0x3f06f866	0.52722776
68	0xbe34e79e	-0.1766648
69	0xbf198044	-0.5996134
70	0xbe7d6008	-0.24743664
71	0x3f5c0aa0	0.8595371
72	0xbfcc733d	-1.5972668
73	0x3fb664d0	1.4249516
74	0xbf2e9866	-0.6820129
75	0x3f9b0bfd	1.2113034
76	0xbf51612d	-0.81788903
77	0x3f72b0bd	0.9480093
78	0xbfa43838	-1.2829657
79	0x4009a9be	2.1509852
80	0xbeb8e496	-0.36111897
81	0x404f5e8e	3.2401462
82	0xc06d6dc2	-3.709824
83	0xbf3a41e9	-0.7275682
84	0xbf922e89	-1.1420451
85	0x3fba6215	1.4561182
86	0xbfed0c46	-1.851937
87	0xbe3b8940	-0.18314075
88	0xbe3ac8d8	-0.18240678
89	0x3e1e48e6	0.15457496
90	0x3fbc27bf	1.469963
91	0xc03fb23d	-2.9952538
92	0xbf48597f	-0.7826156
93	0x3fd30e3b	1.6488718
94	0xbf0c41b1	-0.5478774
95	0xc02b3dbb	-2.6756427
96	0xbfad9d20	-1.3563576
97	0xbf23cfed	-0.63989145
98	0x3ebde2f5	0.37087217
99	0xbf8a9685	-1.0827185
100	0xbffe6fdc	-1.9877887
101	0xbf613fdf	-0.87988085
102	0xbe717624	-0.23580223
103	0xc015f87b	-2.343291
104	0xbf4eee3f	-0.80832285
105	0xbf97974a	-1.1843045
106	0xbd96b3c8	-0.07358509
107	0xbb723dc8	-0.0036963094
108	0xc015e3a7	-2.3420198
109	0x3f29afda	0.66283953
110	0x3fd1127d	1.6333767
111	0xbfc1f274	-1.5152116
112	0x3e0f504b	0.13995473
113	0xbe908ff6	-0.28234833
114	0xc006db35	-2.1071293
115	0x3f9fdf54	1.2490029
116	0x3fe6894f	1.8010653
117	0xbe1c4875	-0.15262015
118	0xbe9f621c	-0.3112954
119	0xbecc5ae4	-0.39913094
120	0xbf994632	-1.1974547
121	0xbf074b77	-0.52849525
122	0xc00b0e3c	-2.1727438
123	0xbf9b5fbe	-1.2138593
124	0xbf0944b3	-0.5362045
125	0xbabb5074	-0.0014290945
126	0xbfff455c	-1.9943042
127	0xbe165d81	-0.14684106
128	0xc01ff4ca	-2.4993157
129	0xbe6777ef	-0.22604345
130	0xc02c5fd8	-2.6933498
131	0xbe982509	-0.29715756
132	0xbfbca8fd	-1.4739071
133	0xbe886ecf	-0.2664704
134	0xbf65358d	-0.89534837
135	0xbf5ac7a6	-0.8546089
136	0xc01e0da4	-2.4695826
137	0xbf24a717	-0.6431746
138	0xbfb4a359	-1.411235
139	0xbf132d41	-0.57490927
140	0x3ecbf112	0.3983236
141	0xbfac042c	-1.3438773
142	0xbf41345b	-0.75470513
143	0x3f98b4d0	1.193018
144	0x3ee3f4d1	0.44522718
145	0xbd9fbb66	-0.07799415
146	0xbf918730	-1.1369381
147	0xbf6e2ea6	-0.9303993
148	0xbf919d39	-1.1376106
149	0x3e466876	0.19375786
150	0x3f828c15	1.0199
151	0x3fbf73ba	1.4957192
152	0x3f427bf9	0.7597042
153	0x402923b1	2.6428034
154	0xbf73bcd8	-0.9521003
155	0xc0106006	-2.2558608
156	0x3fbfced1	1.498499
157	0xbfe197b9	-1.7624427
158	0x3ea4cddc	0.32188308
159	0xbf0b36f7	-0.54380745
160	0xbfc4f9e6	-1.5388763
161	0xbfd51b7f	-1.6649016
162	0x3f883399	1.0640746
163	0xbfeed14a	-1.865762
164	0xbf8ff8cf	-1.1247805
165	0x4005048e	2.078403
166	0xbf98f916	-1.1951015
167	0x40048986	2.0708938
168	0x3fb5f030	1.4213924
169	0xbe8f53ed	-0.27993718
170	0xbea652dd	-0.32485095
171	0x3f682365	0.9067901
172	0x404ab482	3.1672673
173	0x3fe7c37c	1.8106532
174	0xbf4d2bd0	-0.8014498
175	0xc043c068	-3.0586185
176	0x3fe0445c	1.7520862
177	0xbb303da8	-0.0026892219
178	0x3f6d300d	0.92651445
179	0xbf4f464d	-0.80966645
180	0xbf198091	-0.599618
181	0xbe9453f6	-0.28970307
182	0x40001a30	2.0015984
183	0x3e82c46f	0.25540492
184	0x3de2923b	0.110630475
185	0x3ec73b95	0.38912645
186	0xbf9286e7	-1.1447419
187	0x3f7ccd97	0.98751205
188	0x3eece636	0.46269387
189	0x3dd163f1	0.102241404
190	0x3ed3c9ce	0.41364902
191	0xbf22e79c	-0.6363466
192	0xbfbeab4a	-1.4896023
193	0xbef67676	-0.48137254
194	0xbfed3955	-1.8533121
195	0xbfe8cdbf	-1.8187789
196	0x3e9a1149	0.30091313
197	0x3f4b0290	0.79300785
198	0xbf2d32b8	-0.67655516
199	0x3e8074c4	0.25089085
200	0xc04b89f5	-3.1802952
201	0x401bf798	2.436987
202	0x3da9c458	0.08289403
203	0x40186f97	2.381811
204	0xc000e704	-2.0141
205	0xbf350361	-0.7070828
206	0x3fbab6aa	1.4586995
207	0xbfe74106	-1.8066719
208	0x3fe84fa3	1.8149303
209	0x40064848	2.0981617
210	0x40247c32	2.5700803
211	0xbf43820d	-0.76370317
212	0x40a31197	5.095897
213	0xbfa276a0	-1.2692451
214	0xc01fa0b0	-2.4941826
215	0xbf48cf80	-0.7844162
216	0xbf2e32a3	-0.68046016
217	0x401600a2	2.3437886
218	0x3f478535	0.7793763
219	0x3e18c455	0.14918645
220	0x3f796e94	0.97434354
221	0x3f0c4b35	0.54802257
222	0x4002c764	2.0434198
223	0x3e592482	0.21205333
224	0x3f30e262	0.6909543
225	0xc04879f6	-3.132444
226	0x3ffd6a62	1.979809
227	0x3dd92222	0.106022134
228	0xbf4f468b	-0.80967015
229	0x3ef2e39c	0.47439277
230	0x3d971fb0	0.07379091
231	0x3fb564b3	1.4171356
232	0x403b6bca	2.928454
233	0x3f6a7e46	0.9159893
234	0xbfc0e629	-1.5070239
235	0xbf74e4cc	-0.95661616
236	0x3d844eb7	0.06460326
237	0xc00245d6	-2.0355124
238	0x3f03b7ae	0.5145215
239	0x3e4ba1d6	0.19885954
240	0x3fb4abd0	1.4114933
241	0x3efe5be8	0.49679494
242	0x3e913e22	0.28367716
243	0xbe983295	-0.2972609
244	0x3fae11f1	1.3599225
245	0x3f9ef1e9	1.2417575
246	0x3e87ac28	0.26498532
247	0x3e1418c3	0.14462571
248	0x3d8c617e	0.06854533
249	0x3fcb2fda	1.5873978
250	0x3f247352	0.64238465
251	0xbfb4dff2	-1.4130843
252	0xbf04d69f	-0.51889986
253	0xbff1f76d	-1.8903633
254	0xbf17d587	-0.5931019
255	0xbf8db282	-1.1070101

y1_to_y2.bias f4 [20]
0	0xbf24e23e	-0.6440772
1	0x3e88f302	0.267479
2	0xbf4790d0	-0.7795534
3	0x3f683580	0.90706635
4	0x3ebd9297	0.37025902
5	0xbf9d8133	-1.2305053
6	0x3f3c45bb	0.735439
7	0xbd1ed47b	-0.038776856
8	0xbf3fb46a	-0.74884665
9	0xbe88b8ce	-0.26703495
10	0x3fa16be1	1.2611047
11	0x3ea299e7	0.31758043
12	0xbf31607e	-0.6928786
13	0xbe8883e1	-0.26663116
14	0xbea94f22	-0.33068186
15	0x3ea407e5	0.32037273
16	0xbf889a94	-1.0672174
17	0xbef9fa2b	-0.48823676
18	0xbfb05ac5	-1.3777701
19	0x3e117667	0.14205323

out.weight f4 [2, 20]
0	0x4067e801	3.6235354
1	0x4036c8c4	2.8560038
2	0x40cdced7	6.431499
3	0xc098edd3	-4.7790313
4	0x3f91d2e9	1.139249
5	0xc087059c	-4.2194347
6	0x40483b08	3.128603
7	0x405f6f22	3.491158
8	0xc09c817f	-4.8908076
9	0xc088b762	-4.2723856
10	0xc00ff61a	-2.2493958
11	0x40443c0b	3.0661647
12	0x3f774eb7	0.96604484
13	0xbe68fb73	-0.2275217
14	0x3f398fe8	0.7248521
15	0xc089057e	-4.2819204
16	0x4014dd26	2.3259978
17	0x4080a339	4.0199246
18	0xc0a2f9a9	-5.092976
19	0x3f945ca1	1.1590768
20	0xc0a0320b	-5.0061088
21	0xc03433a3	-2.8156517
22	0x3c191084	0.009342317
23	0xbe38467c	-0.17995638
24	0x4089eb66	4.309985
25	0x4089ae1f	4.302505
26	0x3fd89bad	1.6922508
27	0xbfc22527	-1.5167588
28	0x3fde7208	1.737855
29	0x3f8418b7	1.0320042
30	0xbedefbe1	-0.43551543
31	0xc08d7f39	-4.42178
32	0xc07720be	-3.8613734
33	0xc0731eee	-3.7987628
34	0xc0a7574e	-5.2294073
35	0x3b42e142	0.0029736315
36	0x408226da	4.0672426
37	0xc10de504	-8.868412
38	0xc006bea9	-2.105387
39	0x40531376	3.2980628

out.bias f4 [2]
0	0x3fa0a422	1.2550089
1	0x3f50fd57	0.81636566

exp_avg f4 [50, 7]
0	0xb88a9e35	-6.609821e-05
1	0xb8655faf	-5.4686967e-05
2	0xb8f31c8a	-0.00011592459
3	0xb8e94be9	-0.00011124445
4	0xb80b6259	-3.3231776e-05
5	0xb7bf4672	-2.2801778e-05
6	0xb89c9751	-7.4668445e-05
7	0x37b381de	2.1398937e-05
8	0x38843706	6.3044994e-05
9	0x37ffbee0	3.0487252e-05
10	0x382ebda9	4.1661468e-05
11	0x369635a4	4.476593e-06
12	0x338b58c0	6.4888354e-08
13	0x36a949bc	5.0451763e-06
14	0xb7b7e25e	-2.192071e-05
15	0xb84e9f08	-4.9262337e-05
16	0xb70edc02	-8.515084e-06
17	0xb85e8a4e	-5.305773e-05
18	0xb788de33	-1.6315933e-05
19	0xb7b35e4a	-2.138237e-05
20	0xb7a5f2ca	-1.978259e-05
21	0x36de525a	6.6257026e-06
22	0xb928ed8d	-0.00016110223
23	0x391f7fa9	0.00015210979
24	0xb89c1aa3	-7.443621e-05
25	0xb8567a3c	-5.1135416e-05
26	0xb830f833	-4.2192823e-05
27	0x38243ec2	3.9159095e-05
28	0x3702a888	7.787843e-06
29	0x39290fa3	0.00016122921
30	0xb905e5f2	-0.0001276953
31	0x38d8930e	0.00010327074
32	0x38635fb2	5.421014e-05
33	0x37c59316	2.3552722e-05
34	0xb7b04ea8	-2.1017462e-05
35	0xb82f3ad8	-4.1778054e-05
36	0xb7a552ea	-1.9708143e-05
37	0xb8bf9f1a	-9.137225e-05
38	0xb77fb716	-1.5241812e-05
39	0x361277a0	2.1825326e-06
40	0x37ce1832	2.456838e-05
41	0xb7dcbdc4	-2.631441e-05
42	0x37e46584	2.722699e-05
43	0x3861cc88	5.3834665e-05
44	0x3802ecd8	3.1214993e-05
45	0x384e16dc	4.9135517e-05
46	0x3711b14f	8.683956e-06
47	0xb60da8c8	-2.110888e-06
48	0x372654bf	9.9141025e-06
49	0x38483396	4.773176e-05
50	0x38eb22aa	0.0001121213
51	0x37c33643	2.3271079e-05
52	0x384ea02a	4.926339e-05
53	0x3824cf1b	3.929353e-05
54	0x379a5ef6	1.840245e-05
55	0x380a0546	3.2906675e-05
56	0xb809bddc	-3.2840166e-05
57	0xb8b0c470	-8.428923e-05
58	0xb904dd3c	-0.00012670917
59	0xb81724bc	-3.6035417e-05
60	0xb7898ea6	-1.6398099e-05
61	0xb5c122d8	-1.4389761e-06
62	0xb8017d02	-3.087242e-05
63	0x365517bc	3.1753289e-06
64	0x38a8f1fc	8.055937e-05
65	0xb86d6d23	-5.6606845e-05
66	0x38697a38	5.5665354e-05
67	0x3791b84d	1.7371169e-05
68	0x378b4104	1.6600367e-05
69	0xb75d40b4	-1.3187691e-05
70	0xb83e26c6	-4.533564e-05
71	0xb5aa6b40	-1.2697201e-06
72	0xb90edaa5	-0.00013623627
73	0xb6cdc34c	-6.1322116e-06
74	0xb702f98c	-7.806706e-06
75	0x36e09a05	6.6936504e-06
76	0xb84d5ef0	-4.8964226e-05
77	0x383e137c	4.5317676e-05
78	0x38f85ab0	0.000118424534
79	0x37fdeccc	3.0270217e-05
80	0x379e08d4	1.8839179e-05
81	0x38a4be4e	7.8555764e-05
82	0x3871512c	5.7534475e-05
83	0x38691500	5.5571087e-05
84	0x38341278	4.2932545e-05
85	0x37e89f86	2.7730839e-05
86	0x389178e6	6.936658e-05
87	0x38138dd9	3.5179637e-05
88	0xb6f55eac	-7.3125902e-06
89	0x36a501c5	4.917589e-06
90	0x37e9f084	2.7887763e-05
91	0xb821e02a	-3.859416e-05
92	0xb840ae7e	-4.5938876e-05
93	0xb82c080f	-4.10155e-05
94	0xb8918c0f	-6.940227e-05
95	0xb7a4be06	-1.963881e-05
96	0xb7a4cc76	-1.9645533e-05
97	0xb84d7ef8	-4.8994058e-05
98	0x00000004	6e-45
99	0x80000004	-6e-45
100	0x00000004	6e-45
101	0x00000004	6e-45
102	0x80000004	-6e-45
103	0x80000004	-6e-45
104	0x00000004	6e-45
105	0xb8a7209b	-7.969254e-05
106	0xb757c767	-1.2861426e-05
107	0xb9b6e8ea	-0.0003488728
108	0xb695ce9c	-4.4645985e-06
109	0xb796c509	-1.7973145e-05
110	0xb567b988	-8.632419e-07
111	0xb8e49752	-0.00010900073
112	0x3728061e	1.0015005e-05
113	0x380d100f	3.3631975e-05
114	0xb7dcfaf6	-2.6342906e-05
115	0xb763e29c	-1.3583016e-05
116	0x37bdd599	2.263002e-05
117	0xb6ace260	-5.152353e-06
118	0xb72e1cae	-1.0377886e-05
119	0xb70139ca	-7.702454e-06
120	0xb932b5d6	-0.00017043142
121	0x38a14490	7.689849e-05
122	0xb8b15271	-8.4553736e-05
123	0xb86c2c0c	-5.6307807e-05
124	0xb7d46fad	-2.5324372e-05
125	0x3793d90a	1.7624832e-05
126	0x373587fe	1.0820104e-05
127	0xb6d9b58c	-6.488239e-06
128	0x37ffe6ae	3.0505787e-05
129	0x37c24e2e	2.3163007e-05
130	0xb681d736	-3.8695534e-06
131	0xb748d44e	-1.197036e-05
132	0x377debf5	1.5134913e-05
133	0x370caa15	8.384251e-06
134	0x3861439d	5.370715e-05
135	0x379277f0	1.7460407e-05
136	0x3717f29c	9.056788e-06
137	0x3769f9f4	1.3946079e-05
138	0x359e6f5c	1.1804327e-06
139	0x35fbcf1c	1.8761234e-06
140	0x3832d2d6	4.2634863e-05
141	0x38efb09d	0.00011429305
142	0x37d85d3f	2.5792628e-05
143	0x3886f3b6	6.4350126e-05
144	0x382bbd9d	4.0946168e-05
145	0x3792f497	1.7518452e-05
146	0x37bfcc33	2.2864062e-05
147	0xb8698f94	-5.5685246e-05
148	0xb7fa63e4	-2.9848838e-05
149	0xb917d69f	-0.00014480435
150	0xb8736816	-5.8032652e-05
151	0xb78c73ab	-1.6743163e-05
152	0xb7230636	-9.717003e-06
153	0xb87fb9e5	-6.0969865e-05
154	0x388a329e	6.589781e-05
155	0xb909c98d	-0.00013140422
156	0x39a71fc6	0.00031876395
157	0xb75e2c5b	-1.3242558e-05
158	0xb752ffca	-1.2576531e-05
159	0x36b16dea	5.2878067e-06
160	0x38fdd436	0.000121035075
161	0xb7b86e0f	-2.198576e-05
162	0xb7a0c1b2	-1.9163683e-05
163	0xb839b56c	-4.42764e-05
164	0xb7a73f08	-1.9937303e-05
165	0xb7784736	-1.4798532e-05
166	0xb783c0ae	-1.570614e-05
167	0xb7c9c45f	-2.405251e-05
168	0x386bc370	5.621038e-05
169	0x38b28cd3	8.513932e-05
170	0x38c93082	9.593462e-05
171	0x38c8978b	9.56497e-05
172	0x37fe822c	3.0339776e-05
173	0x378d3ab5	1.6835847e-05
174	0x38600e80	5.3419266e-05
175	0x381ea4b0	3.7823513e-05
176	0x37e81880	2.7667964e-05
177	0x38764582	5.8715705e-05
178	0x385965bf	5.183159e-05
179	0x381693ca	3.5900426e-05
180	0x38400ca8	4.5788154e-05
181	0x387dc740	6.0505467e-05
182	0xb784ec78	-1.584574e-05
183	0xb40b7f40	-1.2991677e-07
184	0xb7cc71de	-2.4371719e-05
185	0xb7274647	-9.970338e-06
186	0x366225ec	3.3698698e-06
187	0xb73e58d8	-1.1345568e-05
188	0xb7633321	-1.3542159e-05
189	0xb8212673	-3.84212e-05
190	0xb900a57b	-0.00012268678
191	0xb7d20f57	-2.5041094e-05
192	0xb88bb8e6	-6.6624765e-05
193	0xb84c83b4	-4.876005e-05
194	0xb7a825db	-2.0044788e-05
195	0xb7c9b45b	-2.4045052e-05
196	0x38ea1cbb	0.00011163341
197	0x3898119d	7.2512055e-05
198	0x398a8c6c	0.00026426034
199	0x39043f33	0.00012612045
200	0x37fe58d0	3.0320516e-05
201	0x36a34cec	4.8667334e-06
202	0x38f8964b	0.00011853556
203	0xb769c301	-1.3933285e-05
204	0x3906332b	0.00012798297
205	0xb92ad945	-0.00016293403
206	0x388df69c	6.7693385e-05
207	0x381ac9a5	3.6904257e-05
208	0x38069d75	3.2094733e-05
209	0xb7f9c485	-2.9774625e-05
210	0xb32a0e9d	-3.95945e-08
211	0xb359902a	-5.0655366e-08
212	0xb280210e	-1.4916193e-08
213	0x33e67ce5	1.0732928e-07
214	0xb4434642	-1.818635e-07
215	0xb40613cf	-1.2486929e-07
216	0xb40b26c2	-1.2959484e-07
217	0xb8cbd4f0	-9.719457e-05
218	0xb938aa6e	-0.00017611097
219	0xb95fa360	-0.00021327799
220	0xb9067229	-0.00012821764
221	0xb880dde9	-6.1448496e-05
222	0xb6cfda70	-6.19451e-06
223	0xb8b7ffc2	-8.7737586e-05
224	0x393a09ea	0.00017742036
225	0x38e52d48	0.00010928005
226	0x39feb7c7	0.0004858358
227	0x38c0bbb1	9.190234e-05
228	0x38603a01	5.3459782e-05
229	0x37635d4b	1.3551976e-05
230	0x393e9fbf	0.00018179322
231	0x38084f02	3.249851e-05
232	0xb8720eb9	-5.7711008e-05
233	0x389d770c	7.5085176e-05
234	0x37327eb7	1.063913e-05
235	0xb786f466	-1.6087852e-05
236	0xb6ea4ed2	-6.9829193e-06
237	0x382970ea	4.03979e-05
238	0x3748e120	1.1973345e-05
239	0x37cceafa	2.4428115e-05
240	0x38bcff70	9.0121175e-05
241	0xb70542f5	-7.943007e-06
242	0x371b0218	9.239207e-06
243	0xb73e3385	-1.1336878e-05
244	0x3795dd40	1.7865212e-05
245	0xb65a2b6a	-3.2509802e-06
246	0xb6cb1cff	-6.053247e-06
247	0xb78a6106	-1.6496062e-05
248	0xb70285ce	-7.779758e-06
249	0x3519c1a7	5.727874e-07
250	0xb5edfccf	-1.7731453e-06
251	0xb70b1dcf	-8.291986e-06
252	0x00000004	6e-45
253	0x80000004	-6e-45
254	0x80000004	-6e-45
255	0x80000004	-6e-45

exp_avg_sq f4 [50, 7]
0	0x3315cdd9	3.4878983e-08
1	0x33557c1f	4.9705815e-08
2	0x3415be64	1.394597e-07
3	0x3348c52a	4.674545e-08
4	0x32cad59c	2.3613033e-08
5	0x321924e9	8.9141645e-09
6	0x33653c88	5.337327e-08
7	0x32e53c27	2.6686463e-08
8	0x3386638e	6.25797e-08
9	0x3388732d	6.353944e-08
10	0x330dfa98	3.3057034e-08
11	0x32c9abb6	2.3477565e-08
12	0x32185aea	8.868236e-09
13	0x3305bf45	3.1140434e-08
14	0x32b8f602	2.153229e-08
15	0x332326d0	3.7986695e-08
16	0x338ae415	6.4676136e-08
17	0x32e133c5	2.621699e-08
18	0x3288f842	1.5945378e-08
19	0x31830271	3.8128793e-09
20	0x32c93ffd	2.3428578e-08
21	0x33ddb569	1.0324113e-07
22	0x34b6eff0	3.407472e-07
23	0x344e74b1	1.9227697e-07
24	0x33ee8602	1.11071145e-07
25	0x33b5cb0d	8.465404e-08
26	0x32ca7f85	2.3573884e-08
27	0x33bf2a67	8.9018435e-08
28	0x33927683	6.820212e-08
29	0x3490799e	2.6910578e-07
30	0x33f3a251	1.13450945e-07
31	0x339aaffd	7.203196e-08
32	0x338591d3	6.2198204e-08
33	0x32845796	1.5406652e-08
34	0x336a5054	5.455543e-08
35	0x3321b212	3.7647688e-08
36	0x333dfbc6	4.423398e-08
37	0x34037d3c	1.2245886e-07
38	0x3369834b	5.436895e-08
39	0x32f176ce	2.8110119e-08
40	0x3282610c	1.5178124e-08
41	0x337c0138	5.867443e-08
42	0x32cc1a50	2.3760691e-08
43	0x333f0be4	4.4481467e-08
44	0x33bc1b35	8.759381e-08
45	0x330fbc07	3.3465792e-08
46	0x32b59f0b	2.1143498e-08
47	0x31e5569e	6.6746244e-09
48	0x3318c78c	3.5571745e-08
49	0x329d0e9c	1.8283849e-08
50	0x33859217	6.219869e-08
51	0x327730df	1.4388404e-08
52	0x328754ee	1.575469e-08
53	0x328adeea	1.6166684e-08
54	0x31be7cca	5.5439147e-09
55	0x326463d9	1.3294049e-08
56	0x33c64497	9.23257e-08
57	0x34153ed1	1.3899559e-07
58	0x3484bf32	2.472603e-07
59	0x33f0a372	1.12056014e-07
60	0x337be0e1	5.8645018e-08
61	0x334f6de4	4.8295888e-08
62	0x33fa62b7	1.1659488e-07
63	0x32ead81f	2.7339466e-08
64	0x33c2bdf1	9.068379e-08
65	0x333d2e90	4.404734e-08
66	0x32ea0dcc	2.724746e-08
67	0x32c0cfb1	2.2446189e-08
68	0x31a35079	4.753073e-09
69	0x32aa33eb	1.9814214e-08
70	0x32f5fef2	2.863769e-08
71	0x33a9e813	7.91189e-08
72	0x3385aa1b	6.224237e-08
73	0x32e929be	2.7143752e-08
74	0x32bab14b	2.1733873e-08
75	0x31de2624	6.4653864e-09
76	0x32ef8868	2.7885292e-08
77	0x33f14275	1.12345255e-07
78	0x34995fe1	2.8568232e-07
79	0x35658bcb	8.5512573e-07
80	0x347df096	2.3649986e-07
81	0x34095316	1.2789346e-07
82	0x32ae3e5c	2.0284624e-08
83	0x34920899	2.7200875e-07
84	0x337a9d8b	5.8350945e-08
85	0x33d5163e	9.922631e-08
86	0x34382b68	1.7152126e-07
87	0x33a44d33	7.6508876e-08
88	0x33710bea	5.612302e-08
89	0x3268389f	1.35170515e-08
90	0x339ee768	7.399541e-08
91	0x33845d00	6.1636456e-08
92	0x337f600c	5.945917e-08
93	0x34628a0c	2.1098111e-07
94	0x33a863b4	7.8412455e-08
95	0x331359a7	3.4307643e-08
96	0x32aa051a	1.9792925e-08
97	0x33a71c09	7.781643e-08
98	0x26bc1c4a	1.3052788e-15
99	0x244b7052	4.4113747e-17
100	0x252e2159	1.5103393e-16
101	0x247948a2	5.405479e-17
102	0x213cc9e4	6.396408e-19
103	0x2654f499	7.3883767e-16
104	0x23863fb1	1.4555283e-17
105	0x3474aaa9	2.2786357e-07
106	0x34a3b7c3	3.049482e-07
107	0x353549b9	6.7535035e-07
108	0x349573fd	2.7837805e-07
109	0x340ed63c	1.3302719e-07
110	0x33dbe6f8	1.0239995e-07
111	0x349c7ad7	2.9146642e-07
112	0x3100e8a7	1.87587e-09
113	0x31b726cc	5.3304117e-09
114	0x31372081	2.6648481e-09
115	0x305c9810	8.025163e-10
116	0x302ae1ae	6.216635e-10
117	0x2f32b659	1.6253789e-10
118	0x309a8b7a	1.1244616e-09
119	0x331cfb0f	3.6549917e-08
120	0x34546602	1.9781149e-07
121	0x33857c22	6.215875e-08
122	0x3325fa76	3.864485e-08
123	0x332f8654	4.0867533e-08
124	0x321cf508	9.136109e-09
125	0x32f7c645	2.8844747e-08
126	0x32963cd1	1.7489954e-08
127	0x33006f64	2.990363e-08
128	0x33711896	5.6134546e-08
129	0x32b5bdf1	2.1157549e-08
130	0x32585072	1.2591146e-08
131	0x3183dd4e	3.837761e-09
132	0x32beb640	2.2201789e-08
133	0x32a83cad	1.9585366e-08
134	0x3313b506	3.4390744e-08
135	0x332e5ebc	4.0598692e-08
136	0x32a37b7c	1.9031852e-08
137	0x3241c803	1.1279556e-08
138	0x31f8dd1e	7.242888e-09
139	0x329848b6	1.7728194e-08
140	0x32cd327a	2.3888095e-08
141	0x33a6e611	7.771826e-08
142	0x31ae525d	5.07343e-09
143	0x328d3587	1.6438902e-08
144	0x327669f5	1.4343176e-08
145	0x31010626	1.8775466e-09
146	0x31da28c7	6.349271e-09
147	0x3313f7aa	3.4451354e-08
148	0x3341d6c1	4.513163e-08
149	0x341cc1fd	1.4599205e-07
150	0x33472004	4.6362416e-08
151	0x32cf2266	2.4113614e-08
152	0x3200125d	7.454756e-09
153	0x335e7970	5.179885e-08
154	0x3476dd2f	2.2991001e-07
155	0x3523e950	6.1061746e-07
156	0x34de0b6d	4.1359036e-07
157	0x34648722	2.1283316e-07
158	0x341bafca	1.4499452e-07
159	0x33214dbe	3.755644e-08
160	0x3426e025	1.5541498e-07
161	0x329e94d3	1.8461298e-08
162	0x328880a3	1.5890981e-08
163	0x338da561	6.5959064e-08
164	0x32e611fc	2.6783702e-08
165	0x32b5cd6d	2.116459e-08
166	0x31c8b31d	5.841129e-09
167	0x32c5c1c8	2.302194e-08
168	0x332269fc	3.7814956e-08
169	0x3380f822	6.0055996e-08
170	0x3433975e	1.6725741e-07
171	0x335c42bb	5.1283433e-08
172	0x32eaa991	2.7318295e-08
173	0x31cbd6cb	5.9324967e-09
174	0x337434af	5.6858593e-08
175	0x32b0f772	2.0601622e-08
176	0x3308ec04	3.1879622e-08
177	0x32e03de1	2.6105171e-08
178	0x330c73a0	3.270145e-08
179	0x32845b8b	1.5408451e-08
180	0x32886298	1.5877319e-08
181	0x330b4d32	3.2433668e-08
182	0x2f4d08ab	1.8647721e-10
183	0x300a2c66	5.02672e-10
184	0x309082ea	1.0514587e-09
185	0x2f9e0b7a	2.8748187e-10
186	0x2d44e025	1.119108e-11
187	0x2e56375c	4.8707136e-11
188	0x2fad7f20	3.1558844e-10
189	0x317ba8a1	3.6621162e-09
190	0x332b637b	3.9904517e-08
191	0x30ff404e	1.8571968e-09
192	0x31ec483c	6.876716e-09
193	0x31fe67ce	7.404174e-09
194	0x308ceb76	1.0253263e-09
195	0x30e381c5	1.6553307e-09
196	0x341ae5bd	1.4425946e-07
197	0x34403506	1.7900683e-07
198	0x3537c8c3	6.846496e-07
199	0x3458ff29	2.0209394e-07
200	0x33e0bd87	1.0465288e-07
201	0x32e158d3	2.623384e-08
202	0x347dc951	2.36357e-07
203	0x33a757ef	7.7925385e-08
204	0x344eafed	1.9249246e-07
205	0x3432b308	1.6642673e-07
206	0x33c58288	9.197271e-08
207	0x3367ba70	5.3953443e-08
208	0x32d3d1c9	2.4659032e-08
209	0x33a92e3e	7.878087e-08
210	0x2e0a14e4	3.1396122e-11
211	0x308945b9	9.987878e-10
212	0x2f6ad3fa	2.1357485e-10
213	0x302b9c98	6.243197e-10
214	0x2f331660	1.6287904e-10
215	0x2e1aa668	3.5163344e-11
216	0x2fe54fad	4.171147e-10
217	0x3416b98f	1.4037344e-07
218	0x3485e9cd	2.4943293e-07
219	0x34ee1703	4.4347698e-07
220	0x343d4870	1.7628349e-07
221	0x33d3aba2	9.856673e-08
222	0x3353fe86	4.9358754e-08
223	0x344299e8	1.8123649e-07
224	0x348d26f7	2.6291647e-07
225	0x34b61654	3.3916388e-07
226	0x3556f6b3	8.0080207e-07
227	0x34a81bab	3.131257e-07
228	0x34221189	1.5093805e-07
229	0x33935333	6.860355e-08
230	0x34b0bbff	3.291934e-07
231	0x3376d1a2	5.7467e-08
232	0x34009445	1.1974869e-07
233	0x3450b347	1.943673e-07
234	0x338404d6	6.1476086e-08
235	0x332a5d3d	3.966601e-08
236	0x32877a77	1.5771759e-08
237	0x339a4910	7.184474e-08
238	0x3378676a	5.7836054e-08
239	0x339e8cef	7.383084e-08
240	0x341f4b20	1.4835359e-07
241	0x3396212e	6.990955e-08
242	0x3318a3f9	3.553939e-08
243	0x33004c85	2.9871916e-08
244	0x3398ecfd	7.1211595e-08
245	0x3154dc0e	3.0975147e-09
246	0x31f09ace	7.0025186e-09
247	0x32234025	9.5024335e-09
248	0x314ce006	2.981325e-09
249	0x30b6d1af	1.3301839e-09
250	0x2f8ec20e	2.5967534e-10
251	0x313f77ed	2.7862328e-09
252	0x000001f4	7e-43
253	0x000001f4	7e-43
254	0x000001f4	7e-43
255	0x000001f4	7e-43

exp_avg f4 [50]
0	0xb8ec4571	-0.000112662914
1	0x3787cb24	1.6187849e-05
2	0xb854e2e2	-5.075604e-05
3	0xb80fb6bd	-3.4264045e-05
4	0x3826b2d2	3.9744024e-05
5	0xb6de5cf8	-6.6269386e-06
6	0x378b26ea	1.6588212e-05
7	0x38987f5a	7.271646e-05
8	0xb7e69d87	-2.7491491e-05
9	0x37a8dbdd	2.0129542e-05
10	0xb8332a18	-4.271613e-05
11	0x3907ae8e	0.0001293963
12	0x3848bfc8	4.7862326e-05
13	0xb8b7fbd6	-8.773028e-05
14	0x00000004	6e-45
15	0xb8a4b574	-7.853928e-05
16	0x360964e0	2.0473308e-06
17	0xb813ba43	-3.5221e-05
18	0x36a0fccc	4.797801e-06
19	0x36973092	4.505805e-06
20	0x388c57e8	6.692094e-05
21	0xb894e45e	-7.099727e-05
22	0x38bffb40	9.154389e-05
23	0xb83d09f7	-4.5070392e-05
24	0x38a08688	7.654453e-05
25	0x38e3af7f	0.00010856892
26	0xb7aa3c46	-2.0293646e-05
27	0xb8925c71	-6.979041e-05
28	0x390683b4	0.00012828299
29	0x381ca4a6	3.734664e-05
30	0xb44b2a8b	-1.8921325e-07
31	0xb8de8306	-0.0001061019
32	0x39573524	0.00020523794
33	0x38043c5f	3.1527477e-05
34	0xb6af6e2c	-5.228232e-06
35	0xb72c8539	-1.0283017e-05
36	0x80000004	-6e-45
37	0xb8b199fa	-8.468698e-05
38	0x37d664ee	2.5557787e-05
39	0xb8a27de2	-7.7482095e-05
40	0xb82dceda	-4.143906e-05
41	0x80000004	-6e-45
42	0x36c9ad5d	6.010449e-06
43	0x3897cf46	7.238849e-05
44	0x37e3fb5c	2.7177557e-05
45	0x388580eb	6.365947e-05
46	0x37f2802d	2.8908335e-05
47	0xb67ceb50	-3.7687896e-06
48	0x37be8d9c	2.2715707e-05
49	0x371c7198	9.324773e-06

exp_avg_sq f4 [50]
0	0x34131e76	1.3701523e-07
1	0x33cdc489	9.581806e-08
2	0x3393090d	6.846867e-08
3	0x34a949ae	3.1532312e-07
4	0x34581000	2.0122388e-07
5	0x342aaffd	1.5896508e-07
6	0x33d1ac63	9.763678e-08
7	0x3369efda	5.4467684e-08
8	0x34b81f5b	3.4295485e-07
9	0x33a18e3d	7.52302e-08
10	0x33bbf236	8.751924e-08
11	0x35301956	6.560198e-07
12	0x346523cf	2.1340314e-07
13	0x345b94dd	2.045012e-07
14	0x251707c1	1.309979e-16
15	0x3559ba90	8.1110284e-07
16	0x3181f61e	3.7823744e-09
17	0x33fa89f2	1.1666624e-07
18	0x33823c58	6.064573e-08
19	0x3373ab78	5.6733796e-08
20	0x333bad80	4.3697128e-08
21	0x340b065a	1.2947694e-07
22	0x351482b3	5.532449e-07
23	0x338dbbbe	6.599974e-08
24	0x3418de35	1.4236942e-07
25	0x33d531e8	9.927663e-08
26	0x30442d55	7.1368805e-10
27	0x3266629f	1.3410186e-08
28	0x351ba023	5.797503e-07
29	0x34855d5a	2.4841103e-07
30	0x30995da0	1.1158825e-09
31	0x350a6780	5.155962e-07
32	0x356a18b7	8.720776e-07
33	0x3455e3cd	1.9920044e-07
34	0x3465a184	2.1386046e-07
35	0x32055a21	7.762112e-09
36	0x000001f4	7e-43
37	0x34165ead	1.4004281e-07
38	0x33fff885	1.1919568e-07
39	0x3483573a	2.4464117e-07
40	0x358ba6d5	1.0404862e-06
41	0x144161a3	9.763265e-27
42	0x332db81a	4.044714e-08
43	0x34e6dd40	4.300182e-07
44	0x33afcd04	8.186365e-08
45	0x33de2c53	1.0345743e-07
46	0x339086ca	6.7300405e-08
47	0x355a623b	8.135427e-07
48	0x331f63aa	3.7110716e-08
49	0x331de80a	3.676545e-08

exp_avg f4 [20, 50]
0	0xb48d647b	-2.6336406e-07
1	0xb57f6d55	-9.5154e-07
2	0xb42b5c21	-1.5959132e-07
3	0xb4fd5c91	-4.7192273e-07
4	0xb4f23af3	-4.5118904e-07
5	0xb526bbc8	-6.2113077e-07
6	0xb565863c	-8.5504485e-07
7	0xb53d7d26	-7.05901e-07
8	0xb509fb08	-5.1401776e-07
9	0xb5c1054e	-1.4381164e-06
10	0xb51450ce	-5.525188e-07
11	0xb51037ec	-5.372556e-07
12	0xb56e8fec	-8.8871343e-07
13	0xb3ed61ea	-1.1053983e-07
14	0x00000004	6e-45
15	0xb55bc2a4	-8.1867097e-07
16	0x2f730b43	2.2104722e-10
17	0xb529f794	-6.331768e-07
18	0xb5621049	-8.421526e-07
19	0xb53bd302	-6.9969985e-07
20	0xb3bc5b11	-8.770997e-08
21	0xb509c950	-5.1329425e-07
22	0xb3746cac	-5.6909514e-08
23	0xb50f37eb	-5.335302e-07
24	0xb59aa6c5	-1.152243e-06
25	0xb309f195	-3.2117516e-08
26	0x30d087fe	1.5172643e-09
27	0xb2a646ff	-1.9357229e-08
28	0xb52796a1	-6.243154e-07
29	0xb51c9812	-5.833582e-07
30	0xaecd3149	-9.3310755e-11
31	0xb5d1078c	-1.557391e-06
32	0xb42646d9	-1.5485729e-07
33	0xb4ffa656	-4.7618477e-07
34	0xb3ccf21c	-9.54353e-08
35	0xb22e2500	-1.0136546e-08
36	0x80000004	-6e-45
37	0xb414cf76	-1.3859048e-07
38	0x32af3af8	2.0399497e-08
39	0xb58f7f46	-1.0691372e-06
40	0xb512a8d6	-5.4634927e-07
41	0x00000004	6e-45
42	0xb25bbdc8	-1.2790629e-08
43	0xb512a646	-5.46312e-07
44	0xb431d428	-1.6561592e-07
45	0xb5dfe796	-1.6682195e-06
46	0xb2e50bea	-2.6664527e-08
47	0xb55126a8	-7.791482e-07
48	0xb5c625fc	-1.4763204e-06
49	0xb4c8e7e1	-3.7421617e-07
50	0xb8b109a4	-8.4418134e-05
51	0xb8ef1970	-0.00011401146
52	0xb8119977	-3.471362e-05
53	0xb88c7957	-6.6983215e-05
54	0x3785225d	1.5870837e-05
55	0xb749f084	-1.2036533e-05
56	0xb808d3d8	-3.262222e-05
57	0x376a21e8	1.3955381e-05
58	0xb8a8da82	-8.0515645e-05
59	0xb8a00975	-7.631156e-05
60	0xb796576d	-1.7922104e-05
61	0xb5d81138	-1.6098265e-06
62	0xb89175c9	-6.936078e-05
63	0xb7914a1a	-1.7319853e-05
64	0x80000004	-6e-45
65	0xb8047f38	-3.1589734e-05
66	0xb593f8a4	-1.1024717e-06
67	0xb7ce88ba	-2.4620782e-05
68	0xb8aa4b60	-8.1202714e-05
69	0xb7feb4c2	-3.0363331e-05
70	0x372a80ef	1.0162809e-05
71	0xb618a006	-2.274291e-06
72	0xb89ba95a	-7.42252e-05
73	0xb6941543	-4.413219e-06
74	0xb7e26213	-2.6986969e-05
75	0x37b6167a	2.1706557e-05
76	0xb537e758	-6.850946e-07
77	0xb4a76059	-3.1176276e-07
78	0xb758f3ca	-1.2931365e-05
79	0x3681eabc	3.8718263e-06
80	0xb2af0d7c	-2.0378813e-08
81	0xb893ea80	-7.053185e-05
82	0xb7d3c51e	-2.524495e-05
83	0xb7ad2c65	-2.064388e-05
84	0xb78a1c14	-1.6463957e-05
85	0xb5cd7541	-1.5307816e-06
86	0x80000004	-6e-45
87	0xb82be62e	-4.098395e-05
88	0xb7b73036	-2.183775e-05
89	0xb80d7946	-3.3729964e-05
90	0xb8898acc	-6.558522e-05
91	0x80000004	-6e-45
92	0xb440be94	-1.7950725e-07
93	0x3680b599	3.835838e-06
94	0x37b63bed	2.1723996e-05
95	0xb8a0163a	-7.6335346e-05
96	0x36ccfeb7	6.1093265e-06
97	0xb60e3b3f	-2.1194135e-06
98	0xb884891f	-6.319791e-05
99	0xb7c5b816	-2.3569952e-05
100	0xa94e6a20	-4.5833237e-14
101	0xaa995f68	-2.724446e-13
102	0xa8d48483	-2.3594196e-14
103	0xa9d88d7f	-9.6168726e-14
104	0xa8d48c6d	-2.3597628e-14
105	0xaa109ae6	-1.284351e-13
106	0xaa186c2b	-1.353784e-13
107	0xa9013bf6	-2.8695762e-14
108	0xa98ae75d	-6.168566e-14
109	0xaa9374fb	-2.6193617e-13
110	0xa992b81a	-6.515639e-14
111	0xa9fd1efe	-1.1240833e-13
112	0xaa83adc3	-2.3390846e-13
113	0xa8e42630	-2.5329646e-14
114	0x80000004	-6e-45
115	0xa99a1b09	-6.843664e-14
116	0xa020ae99	-1.3610297e-19
117	0xaa42641a	-1.7265391e-13
118	0xaa1ca26f	-1.3911939e-13
119	0xa9fc83a3	-1.12138834e-13
120	0xa5e9a1c2	-4.0528668e-16
121	0xa8831898	-1.4554587e-14
122	0xa6454b8b	-6.8450485e-16
123	0xa9f5dd03	-1.0918525e-13
124	0xaa6cdbb9	-2.1037242e-13
125	0x2879a440	1.3857893e-14
126	0x220c52ff	1.9017476e-18
127	0xa3a99e25	-1.8389994e-17
128	0xa9edb565	-1.0556381e-13
129	0xa9671a12	-5.1314916e-14
130	0x9f68a050	-4.9260518e-20
131	0xaa838b3e	-2.3366893e-13
132	0xa96541a1	-5.090514e-14
133	0xa99600c3	-6.66147e-14
134	0x27c60145	5.4957416e-15
135	0xa1db81a8	-1.4874337e-18
136	0x80000004	-6e-45
137	0x2726cd18	2.314831e-15
138	0xa8b0782a	-1.9592038e-14
139	0xaa5341fb	-1.8763456e-13
140	0xa9a8f88e	-7.503816e-14
141	0x00000004	6e-45
142	0x27cefddf	5.7451733e-15
143	0xaa21bc54	-1.4365012e-13
144	0xa905ffbc	-2.9753747e-14
145	0xaa8f1b4f	-2.5420852e-13
146	0x258d9b88	2.4564993e-16
147	0xaa3c4e60	-1.6724946e-13
148	0xaa2b9719	-1.5240274e-13
149	0xaa3482d5	-1.6032603e-13
150	0xb6c97a17	-6.00448e-06
151	0xb8470024	-4.744543e-05
152	0xb5a92727	-1.2602876e-06
153	0xb7350b19	-1.0791025e-05
154	0xb7931b85	-1.753658e-05
155	0xb7c7d302	-2.3820907e-05
156	0xb816e696	-3.5977537e-05
157	0xb701beb1	-7.733398e-06
158	0xb79c12f7	-1.860548e-05
159	0xb83e3d9b	-4.5356905e-05
160	0xb6041de3	-1.968693e-06
161	0x32cc896c	2.3811218e-08
162	0xb7e33130	-2.7083413e-05
163	0xb7155b1c	-8.902305e-06
164	0x80000004	-6e-45
165	0xb6a89676	-5.024306e-06
166	0xadc63ab4	-2.2536063e-11
167	0xb793f4a4	-1.7637685e-05
168	0xb836e156	-4.3602042e-05
169	0xb78d4502	-1.6840644e-05
170	0x345642e3	1.9954636e-07
171	0xb76e20b5	-1.4193521e-05
172	0x35061c40	4.996e-07
173	0xb6668fc5	-3.4356356e-06
174	0xb82e75dc	-4.1594598e-05
175	0xb717bae8	-9.043819e-06
176	0xa90ef4e9	-3.174276e-14
177	0x3280cf59	1.4995452e-08
178	0xb8048443	-3.159443e-05
179	0xb738916c	-1.1001113e-05
180	0xb0255c1a	-6.0157535e-10
181	0xb8034bf2	-3.1303563e-05
182	0xb7abf149	-2.0497146e-05
183	0xb6b7ca8f	-5.477406e-06
184	0xb638dc1a	-2.7546253e-06
185	0x2cf5f2d0	6.9902764e-12
186	0x00000004	6e-45
187	0xb596742c	-1.1209681e-06
188	0xb78e1984	-1.69396e-05
189	0xb7d04f4d	-2.483246e-05
190	0xb6d6d8c0	-6.40293e-06
191	0x80000004	-6e-45
192	0xb660b84f	-3.3485883e-06
193	0xb739f897	-1.1084739e-05
194	0xb74e3631	-1.2291174e-05
195	0xb87e171c	-6.057984e-05
196	0x348ff9c2	2.6817548e-07
197	0xb720be9a	-9.581121e-06
198	0xb892445b	-6.974555e-05
199	0x33507414	4.8534346e-08
200	0x00000004	6e-45
201	0x00000004	6e-45
202	0x00000004	6e-45
203	0x00000004	6e-45
204	0x00000004	6e-45
205	0x80000004	-6e-45
206	0x00000004	6e-45
207	0x00000004	6e-45
208	0x00000004	6e-45
209	0x00000004	6e-45
210	0x80000004	-6e-45
211	0x00000004	6e-45
212	0x00000004	6e-45
213	0x00000004	6e-45
214	0x80000004	-6e-45
215	0x00000004	6e-45
216	0x00000004	6e-45
217	0x00000004	6e-45
218	0x00000004	6e-45
219	0x00000004	6e-45
220	0x00000004	6e-45
221	0x00000004	6e-45
222	0x00000004	6e-45
223	0x80000004	-6e-45
224	0x00000004	6e-45
225	0x00000004	6e-45
226	0x00000004	6e-45
227	0x00000004	6e-45
228	0x00000004	6e-45
229	0x00000004	6e-45
230	0x00000004	6e-45
231	0x00000004	6e-45
232	0x00000004	6e-45
233	0x00000004	6e-45
234	0x00000004	6e-45
235	0x00000004	6e-45
236	0x00000004	6e-45
237	0x00000004	6e-45
238	0x00000004	6e-45
239	0x00000004	6e-45
240	0x00000004	6e-45
241	0x80000004	-6e-45
242	0x00000004	6e-45
243	0x80000004	-6e-45
244	0x00000004	6e-45
245	0x00000004	6e-45
246	0x00000004	6e-45
247	0x00000004	6e-45
248	0x00000004	6e-45
249	0x00000004	6e-45
250	0x33857887	6.215219e-08
251	0x338f405b	6.6706626e-08
252	0x330b5ab4	3.2445953e-08
253	0x33326dc6	4.1543693e-08
254	0xb28d87d8	-1.6476335e-08
255	0xb1303f28	-2.564727e-09

exp_avg_sq f4 [20, 50]
0	0x2a8c9a70	2.4976158e-13
1	0x2e0154fe	2.9406692e-11
2	0x2b072e7b	4.802614e-13
3	0x2c0536ab	1.8930784e-12
4	0x2cca2eb6	5.7463713e-12
5	0x2d0561be	7.581878e-12
6	0x2d98edbd	1.7385976e-11
7	0x2d9bffb2	1.7735011e-11
8	0x2ca3096f	4.633786e-12
9	0x2e4751ef	4.5320133e-11
10	0x2d5010ea	1.1827187e-11
11	0x2ced41ff	6.743272e-12
12	0x2dc2ea85	2.2159394e-11
13	0x29c9894a	8.950009e-14
14	0x13525829	2.6549193e-27
15	0x2db2ea6b	2.034036e-11
16	0x2459076e	4.7060667e-17
17	0x2d4e6807	1.1732843e-11
18	0x2d90bcc8	1.645474e-11
19	0x2d54c208	1.2093888e-11
20	0x2bfac402	1.7817971e-12
21	0x2ccf08f1	5.8842865e-12
22	0x2a2071fc	1.4250401e-13
23	0x2d558218	1.2136535e-11
24	0x2dfcff52	2.8762468e-11
25	0x28dc4b61	2.4457597e-14
26	0x2858ef1f	1.204226e-14
27	0x2a17b2bf	1.3473509e-13
28	0x2d6d44e4	1.3487187e-11
29	0x2d2eb60a	9.931176e-12
30	0x29a74ad8	7.429273e-14
31	0x2e32857c	4.0591072e-11
32	0x2af8d543	4.420163e-13
33	0x2d097a0b	7.814647e-12
34	0x2a5bdac6	1.952701e-13
35	0x2a4e10b1	1.8302266e-13
36	0x000001f4	7e-43
37	0x2a342af1	1.600211e-13
38	0x2cae4f9a	4.954215e-12
39	0x2ddaa906	2.4858792e-11
40	0x2c6d34dc	3.3709069e-12
41	0x080b1586	4.185409e-34
42	0x2b8b1e16	9.884895e-13
43	0x2d06fb67	7.672841e-12
44	0x2bbfc722	1.3626637e-12
45	0x2e640a09	5.185011e-11
46	0x2701c2ac	1.8007878e-15
47	0x2d90e46e	1.6472348e-11
48	0x2e261930	3.77664e-11
49	0x2c860301	3.8088426e-12
50	0x32f4aad2	2.8483019e-08
51	0x33bdb9b5	8.834778e-08
52	0x31c88281	5.8356027e-09
53	0x3307bfcf	3.1606586e-08
54	0x323b1a90	1.0890872e-08
55	0x32071cd8	7.8645925e-09
56	0x32e01eed	2.6091096e-08
57	0x3034d7e7	6.5790434e-10
58	0x334cefcd	4.771555e-08
59	0x338ed85f	6.651748e-08
60	0x3119f505	2.2403708e-09
61	0x30168c89	5.4769395e-10
62	0x32f90916	2.8991547e-08
63	0x31502c90	3.0293315e-09
64	0x000001f4	7e-43
65	0x31f70d61	7.190167e-09
66	0x2d2f3e19	9.961387e-12
67	0x31e325b1	6.6108545e-09
68	0x33bfc00e	8.929065e-08
69	0x327f829f	1.4872653e-08
70	0x3159c718	3.1690828e-09
71	0x3275ce32	1.430776e-08
72	0x32cd8dec	2.392968e-08
73	0x2fd360ad	3.844937e-10
74	0x32ee4318	2.7737357e-08
75	0x30c9c751	1.4681324e-09
76	0x2b7f7504	9.075659e-13
77	0x2d950e87	1.694579e-11
78	0x32cf063f	2.4100812e-08
79	0x30cb287f	1.4781704e-09
80	0x2d3013e8	1.0008862e-11
81	0x33a13a22	7.507721e-08
82	0x323c8226	1.0972633e-08
83	0x323872df	1.0736328e-08
84	0x324aa7bd	1.1796087e-08
85	0x2e68454c	5.281224e-11
86	0x000001f4	7e-43
87	0x32d949dd	2.5295714e-08
88	0x31eb879b	6.8548167e-09
89	0x32a34058	1.9004958e-08
90	0x33022bf1	3.0307948e-08
91	0x03e51170	1.3463414e-36
92	0x3097c0c3	1.1041482e-09
93	0x30c3766f	1.4221778e-09
94	0x312bbaaf	2.4989892e-09
95	0x341a6fd3	1.4383049e-07
96	0x30bf9043	1.3938081e-09
97	0x30c0105a	1.3974486e-09
98	0x3416c7fa	1.404259e-07
99	0x311f3c03	2.3171658e-09
100	0x18a7eca2	4.3407426e-24
101	0x1a8578da	5.520276e-23
102	0x17d02a84	1.3452417e-24
103	0x1aa98a6b	7.012039e-23
104	0x1b4aebb0	1.6785203e-22
105	0x1adb612c	9.0733267e-23
106	0x1bbb8107	3.1019937e-22
107	0x1b04da44	1.098931e-22
108	0x1a1dbdb6	3.2620086e-23
109	0x1c4cd1ba	6.7769003e-22
110	0x1b84e6f5	2.198682e-22
111	0x192eef33	9.043895e-24
112	0x1b283610	1.3914103e-22
113	0x15ec0cff	9.5340145e-26
114	0x047b592f	2.954586e-36
115	0x1b37cf1a	1.5204323e-22
116	0x02ee48a9	3.5012662e-37
117	0x1a5e45aa	4.5964798e-23
118	0x1aba7b46	7.7126956e-23
119	0x1a1ad489	3.2018138e-23
120	0x164b1b8f	1.6406905e-25
121	0x1b3036a2	1.4576032e-22
122	0x1532d668	3.611595e-26
123	0x1b1f48d8	1.3175709e-22
124	0x1bd27236	3.4815393e-22
125	0x179f44a8	1.0292465e-24
126	0x0cf20390	3.7288148e-31
127	0x15d90545	8.7653916e-26
128	0x1b09e4d4	1.1406313e-22
129	0x1aec968b	9.785053e-23
130	0x107d2db1	4.9930652e-29
131	0x1c7d26f2	8.3761014e-22
132	0x1789b75f	8.899707e-25
133	0x1b6f8a87	1.9814377e-22
134	0x16c7e1bc	3.2292642e-25
135	0x134928df	2.5389918e-27
136	0x000001f4	7e-43
137	0x174751c6	6.440358e-25
138	0x16e54553	3.7040695e-25
139	0x1be669ad	3.81186e-22
140	0x1978b9cb	1.285882e-23
141	0x0e98fd21	3.7714647e-30
142	0x1332119c	2.247544e-27
143	0x1aeba3c9	9.745833e-23
144	0x1a83e3b3	5.45482e-23
145	0x1c7e8eda	8.422618e-22
146	0x0f0c1d17	6.9081354e-30
147	0x1b495d0a	1.6656393e-22
148	0x1c04f1ab	4.3987485e-22
149	0x1a449f83	4.0660703e-23
150	0x30c955e1	1.4649083e-09
151	0x32f380a7	2.8347428e-08
152	0x2f3fe125	1.7451336e-10
153	0x31a0f856	4.6848454e-09
154	0x32029876	7.6016615e-09
155	0x31b52901	5.272455e-09
156	0x327c4ac8	1.4685334e-08
157	0x300016c2	4.659847e-10
158	0x319357ee	4.2882595e-09
159	0x33076533	3.1524177e-08
160	0x302daed2	6.318547e-10
161	0x2d46667e	1.1277755e-11
162	0x32393eb3	1.0782673e-08
163	0x30e4bb08	1.6642341e-09
164	0x131e6d6e	1.9996357e-27
165	0x2fddc18e	4.0337195e-10
166	0x271d6a42	2.184573e-15
167	0x311f34fe	2.3167668e-09
168	0x32c778b3	2.3221537e-08
169	0x3139c5cf	2.7033484e-09
170	0x2d1bdaa3	8.859277e-12
171	0x3164b922	3.3283603e-09
172	0x2ec51d95	8.9637776e-11
173	0x2eb764e8	8.339801e-11
174	0x329b54b2	1.808289e-08
175	0x30cce645	1.49084e-09
176	0x2b1764ff	5.3786137e-13
177	0x2bf2dabc	1.7255845e-12
178	0x326e902c	1.3886204e-08
179	0x30e36319	1.6544589e-09
180	0x29608d72	4.9860676e-14
181	0x32842993	1.5385728e-08
182	0x32078675	7.888606e-09
183	0x30dd73a1	1.611273e-09
184	0x2fa1c220	2.9423664e-10
185	0x2a596c58	1.9311061e-13
186	0x000001f4	7e-43
187	0x2f83934e	2.3933427e-10
188	0x3186880b	3.9153796e-09
189	0x3204cc7d	7.7299065e-09
190	0x30c5c94c	1.4390849e-09
191	0x067b14f0	4.7223236e-35
192	0x2e892ae9	6.237661e-11
193	0x314f81c8	3.0196237e-09
194	0x3178eba5	3.6222698e-09
195	0x33663722	5.360119e-08
196	0x2c820ad1	3.696023e-12
197	0x300fb02c	5.227345e-10
198	0x3372421a	5.6405135e-08
199	0x2d6b4773	1.3374068e-11
200	0x19860400	1.3856891e-23
201	0x175fd5d7	7.232509e-25
202	0x15c04bb5	7.766763e-26
203	0x193ac8a1	9.656491e-24
204	0x17ded021	1.4398953e-24
205	0x162f9cc7	1.4185858e-25
206	0x16dc3879	3.5578556e-25
207	0x13f28ddb	6.122927e-27
208	0x1936117e	9.412712e-24
209	0x17f31c62	1.5710672e-24
210	0x186a1287	3.0253145e-24
211	0x15492de3	4.0627825e-26
212	0x1364440d	2.8811197e-27
213	0x17eb22d6	1.5195313e-24
214	0x05e8bf3a	2.188742e-35
215	0x151122a2	2.9309837e-26
216	0x171fc36b	5.1622323e-25
217	0x14908679	1.4593324e-26
218	0x1868cee9	3.008976e-24
219	0x17124fc6	4.7275833e-25
220	0x15b98a75	7.493935e-26
221	0x17f1f9c9	1.5637315e-24
222	0x18868ebe	3.478232e-24
223	0x15d87aac	8.743525e-26
224	0x0fa024e3	1.5791426e-29
225	0x183a5a0d	2.40854e-24
226	0x167decb1	2.0511864e-25
227	0x163aaa00	1.5078603e-25
228	0x1768bd10	7.5201873e-25
229	0x16fb62b6	4.0613532e-25
230	0x1565201b	4.6271508e-26
231	0x1891a673	3.7649692e-24
232	0x161a7972	1.2478342e-25
233	0x16cdbdf8	3.3239423e-25
234	0x19038003	6.798393e-24
235	0x18caffba	5.2473994e-24
236	0x000001f4	7e-43
237	0x18e618fb	5.947883e-24
238	0x17b147fa	1.1456526e-24
239	0x157144f9	4.8723972e-26
240	0x1850f1c8	2.7005438e-24
241	0x0b07e05f	2.6168852e-32
242	0x17bc3ccf	1.21645655e-24
243	0x1041000f	3.8062584e-29
244	0x18177531	1.957546e-24
245	0x1809428e	1.7740437e-24
246	0x180c9dc1	1.8174221e-24
247	0x0bcf6ea0	7.989995e-32
248	0x188baae4	3.6103213e-24
249	0x15f67a83	9.95519e-26
250	0x2e510404	4.7524665e-11
251	0x2ee88d67	1.05752566e-10
252	0x2d37ad86	1.0440876e-11
253	0x2e9a0ca4	7.0053546e-11
254	0x2dbff6cd	2.1823788e-11
255	0x2d8a8731	1.574882e-11

exp_avg f4 [20]
0	0xb50bf08e	-5.213159e-07
1	0xb7cbef3e	-2.4310892e-05
2	0xa9ea805b	-1.04139536e-13
3	0xb79fed6c	-1.9064835e-05
4	0x00000004	6e-45
5	0x3234085a	1.0479278e-08
6	0x108994ba	5.426612e-29
7	0x354379e0	7.282051e-07
8	0xb781feaf	-1.5496595e-05
9	0xb4c1d39e	-3.6103023e-07
10	0xae5f5f3d	-5.0788918e-11
11	0xb3c4c0ac	-9.162008e-08
12	0xb6468c1a	-2.958585e-06
13	0x3485d1ec	2.492592e-07
14	0xb8823bb2	-6.210002e-05
15	0xb5788e82	-9.2594576e-07
16	0x374a07bc	1.2041939e-05
17	0x36014683	1.9263541e-06
18	0x35053880	4.962858e-07
19	0x80000004	-6e-45

exp_avg_sq f4 [20]
0	0x2c92282e	4.1540304e-12
1	0x325d71b8	1.288975e-08
2	0x1ac33911	8.0742305e-23
3	0x31aed6dc	5.088493e-09
4	0x172a0e5d	5.494809e-25
5	0x2dce0de6	2.342566e-11
6	0x23faae5a	2.7178895e-17
7	0x32e4aef4	2.6622253e-08
8	0x32fd8b0d	2.951631e-08
9	0x2eefcb9d	1.0904631e-10
10	0x2964e4cc	5.082462e-14
11	0x307bf0c4	9.1655417e-10
12	0x30c8e6e7	1.4617542e-09
13	0x2c16a492	2.1407637e-12
14	0x33b4822d	8.405582e-08
15	0x2f893592	2.495822e-10
16	0x32294681	9.853125e-09
17	0x2fad3bcd	3.1511008e-10
18	0x3165dfa3	3.3451009e-09
19	0x19256e43	8.552567e-24

exp_avg f4 [2, 20]
0	0xb302c9b8	-3.0451446e-08
1	0x380b2abb	3.317998e-05
2	0xa893a58f	-1.6392078e-14
3	0x379b091b	1.848168e-05
4	0x37caf31c	2.4193483e-05
5	0xb28bf7e2	-1.6294454e-08
6	0x37caf31c	2.4193483e-05
7	0x381b25c6	3.699006e-05
8	0x37dc86ba	2.628878e-05
9	0x37e9ef14	2.7887094e-05
10	0x37caf310	2.4193461e-05
11	0x37caf352	2.4193581e-05
12	0x350dff20	5.289785e-07
13	0xb4152dad	-1.3893323e-07
14	0x38220bee	3.863492e-05
15	0x37c8e0fb	2.3946623e-05
16	0xb8213307	-3.8432914e-05
17	0xb4f92e00	-4.6413334e-07
18	0xb5a6c971	-1.2426591e-06
19	0x37caf31c	2.4193483e-05
20	0x3418209a	1.4167964e-07
21	0x382a6348	4.062362e-05
22	0x2a1afda6	1.376595e-13
23	0x387046f9	5.7286557e-05
24	0x38895ee7	6.550346e-05
25	0xb269761c	-1.358924e-08
26	0x38895ee7	6.550346e-05
27	0xb7f02862	-2.8629034e-05
28	0x37311f97	1.0557377e-05
29	0x388a4c7e	6.5946006e-05
30	0x38895ee7	6.550346e-05
31	0x3889328e	6.5420856e-05
32	0x38851997	6.346701e-05
33	0xb4234ff0	-1.5209639e-07
34	0x38d0d57f	9.95798e-05
35	0x38894d28	6.5470405e-05
36	0x3872986e	5.7839257e-05
37	0x353307a2	6.6693804e-07
38	0x377dfa80	1.5138299e-05
39	0x38895ee7	6.550346e-05
